backup/tmp/gcn.pth (torch, 3488 bytes, 6 tensors)

conv1.bias f4 [32]
000000 fe 46 58 bb 43 4b 56 3b 87 d5 50 bb 00 00 00 00
       -0.00330013 0.0032698668 -0.0031865553 0.0
000010 00 00 00 00 aa 29 5f 3b 83 45 58 3b 00 00 00 00
       0.0 0.0034051933 0.0033000417 0.0
000020 26 45 51 3b 99 e9 70 3a 4c 1c 4b bb 9d 84 5a 3b
       0.0031932085 0.0009190082 -0.0030992208 0.0033343204
000030 00 00 00 00 f0 a6 37 bb b8 36 58 3b 61 f6 5c 3b
       0.0 -0.0028023086 0.00329916 0.003371619
000040 96 e4 56 3b 0d f0 44 ba b8 b5 58 bb 7d 0a 58 3b
       0.0032790056 -0.0007512577 -0.0033067297 0.0032965236
000050 9e 3e 59 3b a8 a4 57 3b 70 74 21 3b 18 07 4f bb
       0.0033148895 0.003290454 0.0024636053 -0.0031589922
000060 8e 44 42 bb 6d da 5f 3b 00 00 00 00 6c 3d 5d 3b
       -0.0029642913 0.0034157292 0.0 0.0033758534
000070 73 34 5b 3b de 4c 4c bb 94 d9 39 bb 9e 9b 50 bb
       0.003344801 -0.0031173746 -0.0028358446 -0.0031831036

conv1.lin.weight f4 [32, 3]
000000 02 b5 a6 3d 90 26 ae be 6c 6c bd be 94 f4 a3 bd
       0.08139993 -0.34013796 -0.36996782 -0.08005634
000010 c4 ca c3 be 70 cc c5 3e 54 45 bc be 09 67 fb bd
       -0.38240635 0.38632536 -0.36771643 -0.12275512
000020 d5 97 a1 3e 64 0f 97 be 39 66 a6 be 00 2f 98 be
       0.3156115 -0.2950393 -0.32499865 -0.29723358
000030 36 d6 03 bd 48 cb 4a be d8 c5 88 be c9 f3 bf bd
       -0.03218671 -0.19804108 -0.26713443 -0.0937267
000040 ae 5a e2 3d d3 e5 23 3e e9 ad 90 bd 0f 91 c1 be
       0.11052452 0.1600564 -0.07064421 -0.37805983
000050 00 43 c3 3e fb d0 c2 be df 18 83 3e 72 3d 9a be
       0.38137054 -0.38050064 0.25604913 -0.30125004
000060 17 b3 28 3e 67 1c 2c be ba ba 30 3e 2f 94 31 be
       0.16474567 -0.1680771 0.1725873 -0.17341684
000070 27 b6 ba 3e c8 dd 86 bc 54 a4 c8 bd 56 68 93 3e
       0.36467096 -0.016463175 -0.09796968 0.2879054
000080 38 0d ba 3e d4 c5 00 bc 91 bb 9b be 2c b3 84 3c
       0.3633821 -0.007859666 -0.3041654 0.016198717
000090 72 b4 ad bd d9 c6 76 be 5c f2 b3 be 80 50 96 be
       -0.08481683 -0.24099292 -0.35145843 -0.29358292
0000a0 89 c7 0f 3d 03 05 b0 3e d2 87 8c be 66 af ba bc
       0.0351024 0.34378824 -0.27447373 -0.022788715
0000b0 57 fc cd 3e 8d 12 a7 3c 4d ab 0e 3c d1 ec 02 3e
       0.40231583 0.020394588 0.0087078335 0.12785651
0000c0 9a e0 4e 3e 31 25 94 3e b3 e0 8e be d3 42 de bd
       0.20202866 0.28934625 -0.27905807 -0.108525895
0000d0 bf 30 b7 3e 9c 9a 52 bd 66 98 6a 3e 0f ca aa 3e
       0.35779378 -0.05141698 0.22909698 0.33357283
0000e0 40 2d 93 be 3e 36 0e be 82 c9 b0 bc 82 58 14 3e
       -0.2874546 -0.13887879 -0.021580461 0.14486888
0000f0 bd 69 cd be 7c c2 6f bd 57 72 aa 3e 68 03 78 3d
       -0.40119734 -0.058535084 0.3329036 0.060550123
000100 bb 29 69 be d8 53 9a 3d d3 ba b5 bd c9 6e bb 3e
       -0.22769825 0.07535523 -0.088735245 0.3660796
000110 d1 30 7f be aa 46 81 be b4 a9 b5 3d 3f 28 aa 3d
       -0.24920966 -0.25249225 0.08870259 0.083084576
000120 d5 2d f0 bd e9 64 ae 3e f0 05 c2 be 33 3b 67 3e
       -0.11727492 0.34061363 -0.37895155 0.22581176
000130 1e b0 cd be 41 b7 cb be 46 12 76 bd 60 6b ad be
       -0.4017343 -0.3978825 -0.06007602 -0.33870983
000140 41 4f 8b be 87 df ce be d1 de 0f be f2 a6 d4 3e
       -0.27208903 -0.40404913 -0.14049841 0.4153362
000150 24 75 ce 3c cc cf b6 be 02 c1 9f be 28 b4 b6 be
       0.025202341 -0.3570541 -0.3120194 -0.35684323
000160 a5 0c c0 bc c8 68 68 3e ce 85 c4 3e 14 d6 06 3d
       -0.02344353 0.22696221 0.38383335 0.032919005
000170 03 5e 1a be 26 27 53 3e e4 3f 82 3e 3e f5 01 3e
       -0.15074925 0.20620403 0.2543937 0.12691209

conv2.bias f4 [4]
000000 23 8d 6c 3b 66 ad 54 bb fb d0 17 bb cf 1b 5b 3b
       0.0036094866 -0.0032451986 -0.0023165334 0.0033433323

conv2.lin.weight f4 [4, 32]
000000 59 d4 83 be ad b0 8e be 8c 69 bb be 6f 9a 36 be
       -0.25747946 -0.27869168 -0.36603963 -0.17832349
000010 4b 7c 18 bd 9b 42 6a 3e 14 fb ab be 00 9e 3d 3e
       -0.03722791 0.2287697 -0.33589995 0.18517303
000020 b9 29 14 bd 1c 43 b9 3d 4b ae b8 bd 17 09 d2 bb
       -0.036172602 0.09046003 -0.09017619 -0.006409775
000030 ec 6b d5 3d 3f fc 71 be ee fb d0 3d 10 42 8f 3d
       0.10420975 -0.2363138 0.10204302 0.06995022
000040 aa 86 c8 be c8 8b 2c be 36 58 fc 3c 6c 61 4d 3e
       -0.3916524 -0.16850197 0.030803781 0.20056695
000050 a3 6d 3f 3e 07 0b ba 3e 8f e5 c5 be e8 38 38 be
       0.18694167 0.36336538 -0.38651702 -0.17990458
000060 aa db bc be ef 8e d2 3d 63 e4 37 3d 5f 36 7c 3d
       -0.3688634 0.10281169 0.04489554 0.06157529
000070 0d c7 6a 3e 06 63 cc 3e 24 c8 7f 3e da 3c 87 3c
       0.22927494 0.399193 0.24978691 0.016508508
000080 78 ec f3 3d 50 3a 00 3e 6e a6 58 be 60 e3 eb 3d
       0.11910337 0.12522244 -0.21157238 0.11517978
000090 cb 2a 50 bd ad a8 a9 3c 7c 63 98 3e 3d 22 a6 3d
       -0.05082206 0.020710314 0.297634 0.08111999
0000a0 d6 31 a3 3d 88 87 9a 3e 96 c4 c4 be 4d c9 e0 3d
       0.0796849 0.30181527 -0.38431233 0.10975895
0000b0 08 9b b4 3e 04 8c 28 bc 15 ef 9f 3e d4 8f 95 be
       0.3527453 -0.010287289 0.31237093 -0.29211295
0000c0 18 24 c9 be bb 4e e1 3d 34 25 a6 3e 47 76 5e 3e
       -0.3928535 0.11001345 0.3245026 0.21724807
0000d0 aa 20 41 3e 28 58 fc bd 39 59 c5 be cb 77 9a be
       0.18860117 -0.12321502 -0.38544634 -0.3016952
0000e0 07 e6 12 3e 03 37 97 be a7 54 ba 3d ea 6c 77 3d
       0.14345561 -0.29534158 0.090981774 0.060406603
0000f0 cf 64 67 be 1e 47 7c bd bf 3c 81 3d fa db 89 3e
       -0.22597049 -0.06159126 0.063104145 0.2692564
000100 fe a0 03 3e b5 86 8e 3d fa 89 d1 bd 85 8c 62 3e
       0.12854382 0.06959287 -0.10231395 0.22123916
000110 ec f0 8c be ed 0e cb be 2a 5d 61 3e 15 36 1a be
       -0.2752756 -0.39659825 0.22008196 -0.15059693
000120 3b 67 0e 3e f9 58 32 3e f9 9c 2c be a9 07 8c 3e
       0.13906567 0.17416753 -0.16856755 0.27349594
000130 e2 1b 06 be be c3 e1 3d 00 b2 92 3e af 26 05 3c
       -0.13096574 0.11023663 0.28651428 0.008126899
000140 4c c0 b7 be de 46 ac be 41 54 91 bd 96 a3 3b 3e
       -0.35888898 -0.33647817 -0.07096148 0.18324122
000150 02 9f 4a 3e 21 dc 0f be 30 ee a2 be ce 99 3c 3e
       0.19787219 -0.14048816 -0.31822348 0.18418047
000160 55 f9 a0 3e 7d c4 59 be 7c 4c cb be 9c 83 b9 be
       0.31440225 -0.2126636 -0.3970679 -0.36233222
000170 d5 6d 71 bd db 84 18 be 76 e3 55 be c6 6a a6 be
       -0.058942635 -0.1489443 -0.2088755 -0.32503337
000180 7b 5d 1a 3d 96 f3 0a be ee 01 7f bd 1b 14 89 bd
       0.037686806 -0.13569483 -0.0622577 -0.06693288
000190 92 25 be be d4 dc cf 3d e4 d2 b4 3e 9a 30 bd 3e
       -0.3713804 0.101495415 0.35317147 0.36951143
0001a0 dc 18 a3 3e fa 91 29 be 1f 92 5b be d4 45 19 3e
       0.31854904 -0.16559592 -0.2144246 0.14968044
0001b0 f5 3f c1 be 8e 5e a7 3e d9 d1 97 3e e6 1f 96 3e
       -0.37744108 0.32689327 0.2965229 0.29321212
0001c0 75 88 59 be 81 73 cb bd 4e 7c 0f bd b7 44 7e be
       -0.2124346 -0.0993414 -0.035030656 -0.248309
0001d0 9b 0c 81 3e 54 39 dc bd ce 10 05 3c cd 1a 72 3d
       0.2520493 -0.10753122 0.008121682 0.05910759
0001e0 f2 ff 5b be 8a 01 ad 3d db fb 39 be 64 40 3a 3e
       -0.21484354 0.08447559 -0.18162481 0.18188626
0001f0 c2 d1 1c 3e 5f 80 57 3e 91 95 83 bd 71 5c 51 3d
       0.15314391 0.21045063 -0.06425012 0.05111355

fc_out.weight f4 [4, 4]
000000 38 f0 4e 3e 57 f9 cf 3e 07 e2 6a ba 15 4a d1 bd
       0.20208824 0.4061992 -0.00089600723 -0.10219208
000010 bc 00 a4 3e b7 a2 68 bd 8d da 3a 3d 32 96 d3 be
       0.3203181 -0.056795802 0.045618583 -0.41325527
000020 52 0f c4 bd 04 8a 01 3e 29 94 fc 3d 49 7e ef 3c
       -0.095732346 0.12650305 0.12332947 0.029235022
000030 7c 01 87 3e b7 2a 00 bf 62 c6 87 be ef 72 6c 3d
       0.2636832 -0.5006518 -0.26518542 0.057726797

fc_out.bias f4 [4]
000000 4e e9 62 be 05 eb 1c be 85 e3 9d bb dc ec f6 be
       -0.22159311 -0.15324028 -0.004818382 -0.48227584
