tmp/gcn.pth (torch, 8624 bytes, 4 tensors)

conv1.bias f4 [32]
0.0030059104 0.000112120244 -0.003012545 -0.0030066504 0.0012441247 -0.000691356 0.0030341009 -0.00083927554
0.0029531496 0.003027918 0.0029933196 0.0030218735 0.0020832778 0.0009964176 0.0019887178 0.003016876
-0.0030155755 0.0030160523 -0.0014548539 -0.00068490463 -0.003046518 -0.0014468159 0.0027798386 0.003004233
-0.0029452902 0.0030321688 -0.0030374245 -0.0014730674 0.0003640686 -0.002496498 0.0030334594 -0.002893303
00000000: cffe 443b 1922 eb38 1e6e 45bb 390b 45bb
00000010: e611 a33a 1e3c 35ba c4d7 463b d402 5cba
00000020: a189 413b 0970 463b 922b 443b a00a 463b
00000030: 9a87 083b 3a9a 823a 2655 023b c8b6 453b
00000040: f6a0 45bb f6a8 453b ccb0 beba 2c8b 33ba
00000050: 17a8 47bb 16a3 bdba f42d 363b aae2 443b
00000060: c505 41bb 5ab7 463b 870f 47bb f113 c1ba
00000070: 76e0 be39 499c 23bb 01cd 463b 929d 3dbb

conv1.lin.weight f4 [32, 35]
-0.09535263 0.17970787 0.14173473 -0.25319013 -0.22278494 -0.1832237 -0.10197313 0.24957159
-0.21111336 -0.015748886 -0.22285557 0.027900768 -0.17609933 -0.15242305 -0.06917346 -0.0843698
-0.2671473 -0.15920086 0.10134635 -0.027345793 0.29151478 0.024493964 0.2131517 0.050516237
-0.072920926 -0.25212902 -0.030216051 0.022536552 0.28856528 -0.1853661 -0.08611934 0.21702498
-0.11343345 -0.094574645 -0.02957568 -0.17536321 0.108138256 0.25810105 0.24176227 0.081906006
-0.028160332 -0.12523654 -0.15715924 0.011743358 0.27876556 -0.11269366 0.120808676 0.142949
-0.1868231 0.14535666 0.2068157 -0.2934754 0.14646375 -0.1675603 0.16150807 0.116903394
0.19710797 -0.021501154 -0.12220053 0.051862873 -0.29150018 -0.044077836 -0.1387707 -0.16823204
0.12376934 -0.09657679 0.0310406 0.021597281 -0.14407936 -0.24898954 -0.013763759 0.108434185
0.13974299 0.0603905 -0.13362958 0.28496742 0.2503043 -0.08414887 -0.12325761 0.21048427
-0.20357837 0.095433116 0.19539298 0.19485359 -0.13950042 0.257302 0.07164021 -0.049763616
-0.18768865 -0.2626638 0.104859486 0.16713299 -0.10714001 0.07024448 -0.12110449 -0.17252725
-0.06168313 -0.23438191 -0.16052784 -0.24050137 -0.09813226 0.0035498564 -0.04607996 0.007880682
0.13226174 0.07762886 0.2840817 -0.0358586 -0.23415317 -0.16073321 0.18493229 0.11947024
0.2773135 0.28593066 0.024565166 0.06559324 0.11452002 -0.13684243 0.24375595 0.16175714
0.15843135 -0.112612404 -0.084519334 -0.091261074 -0.2788305 0.18291557 0.23931016 -0.29796538
0.2614502 0.093521535 -0.1347148 0.22210965 0.10726115 0.16658314 -0.17707859 -0.09071631
-0.1130673 -0.15512206 0.09408386 -0.25475758 -0.29254094 0.26140875 0.14244796 0.21032402
0.26997125 0.26627907 -0.15856414 -0.008373431 0.082943596 -0.15958193 0.058653224 -0.18018378
0.05214053 0.024376547 -0.21434398 -0.24222393 -0.22058995 0.022360954 0.118414685 0.10048051
0.17729823 -0.07339878 0.1537521 -0.25879773 -0.23794442 0.29501602 0.031720996 0.13661462
0.19219668 -0.06206095 -0.20428349 -0.042838268 -0.27218318 0.21134412 0.17412035 -0.2455839
0.2814506 0.20011449 -0.25030613 0.24186431 -0.05302159 -0.065853074 0.12590832 0.27099022
-0.0039193085 0.24664268 0.12139314 -0.17665748 0.2947592 0.04300516 -0.2345374 0.0684692
0.15910795 0.029139286 0.056836717 -0.097219475 0.13348205 -0.14448589 0.19441168 0.19293761
0.037875183 0.19583431 -0.13231046 0.0720775 0.2556163 0.010488848 0.20744953 -0.23983064
-0.12249219 -0.23211657 0.14096348 0.041607518 0.22773232 -0.01826933 -0.14366108 -0.05453462
-0.036726482 0.014815653 -0.15039793 0.25998053 0.13702671 -0.23204507 -0.15008543 -0.2952466
-0.26802823 0.00482006 0.20336835 0.23845945 0.067874536 -0.11034679 0.27947104 -0.03950222
-0.0073165004 -0.04979436 0.24699338 0.097045526 -0.22042514 0.13460924 0.22050853 -0.06151849
-0.17791918 0.24529262 0.03533877 0.2849396 0.02669452 0.16000035 0.09210625 -0.19014879
0.12055657 0.012784192 0.26924586 -0.06694333 0.26389912 0.19537081 -0.19625954 -0.041042734
00000000: 3d48 c3bd 5705 383e e922 113e 23a2 81be
00000010: bc21 64be fe9e 3bbe 4ad7 d0bd b28f 7f3e
00000020: 1a2e 58be cf03 81bc 4034 64be 2790 e43c
00000030: 6253 34be ca14 1cbe d1aa 8dbd 13ca acbd
00000040: 88c7 88be 8d05 23be ad8e cf3d 4904 e0bc
00000050: 6d41 953e 91a7 c83c 7044 5a3e 1dea 4e3d
00000060: 9157 95bd 0e17 81be a787 f7bc 939e b83c
00000070: d4be 933e 9cd0 3dbe 565f b0bd cc3b 5e3e
00000080: cc4f e8bd 5ab0 c1bd b248 f2bc 6a92 33be
00000090: 9777 dd3d d225 843e 8790 773e 56be a73d
000000a0: 7fb0 e6bc 023e 00be 5aee 20be 3767 403c
000000b0: 5cba 8e3e efcb e6bd 8a6a f73d 3961 123e
000000c0: 8e4e 3fbe 60d8 143e 7fc7 533e 6842 96be
000000d0: 98fa 153e ed94 2bbe 5f62 253e 0c6b ef3d
000000e0: acd6 493e 3023 b0bc 4544 fabd 2a6e 543d
000000f0: 833f 95be f68a 34bd e819 0ebe 0545 2cbe
00000100: c87a fd3d 0dca c5bd db48 fe3c c8ec b03c
00000110: 8a89 13be 1df7 7ebe 6481 61bc be12 de3d
00000120: c918 0f3e 075c 773d 31d6 08be 40e7 913e
00000130: e327 803e 3e56 acbd 7c6e fcbd 3089 573e
00000140: d976 50be 7072 c33d 1915 483e b387 473e
00000150: 33d9 0ebe 16bd 833e 1ab8 923d efd4 4bbd
00000160: 7431 40be df7b 86be 92c0 d63d e924 2b3e
00000170: 396c dbbd 57dc 8f3d a105 f8bd fcaa 30be
00000180: 73a7 7cbd d001 70be 6961 24be fe45 76be
00000190: 91f9 c8bd b5a4 683b 57be 3cbd fa1d 013c
000001a0: 9f6f 073e e1fb 9e3d 2873 913e 78e0 12bd
000001b0: d9c5 6fbe 3f97 24be e45e 3d3e d0ac f43d
000001c0: 09fc 8d3e 8165 923e e33c c93c c055 863d
000001d0: 7989 ea3d 6c20 0cbe 299b 793e aaa3 253e
000001e0: d43b 223e 55a1 e6bd 7918 adbd 16e7 babd
000001f0: dfc2 8ebe 384e 3b3e b90d 753e eb8e 98be
00000200: cddc 853e 3888 bf3d adf2 09be b670 633e
00000210: bcab db3d c594 2a3e 1754 35be 79c9 b9bd
00000220: d48f e7bd 51d8 1ebe 0aaf c03d 966f 82be
00000230: edc7 95be 5ed7 853e e1dd 113e 2e5f 573e
00000240: ac39 8a3e bb55 883e a35e 22be b730 09bc
00000250: 55de a93d 7269 23be 5d3e 703d 1982 38be
00000260: 4f91 553d 53b1 c73c fd7c 5bbe 8d09 78be
00000270: 55e2 61be 522e b73c 6683 f23d bac8 cd3d
00000280: ab8d 353e 1952 96bd 3171 1d3e 2381 84be
00000290: b4a7 73be 570c 973e e0ed 013d b4e4 0b3e
000002a0: 35cf 443e 9f33 7ebd b12f 51be 2e77 2fbd
000002b0: 985b 8bbe 986a 583e 9b4c 323e 597a 7bbe
000002c0: 4b1a 903e d0ea 4c3e 2028 80be 47ab 773e
000002d0: 2b2d 59bd fadd 86bd 1cee 003e 3bbf 8a3e
000002e0: 8b6d 80bb e68f 7c3e f79c f83d b3e5 34be
000002f0: aeea 963e 2e26 303d 922a 70be 9439 8c3d
00000300: 32ed 223e 83b5 ee3c 9ecd 683d 011b c7bd
00000310: 85af 083e 1cf4 13be db13 473e 7091 453e
00000320: 0223 1b3d ca88 483e 657c 07be 5e9d 933d
00000330: 24e0 823e 6bd9 2b3c a66d 543e 2a96 75be
00000340: 2fdd fabd f7af 6dbe bb58 103e a56c 2a3d
00000350: a932 693e 90a9 95bc e41b 13be b25f 5fbd
00000360: 826e 16bd 5abd 723c ea01 1abe 2b1c 853e
00000370: bb50 0c3e 399d 6dbe ffaf 19be 902a 97be
00000380: ff3a 89be 98f1 9d3b cb3f 503e b72e 743e
00000390: ce01 8b3d 7ffd e1bd d416 8f3e 14cd 21bd
000003a0: 41bf efbb 2cf5 4bbd d5eb 7c3e cebf c63d
000003b0: 21b7 61be 01d7 093e fdcc 613e d0fa 7bbd
000003c0: 7230 36be fd2d 7b3e 63bf 103d 9ae3 913e
000003d0: 77ae da3c 22d7 233e 34a2 bc3d 5db6 42be
000003e0: 5de6 f63d ca74 513c 98da 893e 9619 89bd
000003f0: c91d 873e 490f 483e 43f8 48be 6d1c 28bd

conv2.bias f4 [16]
-0.0030371463 0.0030145003 -0.0030261541 0.0030229606 0.0029881757 -0.001677009 -0.0030450686 -0.0030156535
-0.00039738097 0.002461399 -0.003024835 0.003021938 -0.0030293958 0.0021592355 -0.0023896392 -0.0016700955
00000000: dc0a 47bb ec8e 453b 7152 46bb dd1c 463b
00000010: 45d5 433b 16cf dbba c68f 47bb 45a2 45bb
00000020: 9257 d0b9 6c4f 213b 4f3c 46bb b50b 463b
00000030: d488 46bb f681 0d3b 7e9b 1cbb 1be7 daba

conv2.lin.weight f4 [16, 32]
-0.26556867 -0.022499155 -0.059327208 -0.16686845 -0.19629763 0.3454181 0.08331009 -0.20568043
0.1699457 -0.1367364 -0.3194582 0.17858654 0.16964847 0.16662897 -0.34190282 -0.047830686
0.3339335 0.03653087 0.20795219 0.27233428 0.0343949 0.301333 -0.20890932 0.19027893
-0.3212659 0.13210113 0.0656728 -0.24482515 0.07488943 0.17010297 0.17999643 0.29298475
0.26571888 -0.25326803 -0.044374943 -0.15009753 -0.14249854 -0.31271708 0.3034882 0.16802545
0.29015535 0.23988988 0.33770394 0.16326644 0.28450215 -0.08931435 0.35266316 -0.107786685
-0.16585995 0.22615528 0.26725233 0.24463381 0.19830807 0.19826642 -0.20770879 -0.009818362
-0.049431603 0.32952613 0.0366867 -0.2349771 0.012329505 -0.13736394 0.28475472 -0.037824154
0.14339092 0.24087928 0.076853134 0.22403519 -0.11316781 -0.25154707 -0.09721498 -0.028050127
-0.27336496 0.0034699426 -0.15554897 -0.15227586 -0.024764925 -0.10204436 0.3113536 -0.03507796
0.23473127 0.28330833 0.16327356 0.32401532 0.03411307 0.13293482 -0.28556696 0.07819745
0.31030858 -0.20476612 0.1433355 -0.33588648 0.22169463 0.33278525 0.18976165 0.32718968
0.2868817 0.24525881 -0.025070451 -0.034688693 0.14048174 0.28972754 0.032447457 -0.03199586
-0.2256095 -0.12409889 -0.11746118 -0.09280372 -0.039071113 0.30042756 -0.32218137 -0.008550359
0.35618672 0.29495692 -0.19913954 0.22379117 -0.32810807 -0.21615313 0.35097417 0.31718084
0.023045404 -0.0036566101 -0.21239841 -0.26337853 0.06962392 -0.24622256 -0.15951762 -0.101658486
0.20986812 0.30987048 0.007728525 0.28488088 -0.09028074 0.0940455 -0.24218413 -0.08998611
-0.34808376 -0.054416448 -0.010195672 -0.002352736 0.2668215 0.08839199 0.10847933 0.18829648
0.03395802 0.056268025 -0.24454826 0.3405616 0.11313269 0.2416179 -0.10714477 -0.07616843
0.25440046 -0.24617393 0.16551109 0.22056131 -0.23173594 0.17789131 -0.15149797 0.20104349
-0.34304988 0.14829017 -0.18949537 -0.2247419 -0.19089207 0.31721187 0.2502528 0.21098143
-0.11758652 0.31574434 -0.09421215 0.06519537 0.30212113 0.115810394 -0.33769983 -0.24189268
0.2719481 -0.09140403 -0.3294729 -0.023077505 -0.2257161 -0.24981956 0.1340826 -0.3083486
-0.10376909 -0.20312367 0.0742883 0.231419 -0.20188333 -0.12848532 -0.17223744 -0.35205638
-0.30629665 -0.31565765 0.025192559 0.1269521 -0.28830338 0.14562875 -0.31379616 0.15132691
-0.30624354 -0.07240343 0.30239278 -0.2526184 0.26397902 0.015937291 -0.2796802 0.13917279
0.32415533 -0.040596303 0.09693767 0.041990902 -0.05792903 -0.15764828 0.19210781 -0.3038641
0.017070623 -0.05225877 -0.2974799 -0.31201732 0.037334565 0.07301024 -0.078163296 0.28334484
0.284054 -0.0809171 0.2376424 0.31691647 -0.23483941 -0.09950383 -0.3475928 0.31042993
0.20597757 0.047071625 -0.23764484 0.22406629 0.011005899 -0.33832958 -0.18562742 0.08065266
0.21402095 0.17808999 -0.034277245 -0.34595528 0.25623572 -0.022943864 0.03681149 -0.24929471
-0.11709875 0.03700247 -0.15498383 -0.1278145 0.059565015 -0.2635691 -0.23496318 -0.20765837
00000000: 9ef8 87be 2650 b8bc 1601 73bd 90df 2abe
00000010: 3f02 49be a4da b03e 7b9e aa3d e49d 52be
00000020: 3f06 2e3e a004 0cbe 0690 a3be 64df 363e
00000030: 54b8 2d3e c9a0 2a3e e30d afbe 1cea 43bd
00000040: 55f9 aa3e 65a1 153d 6bf1 543e 666f 8b3e
00000050: abe1 0c3d 5248 9a3e 53ec 55be 7bd8 423e
00000060: f77c a4be 8545 073e 767f 863d 72b3 7abe
00000070: a15f 993d 792f 2e3e fc50 383e 1902 963e
00000080: 4e0c 883e 59ac 81be 80c2 35bd 2bb3 19be
00000090: 23eb 11be 741c a0be ce62 9b3e dd0e 2c3e
000000a0: 3e8f 943e b1a5 753e 88e7 ac3e 512f 273e
000000b0: 44aa 913e 71ea b6bd 4490 b43e 44bf dcbd
000000c0: 31d7 29be 4095 673e 4cd5 883e 4981 7a3e
000000d0: 4511 4b3e 5a06 4b3e 9db1 54be 32dd 20bc
000000e0: cb78 4abd a6b7 a83e cb44 163d d69d 70be
000000f0: b101 4a3c 22a9 0cbe 5fcb 913e 80ed 1abd
00000100: 12d5 123e 0fa9 763e 2d65 9d3d 7b69 653e
00000110: 86c4 e7bd c7ca 80be a618 c7bd 61c9 e5bc
00000120: 7ef6 8bbe fa67 633b 3b48 1fbe 34ee 1bbe
00000130: d0df cabc a2fc d0bd bd69 9f3e e8ad 0fbd
00000140: 655d 703e ca0d 913e 2f31 273e 56e5 a53e
00000150: 26ba 0b3d 1120 083e d535 92be fc25 a03d
00000160: c4e0 9e3e 36ae 51be 8bc6 123e 50f9 abbe
00000170: eb03 633e d462 aa3e e150 423e 6885 a73e
00000180: 28e2 923e 2025 7b3e 8c60 cdbc bb15 0ebd
00000190: 72da 0f3e 2b57 943e a0e7 043d 170e 03bd
000001a0: 2d06 67be 8f27 febd 7d8f f0bd e00f bebd
000001b0: 0809 20bd a4d1 993e f5f4 a4be ce16 0cbc
000001c0: 1b5e b63e 9804 973e 3ceb 4bbe 8329 653e
000001d0: c8fd a7be 3f57 5dbe e3b2 b33e 8765 a23e
000001e0: b7c9 bc3c bda3 6fbb f87e 59be 8dd9 86be
000001f0: fc96 8e3d c421 7cbe 9658 23be 5332 d0bd
00000200: abe7 563e 58a7 9e3e 913f fd3b e8db 913e
00000210: 1ce5 b8bd ed9a c03d 1eff 77be a34a b8bd
00000220: 0938 b2be c8e3 5ebd bf0b 27bc 5c30 1abb
00000230: d49c 883e dc06 b53d 692a de3d cbd0 403e
00000240: 9117 0b3d 4d79 663d dc6a 7abe 175e ae3e
00000250: 1db2 e73d af6a 773e b86e dbbd 32fe 9bbd
00000260: c740 823e 0515 7cbe bd7b 293e d3da 613e
00000270: 304c 6dbe 2429 363e 4922 1bbe 58de 4d3e
00000280: 3ca4 afbe 61d9 173e 130b 42be be22 66be
00000290: 3679 43be 9869 a23e 2321 803e 840b 583e
000002a0: 34d1 f0bd 3ea9 a13e 4df2 c0bd 2685 853d
000002b0: 9faf 9a3e 002e ed3d fee6 acbe b7b2 77be
000002c0: c83c 8b3e 0932 bbbd acb0 a8be 090d bdbc
000002d0: 1f22 67be b3d0 7fbe f34c 093e dedf 9dbe
000002e0: e384 d4bd a7ff 4fbe 7724 983d 1af9 6c3e
000002f0: 81ba 4ebe a891 03be 035f 30be bc40 b4be
00000300: ead2 9cbe e19d a1be a060 ce3c bbff 013e
00000310: 809c 93be b41f 153e e4a9 a0be 71f5 1a3e
00000320: f4cb 9cbe 4048 94bd 3ad3 9a3e 3357 81be
00000330: 4228 873e ec8e 823c 3e32 8fbe 5083 0e3e
00000340: b0f7 a53e 4f48 26bd 4287 c63d a7fe 2b3d
00000350: fe46 6dbd 8d6e 21be e9b7 443e 1394 9bbe
00000360: b1d7 8b3c 4b0d 56bd 494f 98be bcc0 9fbe
00000370: 21ec 183d 6586 953d 1414 a0bd 9312 913e
00000380: 876f 913e ddb7 a5bd 8858 733e e042 a23e
00000390: be79 70be aac8 cbbd aff7 b1be acf0 9e3e
000003a0: c9eb 523e 2dce 403d 2b59 73be a271 653e
000003b0: 1652 343c 8939 adbe 1d15 3ebe 392d a53d
000003c0: 4f28 5b3e 395d 363e 4c66 0cbd 0d21 b1be
000003d0: 5431 833e c5f4 bbbc a5c7 163d 1d47 7fbe
000003e0: 78d1 efbd e78f 173d 15b4 1ebe cee1 02be
000003f0: 72fa 733d 87f2 86be 309a 70be 65a4 54be
