agent_0_gcn.pth (torch, 147323 bytes, 18 tensors)

conv1.bias f4 [128]
000000 27 9a 20 bd 96 48 4a bc 96 ab 78 bc d1 42 9d bc
       -0.03920951 -0.012346407 -0.015177628 -0.0191969
000010 33 4f ba 3c d6 41 5e bb d6 9b ab bb 05 94 c4 3c
       0.022742843 -0.0033913753 -0.005237083 0.023996362
000020 37 74 c1 bc 3f ea cd 3c ce df 82 bb d7 b6 63 3c
       -0.023614986 0.025136111 -0.0039939648 0.013898573
000030 93 b1 9d bc f1 80 a6 bc b0 d3 e2 bc e4 6b 85 bb
       -0.019249713 -0.020325156 -0.027688831 -0.0040716995
000040 bc 28 f3 3b fc fe 8a bc fe a7 fe 3c 85 35 5a bc
       0.0074206274 -0.01696729 0.031085964 -0.013318424
000050 3c 4d 3f ba e5 c6 31 bc b3 be 7c 3c cd 83 a8 ba
       -0.00072975806 -0.010850643 0.015426326 -0.0012856663
000060 49 00 7e 3c 7c 6e 91 3b 16 33 03 bd 82 44 10 3c
       0.015502998 0.0044382196 -0.03203114 0.008805396
000070 f6 f8 10 bd 61 e3 ea bb c2 2c 27 bb e1 db 81 3c
       -0.035393678 -0.007168219 -0.0025508855 0.015851917
000080 2a 29 44 b9 0a 58 2d bd 0e 1f 9b 3c c4 d4 35 bc
       -0.00018707351 -0.04232029 0.018935706 -0.011098091
000090 df bc e4 3c 79 dc e9 bb 44 08 ab bc 45 5c 4f 3c
       0.027922092 -0.007136878 -0.020877965 0.012656276
0000a0 53 8b 00 3c 9c 27 ae ba 53 f1 47 bd c5 28 09 bc
       0.0078457175 -0.0013286951 -0.04881413 -0.008371537
0000b0 05 53 8d 3c 5e 58 77 bb ee 1c 0a bb e9 06 a5 bc
       0.0172515 -0.003774188 -0.0021074372 -0.020144897
0000c0 7d c6 4f 3b 74 b2 4f bb 4c 0b 2b bc b8 eb 1e 3c
       0.0031704002 -0.003169206 -0.010439705 0.009699754
0000d0 e3 96 84 ba fb b1 43 3d fc 32 e2 3c 49 d2 37 3b
       -0.0010115769 0.047777157 0.027612202 0.0028048924
0000e0 3a 54 1c bc c6 db 54 bd b1 88 d2 bc 1c 5d 2b 3c
       -0.009541566 -0.051967405 -0.025699945 0.010459211
0000f0 bd 83 f6 3c 7f 60 9f ba 9d 86 72 bc 71 0a 4e bd
       0.030092115 -0.0012159495 -0.014802602 -0.050302926
000100 e6 3a 46 3d d8 64 d6 bc 22 b1 36 bc 4c 0a ee bb
       0.048396014 -0.026171133 -0.01115063 -0.007264411
000110 a6 ac 48 bc f5 8a 43 bd 09 0f 8d 3c 46 22 20 bb
       -0.012248194 -0.04773994 0.017219083 -0.002443449
000120 66 4c e7 bc fd 60 83 bc 41 27 06 bd 4b c3 ec bb
       -0.028234672 -0.016037459 -0.03275228 -0.007225429
000130 a4 51 58 bd 42 62 29 bc 82 eb 38 bd 8e 61 9e 3c
       -0.052812234 -0.010338368 -0.045146473 0.019333627
000140 a0 d0 e7 3c 2f 61 8c 3c bd e3 4a 3c e4 29 fa bb
       0.028297722 0.017136184 0.012383399 -0.0076343883
000150 86 90 24 bc 7c 2f 2b ba 59 da 55 bc e1 0d 5b bb
       -0.010044223 -0.0006530208 -0.013052546 -0.003342502
000160 0e 12 cd bc 0f ec 8a bc b1 69 34 bd 5e c6 56 3c
       -0.025033023 -0.016958265 -0.044046108 0.013108818
000170 c0 38 9a 3c 80 86 32 bc 50 19 41 3c 37 59 be bc
       0.018825889 -0.010896325 0.01178582 -0.0232359
000180 ac 1c ca 3c 32 85 42 bc e9 d2 0a bb c1 e2 50 3c
       0.024671875 -0.011872577 -0.002118284 0.012749375
000190 fe 77 42 bc ee d6 59 bd 0a ef e0 bc 13 a2 89 bb
       -0.011869429 -0.05318349 -0.027457733 -0.004200229
0001a0 41 23 ea 3b bb 99 0e 3d e8 9d a1 3b 1b 26 da 3c
       0.007145316 0.034814578 0.004932154 0.026629498
0001b0 9e b7 0f 3b be de 78 3c 1f 9d f1 3c 30 ef 2d bd
       0.0021929513 0.015189825 0.029493866 -0.042464435
0001c0 38 6e 9f ba 32 c6 f6 b8 5c 9d 85 3d 1a 85 d0 bb
       -0.0012163585 -0.00011767111 0.065241545 -0.006363523
0001d0 24 b9 34 bd 0a e1 08 bd 3c d3 8c bb 6d 00 d0 bc
       -0.044121876 -0.03341774 -0.004297642 -0.025390828
0001e0 7d c6 9e 3c c3 85 85 3c 24 5a 91 bc bc a8 6a 3c
       0.019381756 0.016299134 -0.017743178 0.014322456
0001f0 6e b5 2a 3c 4c 92 04 bb 76 56 08 3a 6e 71 c7 3b
       0.010419233 -0.0020228801 0.0005200872 0.00608652

conv1.lin.weight f4 [128, 3]
000000 4e b9 a3 be 8b f9 09 3e a7 c7 88 3b 6f 87 97 bd
       -0.31977314 0.134741 0.004174191 -0.07398879
000010 af 3f 63 be c2 d7 34 be 26 56 b1 bd e0 6c ba 3d
       -0.22192262 -0.1766043 -0.0865901 0.091027975
000020 3d 9f 67 be 18 41 c5 3d 7f 33 3e 3e 75 47 42 be
       -0.22619338 0.09631556 0.18574332 -0.18972571
000030 e0 10 7f be c9 55 2b be f8 3b cb 3c d3 8a 9f 3c
       -0.24908781 -0.16731943 0.024808869 0.019475376
000040 fb 57 eb 3e 49 1f af bc c1 c9 1d 3d c5 b3 c9 3c
       0.4596556 -0.021377223 0.038522486 0.024621854
000050 07 c3 14 be d8 01 d9 bc c7 34 58 be 89 00 37 be
       -0.14527522 -0.026490137 -0.21113883 -0.17871298
000060 fa c8 90 3d 02 db 3f 3e 14 d9 79 bd ff 33 9c bd
       0.07069583 0.18735889 -0.060998037 -0.07627105
000070 90 b0 88 3d d6 85 7d be 58 94 9c 3e 82 2b c9 3d
       0.066743016 -0.24758086 0.30581927 0.098227516
000080 f1 cb ab bc 4a 21 ec 3d bf 25 85 3e 61 0f e4 bd
       -0.02097127 0.11529787 0.2600536 -0.11135746
000090 58 77 8f 3e e6 e3 00 3e 2d 2f 63 bd d7 35 aa 3d
       0.2802074 0.12586936 -0.055464912 0.083110504
0000a0 a9 e1 99 3e e7 7b bc bd cc 6c 6f be f5 a0 d3 3b
       0.30054978 -0.0920332 -0.23381346 0.0064583966
0000b0 49 a8 39 3d a0 99 69 bd 1a f9 99 be f5 eb 83 3d
       0.045326505 -0.057031274 -0.30072862 0.064414896
0000c0 dd 74 5a be 12 66 21 3e 88 82 ac b8 c6 15 2b be
       -0.21333642 0.15761593 -8.2259125e-05 -0.16707525
0000d0 18 cb 84 3c 88 51 04 bb 38 2c 37 be e1 92 2b 3e
       0.016210124 -0.0020190198 -0.17887962 0.16755249
0000e0 ab ad 76 be 9a ee 2c 3e db 22 3d be 79 13 12 be
       -0.24089687 0.16887894 -0.18470328 -0.1426524
0000f0 13 c6 73 bd a7 29 63 3c f8 bd 3b be 80 17 c8 3d
       -0.05951507 0.013864911 -0.18334186 0.09770107
000100 b1 cf 20 3e 3d 56 10 be 86 c2 a5 be c5 a4 5a be
       0.15704228 -0.14095397 -0.32374972 -0.21351917
000110 c4 d7 13 bd 48 1f b5 3d 16 53 a1 bb 94 2b 86 be
       -0.036094442 0.08843857 -0.0049232347 -0.26205122
000120 d7 fe 1e 3e 05 c4 99 3e e8 96 d9 3a 48 0c 80 be
       0.15526901 0.30032364 0.001660076 -0.2500937
000130 ae 85 81 be 1b 36 64 bc 12 0f 81 3e 89 98 18 3e
       -0.25297302 -0.013928915 0.2520681 0.14901938
000140 bc c5 d7 bc 9a 99 1b be f5 6a ab 3d cd ea 37 3b
       -0.026339404 -0.15195313 0.0837001 0.0028063536
000150 19 5a 50 3b 06 de 0b bc b3 ec 7c 3e 45 2a 37 3d
       0.0031791984 -0.008536821 0.24699669 0.044718046
000160 45 7e dd be 3a 62 66 3d d9 33 7b bc 26 1e 62 3e
       -0.43260399 0.05624602 -0.015332186 0.22081813
000170 72 aa 52 be 96 83 4c 3e d6 79 bc 3d 59 11 29 3e
       -0.20572832 0.19972071 0.09202926 0.16510524
000180 1f 18 97 3d 47 60 74 bd ea a7 57 be ee 70 01 bd
       0.073776476 -0.05966213 -0.21060148 -0.03160184
000190 1a 77 14 3e cb 8f 29 be 12 39 4b 3c 0a d7 f3 3d
       0.14498559 -0.16558759 0.012403743 0.1190625
0001a0 5b e2 74 be 01 eb ba 3d 4e d0 c7 3e fb 1a 0d 3e
       -0.23914473 0.09126855 0.3902611 0.13779823
0001b0 c0 67 13 be c6 66 86 3e e1 c1 f8 3d 05 b0 99 3d
       -0.14395046 0.26250285 0.121463545 0.07504276
0001c0 17 1a 0a be 6e 88 1e 3e 0e 2d 0a be 00 87 34 3e
       -0.13486515 0.15481731 -0.1349375 0.17629623
0001d0 e7 1e 71 3b 98 67 c5 bc fd 3a 90 bd b6 6b 8f be
       0.00367921 -0.024097249 -0.07042501 -0.28011864
0001e0 74 60 bb be 01 52 6d 3d 73 01 b0 bc 33 51 98 be
       -0.36597025 0.057939533 -0.021485066 -0.2974945
0001f0 53 12 ab be f8 9b 15 3c 41 f0 96 be 49 1b 5f be
       -0.33412418 0.009131424 -0.29480174 -0.21787752
000200 d5 26 ad bd df 47 11 bd 82 28 61 3e 4f 02 e2 bd
       -0.08454672 -0.035468932 0.21988109 -0.110355966
000210 89 75 cc 3c ab a6 e6 be fa f2 8d 3d 85 cf 75 3d
       0.024958389 -0.45049033 0.0693111 0.06001236
000220 51 14 ef 3e ad 88 2c 3e 49 dd f5 bc ac a2 05 bd
       0.46695188 0.16849013 -0.030012744 -0.03262584
000230 3b 42 68 be 07 05 0b 3e 8c de 52 3e b4 86 89 bd
       -0.22681515 0.13576137 0.20592707 -0.06715146
000240 d0 07 12 bd 01 a8 b6 3e fd 87 dc bd bb d7 77 3e
       -0.03565198 0.35675052 -0.10768125 0.24203388
000250 20 5a 3d be 61 ad 07 bc f4 81 6c bd b5 0c 83 3c
       -0.18491411 -0.008281083 -0.05774112 0.01599727
000260 3d 03 7c be 2f 79 d8 bc a5 40 25 bf c7 1b d8 3d
       -0.2461061 -0.026424972 -0.64551765 0.10552173
000270 94 15 29 be 27 49 51 3e 7f 48 00 3e 09 7f ef 3b
       -0.16512138 0.20438062 0.12527655 0.007308845
000280 ae fa b4 3e 88 fa 27 3e 78 fd 05 3c 1c b6 e3 3d
       0.35347503 0.16404164 0.008178107 0.11118719
000290 35 4d 9b be f5 f7 55 3e c2 f4 70 3e b1 01 0a bd
       -0.30332342 0.2089537 0.23530868 -0.03369302
0002a0 dc e7 91 3d 1f aa f3 3e 0d 08 30 3e 42 d6 17 3d
       0.07124302 0.4759073 0.17190571 0.037069567
0002b0 2f 52 9a 3e 2b 36 d9 3d e9 a1 fa 3d a2 e0 c5 3e
       0.30140826 0.10606035 0.12237913 0.38647944
0002c0 3f 42 18 3d 2a f2 00 bd 70 a2 3a be 77 95 1e be
       0.037172552 -0.031480946 -0.18226027 -0.15486704
0002d0 d5 f7 a4 3d 56 98 ca 3b f6 18 11 be 60 69 42 3c
       0.08055083 0.0061827106 -0.14169678 0.011865944
0002e0 5e 99 5e 3e 15 13 1e 3e f2 0f 2e be b4 14 9d bd
       0.21738192 0.15436967 -0.1699827 -0.076699644
0002f0 0e e5 3e be 10 cd 86 3c 38 61 1a 3f 4f 45 d0 bc
       -0.18642065 0.016455203 0.60304594 -0.025423674
000300 21 e5 65 be 28 4a 08 be 09 da ed bd dc 26 0f 3e
       -0.22450687 -0.13309538 -0.116138525 0.13979667
000310 68 14 13 3d 3d 7d 87 be 18 2e cc bd 29 23 f2 3d
       0.035908133 -0.26462737 -0.09969729 0.118231125
000320 43 a5 6f be 55 5b 42 3d 5b 2c 70 3e 4b cc 25 be
       -0.23402886 0.047450382 0.2345442 -0.16191213
000330 21 96 25 3e f2 6c 9f 3e 49 28 5f 3e 58 c5 dc be
       0.16170551 0.31137806 0.21792711 -0.4311931
000340 77 30 9a bd ab 92 04 3c fc 4c 10 3e 59 7e 47 3e
       -0.07528775 0.008091609 0.14091867 0.19481792
000350 e4 25 6d 3e e4 17 cf 3d 11 c4 8f be 9e 98 2f 3e
       0.23158985 0.10111979 -0.28079274 0.17148063
000360 5e 63 1f 3e a9 1e 95 bd 00 28 aa bd e9 bd 7b 3d
       0.1556525 -0.072812386 -0.08308411 0.06146041
000370 3c c1 16 bf 8f 5a 6d 3d 0f f4 dc 3d c5 16 7b be
       -0.588886 0.05794769 0.10788738 -0.24520405
000380 c4 9b 5d bd ca 98 81 3d 48 d2 62 be 6a 81 05 3e
       -0.054103628 0.0632797 -0.22150528 0.13037649
000390 28 6f fb 3d 8a a3 c7 3e e5 c0 b3 3d b7 76 18 3c
       0.12277061 0.38991958 0.08777026 0.009305648
0003a0 eb c5 88 3e 24 21 0b 3e 16 80 49 3d 04 a0 c7 3e
       0.267135 0.13586861 0.049194418 0.3898927
0003b0 a9 d6 11 3e 84 6e ac bc 33 68 8e bc c2 52 32 be
       0.14242043 -0.021048792 -0.01738367 -0.17414382
0003c0 a9 89 e3 3c e9 ee 92 bd f9 54 66 be 71 31 3a 3d
       0.027775602 -0.07174475 -0.22493352 0.045457307
0003d0 ab e1 d0 3d 3a 3f 6d be 9f 70 23 3e f3 4e ab bd
       0.10199293 -0.2316865 0.1596093 -0.08364668
0003e0 2d b8 1f be 54 ea a2 3d cd 70 2e 3e 51 41 23 be
       -0.15597601 0.07954851 0.17035218 -0.15942885
0003f0 8b 4e 66 bd f4 95 77 3e e6 c3 30 be 7b 6f ad be
       -0.05622725 0.24178296 -0.1726223 -0.33874115

batch_norm1.weight f4 [128]
000000 ae c2 87 3f 0b d2 6a 3f 00 f5 77 3f bd d2 7a 3f
       1.0606287 0.9172675 0.96858215 0.9797781
000010 0a 1f 91 3f 78 92 94 3f fa 6d 6a 3f 7e 45 71 3f
       1.1337597 1.1607199 0.9157406 0.9424666
000020 1b 5d 7b 3f b5 ce 72 3f 2a 45 7d 3f b6 a4 7f 3f
       0.9818894 0.9484666 0.9893366 0.99860704
000030 9c 54 74 3f 53 ec 74 3f c8 b0 86 3f 2e 0f 87 3f
       0.95441604 0.956731 1.0522699 1.0551507
000040 17 ea 8d 3f 37 31 84 3f 08 28 73 3f 11 68 5a 3f
       1.1087064 1.0327519 0.9498296 0.8531504
000050 89 64 7e 3f 6b d8 85 3f 53 6b 97 3f 31 8d 7b 3f
       0.99372154 1.045667 1.1829628 0.98262316
000060 20 8f 86 3f 33 12 97 3f 76 ce 63 3f 88 b4 6c 3f
       1.0512428 1.1802429 0.8898691 0.9246297
000070 3c f9 6f 3f 5a b1 97 3f 0a 83 78 3f 68 75 85 3f
       0.93739676 1.1850998 0.9707495 1.0426455
000080 1f 5b 76 3f 04 ec 84 3f 64 2b 71 3f 39 36 7b 3f
       0.9623279 1.0384526 0.94206834 0.9812961
000090 73 14 7f 3f c4 31 85 3f 9f 27 50 3f 12 7f 72 3f
       0.9964058 1.0405812 0.81310457 0.94725144
0000a0 45 db 82 3f 38 da 79 3f 6f 0f 7d 3f 91 93 88 3f
       1.0223166 0.975986 0.98851675 1.0670034
0000b0 d4 9a 92 3f ae e0 8a 3f 1e 1b 7f 3f 78 fc 58 3f
       1.14535 1.0849817 0.9965075 0.84760237
0000c0 b9 de 8a 3f 52 7b 7d 3f e0 f5 85 3f c5 4c 91 3f
       1.084922 0.99016297 1.046566 1.1351553
0000d0 5a 2d 8b 3f 6a 2e 96 3f 7f 7f 78 3f ac 00 53 3f
       1.0873215 1.1732914 0.97069544 0.824229
0000e0 74 40 84 3f ff 8a 84 3f 52 5b 68 3f 57 8a 7b 3f
       1.033217 1.0354918 0.90764344 0.98257965
0000f0 2f 5f 87 3f d2 0f 91 3f 35 ef 7e 3f dd 7c 90 3f
       1.0575923 1.1332953 0.9958375 1.1288105
000100 db 59 59 3f 95 59 8b 3f d9 ac 80 3f 6a 45 7c 3f
       0.84902734 1.0886713 1.0052749 0.9854342
000110 c3 77 8b 3f 70 40 91 3f 39 5c 90 3f c6 4f 83 3f
       1.0895923 1.134779 1.1278144 1.025872
000120 8b 60 72 3f 8f a1 83 3f 4a 68 8e 3f 4a 59 88 3f
       0.9467856 1.0283679 1.1125576 1.0652249
000130 e1 40 81 3f 51 44 79 3f 03 8b 8c 3f 2e e9 85 3f
       1.0097924 0.9736987 1.0979923 1.0461786
000140 0a e1 83 3f 5a 43 80 3f 8d 7f 83 3f 5d 83 75 3f
       1.0303051 1.0020554 1.02733 0.9590357
000150 f7 cf 6c 3f b3 49 7b 3f 03 f1 87 3f de 41 75 3f
       0.9250483 0.9815933 1.0620426 0.9580363
000160 2c 56 72 3f 09 b4 5e 3f 81 59 87 3f 93 f3 84 3f
       0.9466274 0.8699346 1.057419 1.0386833
000170 fc 01 6e 3f 4e 13 81 3f af 7a 95 3f 38 6c 74 3f
       0.9297178 1.0084016 1.1678065 0.9547763
000180 5e 4d 78 3f 75 bb 78 3f 89 22 95 3f ac 21 87 3f
       0.9699305 0.97161037 1.1651164 1.0557151
000190 57 41 8c 3f 86 d4 80 3f 0b 26 5f 3f 41 17 6b 3f
       1.095744 1.0064857 0.87167424 0.9183236
0001a0 38 18 77 3f e5 f9 86 3f e4 5d 7a 3f 28 e6 93 3f
       0.9652133 1.0545012 0.97799516 1.1554613
0001b0 a7 d7 73 3f 46 5c 8a 3f ac 2e 7a 3f b7 7f 85 3f
       0.95250934 1.080941 0.97727466 1.04296
0001c0 f6 f2 82 3f af d9 93 3f 2e 0e 8d 3f e5 a6 78 3f
       1.0230396 1.1550807 1.1019952 0.9712966
0001d0 43 c8 50 3f bc 5f 7e 3f 33 1c 65 3f 7f 14 96 3f
       0.81555575 0.9936483 0.89496154 1.1725005
0001e0 2b aa 79 3f 64 6b 7b 3f 3b 59 89 3f df d4 7f 3f
       0.9752528 0.9821074 1.0730356 0.9993419
0001f0 6e f4 82 3f 9c 03 82 3f f6 d7 6f 3f 14 f3 82 3f
       1.0230844 1.0157351 0.93688905 1.0230432

batch_norm1.bias f4 [128]
000000 15 9a e9 3d 55 ad 07 bd 99 c0 b8 3d 58 66 5f 3d
       0.11406342 -0.033124287 0.0902111 0.054540962
000010 8b 65 67 3e 6c 1b 00 bd ac f6 94 bd 7f c3 56 3c
       0.2259733 -0.03127615 -0.072736114 0.013108133
000020 d1 fa 44 3b 3a 23 61 bc 65 61 da 3d 77 f9 d5 3c
       0.0030056725 -0.013741309 0.10663108 0.02611993
000030 3f 36 20 bd 00 8b a4 3c bd 43 56 3d b4 5d f0 3d
       -0.039114233 0.020085812 0.052310694 0.117366225
000040 28 fc 6e 3d 14 8f ea bb dc 5b de 3a 69 4c 2e bd
       0.058345944 -0.0071581695 0.0016964632 -0.04255334
000050 11 df ac 3d cf c3 ec 3b bd a1 34 3e c0 2e b1 bd
       0.08440984 0.0072254906 0.17639823 -0.08651495
000060 f7 bd d0 bd 9e 0a 48 3e a4 25 1d bd 82 fc 80 bc
       -0.10192483 0.195353 -0.038365975 -0.015745405
000070 5c 0e 00 bd b3 cd bc 3d 19 78 84 bd d1 33 6e 3b
       -0.031263694 0.092189215 -0.06468219 0.0036346803
000080 44 c9 60 bd a5 03 6f 3d 14 07 af bd 3c c7 7c 3c
       -0.05487944 0.058353085 -0.08546272 0.015428361
000090 94 48 9f 3d d9 66 e5 3d 50 7d 41 be 3c ab a6 bd
       0.07777515 0.11201257 -0.18895459 -0.08138129
0000a0 aa 05 44 3d dd 5e ec 3b 49 6a 59 3d 40 b8 82 bd
       0.047856964 0.007213457 0.053079877 -0.06382799
0000b0 b1 07 26 bd 68 4f 40 bc ca 4d 83 bd ee ce 5c bd
       -0.04053468 -0.011737682 -0.064113215 -0.05390828
0000c0 2b 8a ab bc a0 ba e5 bd 91 6e de 3d 48 35 ca 3d
       -0.020939907 -0.112172365 0.108609326 0.09873444
0000d0 b9 fc d0 3d 40 dc d5 3d aa 49 e6 bd 59 83 bf bd
       0.10204453 0.104424 -0.11244519 -0.093512245
0000e0 a3 ff 8b bd 3a 83 d4 bd 42 95 94 bd 41 57 98 3c
       -0.06835868 -0.10376592 -0.07255031 0.018596293
0000f0 6f 2a ac bc 60 e1 3a 3d 76 98 03 bd 72 7e 74 3d
       -0.021016328 0.04562509 -0.03212782 0.0596909
000100 8b 8c 94 bd 12 5b 67 3c ad fd 02 3e 82 a3 6d bd
       -0.07253369 0.014120834 0.12792082 -0.05801726
000110 c5 59 fb ba a8 6b 24 3e 70 b7 3e bd a0 ac ae 3d
       -0.0019176534 0.16056693 -0.04656166 0.08529019
000120 29 2c 14 3d 28 ae 11 bc c3 e4 d9 3d d0 60 71 3d
       0.036174927 -0.00889162 0.10639336 0.05893022
000130 49 27 6a bc 6f 87 29 bc 4d 85 4e 3b 51 77 79 bc
       -0.014291593 -0.010347231 0.003151256 -0.015226201
000140 f9 70 da bb 53 9a 8d bd 53 e7 b1 3b 2d 9b b3 bd
       -0.0066662994 -0.06914201 0.0054291873 -0.08769832
000150 4c 7b cf bd 47 1e b3 bd 8c ca 1f 3e 48 5e 81 bd
       -0.10130939 -0.08746009 0.15604609 -0.06316811
000160 f4 a6 ca bd d4 84 ac bd ab b8 ca 3c a2 9d 8b bd
       -0.09895125 -0.084237725 0.02474626 -0.068171754
000170 5f c6 86 bd f7 0f bd 3d fb 4d 13 3e 72 46 cb bb
       -0.06580805 0.09231561 0.14385216 -0.006203466
000180 b7 ab 0b bd 8b ff 29 3e 19 1c 68 bd 6f cf 06 bd
       -0.034099307 0.16601388 -0.05666742 -0.032912668
000190 eb 75 71 3d 23 57 8e 3b 33 88 88 bc c5 dc cb 3c
       0.058950346 0.0043438836 -0.016666507 0.024885545
0001a0 f5 88 9a bd 69 13 ec 3c fc 9a e8 3d 39 4c c2 bd
       -0.07545654 0.02881785 0.11357686 -0.094871946
0001b0 a2 e9 24 bd 5f 0d c3 3d db 21 7e bd e4 cb bc 3c
       -0.040261872 0.09524035 -0.062044006 0.023046441
0001c0 eb 8a d6 3b 10 a5 72 3d fa de a5 3d 56 74 d6 3c
       0.006547322 0.059239447 0.0809917 0.02617852
0001d0 0a 40 fd bd 5a 63 18 bd db 73 2f bd 76 79 1f 3e
       -0.1236573 -0.037204124 -0.042835098 0.15573677
0001e0 0a 65 0b bd 9a 7a 3f 3d 9e 9b 58 3d d9 77 08 3d
       -0.034031905 0.04674778 0.052882783 0.03331742
0001f0 47 5f 2e bd d3 a6 82 3d 08 b9 c2 bc a7 65 c3 ba
       -0.042571332 0.063794754 -0.02376987 -0.0014907614

batch_norm1.running_mean f4 [128]
000000 e8 d0 9a be 5f 08 2d be dc 4f 29 be 2c 01 84 3c
       -0.30237508 -0.16897725 -0.1653437 0.01611384
000010 05 ad 53 be 8b 5a 71 3d 41 7a b9 bc 24 f1 b8 bd
       -0.2067147 0.05892424 -0.022641303 -0.09030369
000020 db 8d 19 3d a4 bd 01 be 8c bc 89 3e b7 86 d4 3d
       0.0374888 -0.12669998 0.26901662 0.10377257
000030 fb 95 62 3e ce e2 59 3d 6c c1 5c be d8 14 85 bd
       0.22127526 0.053194813 -0.2155816 -0.06498116
000040 4f e3 24 be a8 a3 26 be 30 a0 49 be b7 ee 77 3d
       -0.16102336 -0.16273367 -0.19690013 0.06053039
000050 c7 ca f5 bd 6c 39 26 3d 1e 70 9d be 23 6b b3 bc
       -0.12001567 0.040582106 -0.307496 -0.021901673
000060 31 42 40 3e 5f 04 80 be 46 33 4a 3e 8b 84 e8 bd
       0.1877525 -0.25003335 0.19746122 -0.113534056
000070 73 08 71 3d de b0 4b 3b e8 36 8a bd 7e 04 87 3e
       0.05884595 0.0031080763 -0.06748754 0.26370615
000080 37 39 aa bc b1 fa eb bd 6c d2 3b bd b5 cd 29 3e
       -0.020779235 -0.11522425 -0.04585497 0.16582377
000090 92 88 b9 bc e7 0b cf 3d 89 fb ef bd 85 8b f8 bd
       -0.02264813 0.10109692 -0.117178984 -0.12135986
0000a0 a1 64 a1 be f0 be 98 be 7f d2 ba be 77 d0 62 bd
       -0.31522086 -0.29833174 -0.3648872 -0.05537459
0000b0 a3 c0 54 3c b3 f0 29 3e 85 e0 ef bd 7d 7e c8 3d
       0.012985381 0.16595726 -0.117127456 0.09789751
0000c0 8a 78 de bc ea af 3c 3e c9 fc 1a be 6b cb 47 bd
       -0.027157087 0.18426481 -0.15135492 -0.04877798
0000d0 9e e2 9a bd 7c 03 20 3e 83 d8 86 bd 73 f6 4d 3e
       -0.07562755 0.15626329 -0.06584265 0.20113544
0000e0 4f 57 30 3e 9a c5 5f 3d d0 73 0f 3e 3c 24 c5 bd
       0.17220806 0.054631807 0.14009023 -0.09626052
0000f0 52 d6 47 3d b0 23 bc 3d 88 a0 78 be 51 59 c8 3c
       0.048788376 0.09186494 -0.24279988 0.024456652
000100 0d d0 54 be 80 b4 fe 3a db b3 30 be 60 c5 8b 3a
       -0.2078249 0.0019432455 -0.1725611 0.0010663681
000110 09 1c 7d 3e 3e 7e dd be a5 15 80 3e bf c9 f1 3d
       0.24717726 -0.43260378 0.25016513 0.11806058
000120 b4 bb 8d 3d 5c 8b 0b bc f8 7c 59 3c 18 7a 92 3d
       0.06920567 -0.008517113 0.013274424 0.07152194
000130 81 57 08 3e b3 7e a2 3d 5d 5c c4 3d bf bf 87 bd
       0.1331463 0.07934322 0.095879294 -0.066283695
000140 0f e4 21 bd bc 81 91 bc 4d e0 ad 3d 16 7e b7 3c
       -0.039524134 -0.017762057 0.084900476 0.02239899
000150 ab aa c4 bd 04 c7 9e be 94 70 56 3e 06 92 36 3e
       -0.09602865 -0.31011212 0.20941383 0.17829141
000160 68 91 11 be 59 88 ef bd 00 2e ea 37 3a 71 a4 3c
       -0.14215624 -0.11695928 2.7916394e-05 0.020073522
000170 de a5 82 bd 23 16 54 be 62 19 79 be f5 07 41 be
       -0.06379293 -0.2071157 -0.24326089 -0.18850692
000180 78 ac 32 be 8a 78 38 be 8e 6f 96 bd 2a b3 42 3e
       -0.17448604 -0.18014732 -0.07345496 0.19013658
000190 bb 4a 30 3e a3 c7 b7 3d 89 72 70 be 77 e9 c1 bd
       0.17216007 0.089736246 -0.23481192 -0.09468358
0001a0 3e d0 07 3d 44 cb 40 3e 20 d3 04 be 32 d6 fa 3d
       0.03315758 0.1882754 -0.12971163 0.12247886
0001b0 18 b5 84 bc 28 12 cf bd 4a 97 43 3e fd ea f3 bd
       -0.016199633 -0.10110885 0.19100681 -0.11910055
0001c0 3e 2d 93 be d4 60 9a 3d 6e 36 1e be fa 38 24 bd
       -0.28745455 0.07538 -0.15450451 -0.0400934
0001d0 94 84 5d 3d ab 66 d0 bd d6 b0 d5 3c b0 55 c5 3d
       0.054081514 -0.10175832 0.026085299 0.09635484
0001e0 ff 99 1b 3e ac 72 88 be ee 62 08 be 8e 58 e1 3d
       0.15195464 -0.26649988 -0.13318989 0.110032186
0001f0 a7 19 0e bd 08 f6 5d 3e a4 a7 10 3c c2 39 a8 be
       -0.034692433 0.21675885 0.008829031 -0.32856566

batch_norm1.running_var f4 [128]
000000 e5 45 04 3c db b6 41 3a b1 66 94 3b 7c a1 29 3c
       0.008073305 0.00073896133 0.0045288433 0.010353442
000010 15 29 0f 3c a9 56 8f 3b 6a fd 55 3b 50 79 8e 3a
       0.008737822 0.0043743444 0.0032652267 0.0010869894
000020 af 79 4f 3b 75 0f ad 3b ab 8b 30 3c d1 c8 05 3c
       0.0031658222 0.0052813836 0.010775487 0.008165554
000030 cb 9d 3b 3c f1 51 d8 3b 40 71 d4 3b 31 16 93 3b
       0.011451195 0.006601565 0.006483227 0.0044887294
000040 a3 36 55 3b a0 92 1d 3b 5c b7 aa 3b fc b2 b1 3b
       0.0032533787 0.0024043694 0.0052098464 0.005422948
000050 3a fa 20 3b 99 3d e7 3b a7 d1 31 3c 06 e9 2c 3c
       0.002456321 0.0070569036 0.010853208 0.010553604
000060 fd 12 ab 3b 21 0d 08 3c c3 4d 0e 3c 5a 4d e7 3a
       0.0052207694 0.008303911 0.008685532 0.0017646954
000070 61 a3 cb 3b 1d 4c 82 3b f4 b9 f6 3b 6e a4 f9 3a
       0.0062145446 0.0039763586 0.0075294916 0.0019046196
000080 d1 5b c6 3b d7 de 80 3b 8c ac 08 3c 83 5c 97 3a
       0.006053426 0.0039328146 0.00834192 0.0011547956
000090 15 83 51 3b 9f c0 32 3b 92 06 a8 3a 42 61 c3 3b
       0.0031969 0.0027275456 0.0012819341 0.005962522
0000a0 90 41 2d 3c e8 79 64 3c 96 5c ed 3b 78 6e 3e 3b
       0.010574713 0.01394508 0.007243703 0.0029057544
0000b0 7e 59 a7 3b 53 4c 90 3a be 66 82 3b c1 18 c1 3b
       0.005107104 0.0011009075 0.003979533 0.0058928435
0000c0 fa 44 9e 3b 09 ff 8e 3b 2a 76 9e 3b 56 a0 56 3c
       0.00483 0.0043638987 0.0048358636 0.0130997505
0000d0 92 53 93 3b 13 a3 4d 3a 96 3d 46 3c 0a a3 05 3c
       0.0044960463 0.00078444293 0.012099644 0.008156547
0000e0 6d b8 9e 3a d1 a3 ee 39 ec 44 82 3b e6 51 46 3a
       0.0012109407 0.0004551695 0.0039755013 0.00075653044
0000f0 d9 84 88 3b 7c 90 54 3a a4 f4 d9 3a 29 f0 e9 3b
       0.0041662273 0.0008108688 0.0016628695 0.007139225
000100 35 22 3e 3b e7 36 6d 3c 8b 71 a5 3b 13 51 f9 3b
       0.0029012088 0.014478422 0.005048936 0.0076085418
000110 63 cc c0 3a 90 07 99 3c c5 e3 d4 3a 70 c5 a4 3b
       0.001470935 0.018680364 0.0016242197 0.005028419
000120 e9 c2 7b 3b b9 fd d5 3b 55 5c 9e 3a ee d3 4f 3b
       0.0038415736 0.0065304902 0.001208196 0.0031712013
000130 a9 45 29 3b 17 34 0a 3a b7 05 45 3a b8 2b 21 3b
       0.0025828874 0.0005272044 0.0007515805 0.0024592709
000140 dc 71 a1 3b a6 56 11 3c 57 54 dd 3b 72 26 f6 3b
       0.004926903 0.008870756 0.006754439 0.0075119073
000150 ea 28 ab 3b 47 7f 15 3c 36 16 1d 3c 95 b9 e8 3b
       0.005223383 0.009124584 0.009587815 0.007102201
000160 b8 3a 93 3b a1 0d 8e 3b 85 a6 bb 3b 84 a8 5c 3c
       0.004493084 0.004335121 0.005726638 0.013467912
000170 34 8a cb 3b 37 70 ba 3b bd 6f dd 3b 99 6c bb 3b
       0.0062115435 0.0056896466 0.006757705 0.005719733
000180 e5 48 94 3b 9f 6e db 3a ee 19 96 3b 07 06 74 3b
       0.0045252913 0.0016741342 0.004580728 0.0037235038
000190 64 9f 03 3c 7c b0 1d 3b ff 35 b6 3a 1a 27 1f 3a
       0.008033607 0.0024061492 0.001390159 0.0006071195
0001a0 47 35 8f 3a a4 45 9e 3b 76 a2 29 3b 13 bc b9 3a
       0.0010925912 0.004830079 0.0025884188 0.001417043
0001b0 9f 67 bf 3b 9b b5 a4 3b 40 6d 8a 3b b5 2b 3b 3b
       0.00584121 0.005026532 0.0042244494 0.0028559987
0001c0 ca a2 5b 3c 8d 08 74 3b 50 26 98 3b a4 6e 4f 3b
       0.013405511 0.0037236542 0.004643239 0.003165164
0001d0 f7 70 28 3b 5d 6e 9e 3b f2 af 86 3b 58 1f 15 3a
       0.0025702098 0.0048349337 0.00411033 0.00056885695
0001e0 26 3e a1 3b 66 ce 02 3c c2 1e b9 3b 6b 4a 75 3b
       0.0049207387 0.00798378 0.0056494186 0.003742839
0001f0 20 8f 50 3b b2 6b 8c 3a b7 ac 00 3c 81 54 21 3c
       0.003182359 0.0010713248 0.007853678 0.009846807

conv2.bias f4 [128]
000000 9b 7c 16 3b 85 8c b2 3a 31 c7 64 b8 57 cd a1 3a
       0.0022962454 0.00136222 -5.4544947e-05 0.0012344521
000010 12 da 8f 3a fc 7d 83 3a 45 c4 24 3a 0d 77 5d ba
       0.0010975024 0.0010032053 0.000628535 -0.0008448221
000020 5e 6f a9 3a 11 50 22 39 71 a9 06 3b 13 ef 11 3a
       0.0012926867 0.00015479351 0.0020547772 0.0005566936
000030 5e 8c 15 b8 eb c7 98 39 e7 8c 14 bb 41 51 fa 38
       -3.5655095e-05 0.0002914065 -0.0022666992 0.00011936064
000040 27 45 36 b9 9a a6 9e b9 2c fa 8c 3a b0 2f ec b9
       -0.00017382634 -0.00030260236 0.0010755709 -0.00045048958
000050 ec 3c 0c b8 77 2c 77 3a 9a 58 be 37 8a 1f b5 39
       -3.343534e-05 0.0009428928 2.2691023e-05 0.0003454651
000060 d6 05 47 3b 03 c0 1b bb 7b 22 72 39 b9 fc 51 38
       0.0030368469 -0.002376557 0.00023091763 5.006485e-05
000070 5b 4c 8e 3b 87 47 74 3a e5 bc c8 b7 77 db 8e ba
       0.0043425984 0.000931852 -2.3929819e-05 -0.0010899146
000080 d7 cd d7 ba d3 7f 8d b9 ee 85 31 3a 5c 80 e6 38
       -0.0016464543 -0.00026988852 0.0006771971 0.000109911634
000090 a7 ef 93 3a 82 d4 c2 39 73 4d f5 b9 6c 1b 48 ba
       0.0011286632 0.00037160894 -0.00046787746 -0.0007633481
0000a0 88 f6 af b9 7d 10 cf 39 09 4d de 3a 8f 0b 48 bb
       -0.0003356228 0.000394944 0.0016960214 -0.0030524468
0000b0 45 2c d1 3b ed 4e 17 b8 ba 62 86 bb 77 c7 3b b8
       0.006383451 -3.607471e-05 -0.0041011246 -4.477004e-05
0000c0 58 98 74 39 65 55 d5 39 8c 55 c5 b9 0f ac c5 b9
       0.00023326406 0.0004069015 -0.00037638505 -0.00037702962
0000d0 79 4d 09 bb 57 26 c4 3a 8a 4a 2f 3a d2 c8 da 39
       -0.0020950718 0.001496504 0.00066868274 0.00041729823
0000e0 45 c2 a1 b8 63 c3 ad 3a 42 3d d5 ba e1 66 df 3a
       -7.713264e-05 0.0013257082 -0.0016268867 0.001704421
0000f0 7a 57 32 b9 2c 82 b1 3a dc 0d 28 3a e9 a8 4b 3a
       -0.0001700799 0.0013542823 0.00064107566 0.0007769005
000100 83 68 05 ba 30 d2 cb bb 24 aa 24 bb 2b 33 b6 37
       -0.0005089121 -0.0062201247 -0.0025125826 2.1719918e-05
000110 66 61 92 3b 7a 8e 2c ba 83 95 84 ba ca 3f 14 3b
       0.004467177 -0.000658251 -0.0010115359 0.002262103
000120 7e 4e 11 bb 4a 55 44 ba a9 e3 a1 3a 41 88 21 3b
       -0.002217203 -0.00074895157 0.0012351173 0.0024647864
000130 ae 0a c7 3b 38 6b 92 b7 1b 09 8d b8 ab 64 23 3a
       0.006074271 -1.7454484e-05 -6.7251e-05 0.0006232957
000140 f6 3b 0b 38 94 3e 8e b9 48 db 32 bb 61 03 5d ba
       3.3196025e-05 -0.00027130975 -0.0027291346 -0.00084309845
000150 c3 46 92 39 5a 07 b2 b9 26 43 3c 39 96 66 d4 ba
       0.00027900012 -0.00033956283 0.00017954092 -0.0016204889
000160 da 22 e6 b9 3f fa d9 b7 89 55 37 b9 68 d9 05 3a
       -0.00043894985 -2.5984946e-05 -0.00017484104 0.00051059434
000170 e6 5c f8 39 30 a6 25 b8 53 45 f2 b9 e8 c0 41 ba
       0.0004737146 -3.949384e-05 -0.00046209487 -0.0007391111
000180 59 39 11 bb 69 66 58 3a 3c 81 64 3a 49 c9 09 ba
       -0.0022159426 0.00082550064 0.0008716767 -0.0005256129
000190 d2 a8 1f 38 2c 46 bc b8 3e 7f 1b 38 81 c3 97 b9
       3.806578e-05 -8.977609e-05 3.7073383e-05 -0.00028946626
0001a0 ec 99 0e 39 79 74 c2 3a b0 36 88 3a d2 f3 13 3b
       0.00013599516 0.0014835737 0.0010392275 0.0022575748
0001b0 ef 29 c6 3a 58 5e 16 3b 6c da 30 ba 0b 5b aa 39
       0.0015118698 0.0022944417 -0.00067464146 0.0003249276
0001c0 52 92 eb b9 a3 ee 8e ba 92 bd 80 bb 03 b2 49 ba
       -0.0004493171 -0.001090486 -0.0039288485 -0.00076940673
0001d0 8e c7 ae bb c1 b1 cc 39 20 1f d0 ba dc 01 99 ba
       -0.0053338474 0.0003904235 -0.0015878417 -0.0011673528
0001e0 a0 22 61 ba f3 fd 5e b8 2b 27 3e ba dd 8c 95 3a
       -0.00085882284 -5.3165433e-05 -0.0007253761 0.0011409778
0001f0 68 74 92 b9 13 b4 27 39 5c dc 2e 36 26 a1 1a b8
       -0.0002793402 0.00015993444 2.6056287e-06 -3.6866542e-05

conv2.lin.weight f4 [128, 128]
000000 65 85 c3 3d 30 8a 23 3d bb d4 73 3e ea 67 c0 3d
       0.09546927 0.039926708 0.23811619 0.0939482
000010 f1 46 00 bd cf 44 5b 3e 12 e5 67 3c 89 46 81 3e
       -0.031317655 0.21412967 0.014153736 0.25249127
000020 fd 79 d3 3c 73 73 fd 3d 13 2d 65 3d fc 1e bd 3c
       0.025815004 0.12375536 0.05595119 0.023086064
000030 a4 57 30 bc c5 87 0e bd 25 7a 1c bd 27 35 68 3d
       -0.010763083 -0.03479745 -0.038202424 0.056691315
000040 c6 43 ce 3c f0 42 79 3e 49 f6 21 3e 92 c5 f9 bd
       0.025178801 0.24341941 0.15816607 -0.12195887
000050 8a 00 96 3e aa b8 0c bd ac 4a 3c 3e 73 62 18 3e
       0.29297286 -0.034355797 0.1838786 0.14881305
000060 40 5c 87 3d 2a ac ea bd c8 ff 39 3d e1 c0 b2 3c
       0.06609392 -0.11458619 0.045409948 0.021820487
000070 18 68 94 3d 46 3a 7d bd e0 b5 91 bd c7 7e b2 3d
       0.07246417 -0.061823152 -0.07114768 0.08715587
000080 cd b0 89 bd 07 09 1f bd 40 11 91 ba a1 dc 89 ba
       -0.06723175 -0.03882697 -0.0011067763 -0.0010518023
000090 fd eb 4c 3c d4 11 95 39 5c 82 ec 3d a7 63 8f bc
       0.012507436 0.00028432778 0.115483016 -0.017503573
0000a0 5c ed 9a 3d 5c 2f 52 bd c7 96 1a 3c a6 be ac 3d
       0.07564804 -0.051314697 0.009435362 0.08434801
0000b0 b5 d2 2a be c3 8f 9c ba b4 59 a3 3d aa a4 a0 3d
       -0.16681941 -0.00119447 0.07976094 0.07843907
0000c0 5e ea 36 3c 36 d2 32 3c 82 ae 95 3e 2e 73 7c bb
       0.011164276 0.010914376 0.292347 -0.00385208
0000d0 15 a4 3b 3e 22 0e a7 3d b2 28 4a bd ae 2e ff bd
       0.18324311 0.081569925 -0.049355216 -0.12460075
0000e0 f9 d8 85 bd 4c 6d fc bd 71 34 02 be d1 8f bb bc
       -0.06535525 -0.12325534 -0.12715317 -0.022895725
0000f0 8a e5 c1 3d a2 6f 87 bd be 7d b2 3d e2 ca 00 3c
       0.09467609 -0.06613089 0.0871539 0.007860871
000100 10 c7 c6 3d 54 b0 49 3d 23 32 99 3d 5e 82 22 bb
       0.09705937 0.049240425 0.07480266 -0.0024796943
000110 65 00 88 3d d9 54 16 bd 67 65 fe 3d c2 81 a5 bd
       0.066407 -0.03670201 0.12421685 -0.0808139
000120 23 55 d0 3d ff a7 ad bd 0b c9 5b 3d 87 5d 2a be
       0.101724885 -0.08479308 0.053658526 -0.1663724
000130 59 01 05 be bb 2b 37 3e 9c 8b fc bd 4b d3 35 3e
       -0.12988795 0.17887776 -0.12331316 0.17756383
000140 82 d2 b6 3c 32 fc 24 3e cc ee 19 3c 36 ef ce bc
       0.022317175 0.1611183 0.0093953125 -0.025260549
000150 ba 9c 9d bc 20 9b 39 3e 8f c4 c2 bd 61 87 9b bd
       -0.019239772 0.18125582 -0.09510147 -0.07594181
000160 0f 44 96 3d 45 cf 2c 3e 3e 02 6e 3d ed bf 0f 3e
       0.073372 0.16875942 0.058107607 0.14038058
000170 72 cd 3d bc bc ed 79 3e 26 80 18 3e e3 06 80 3e
       -0.0115846265 0.24407095 0.14892635 0.25005254
000180 e4 db f5 bd 9e 84 06 3e c8 1b 52 be 65 01 66 bd
       -0.120048314 0.13136527 -0.2051841 -0.056153674
000190 38 71 9f 3d b1 8c 62 3d 3a 5b 88 bd 0e d8 cf ba
       0.07785267 0.055309955 -0.06658025 -0.0015857236
0001a0 54 08 fa 3d 37 32 89 bd 1e 8c 1a 3e 64 ec a9 3d
       0.1220862 -0.06699031 0.15092513 0.08297041
0001b0 f2 cc 0e 3e ee db 8d bd e9 46 68 3d 69 bc 41 3c
       0.13945368 -0.06926714 0.05670825 0.011824706
0001c0 38 d0 d5 bd 1c cb 84 b9 cf ff 80 3e b5 be 38 3d
       -0.10440105 -0.0002532833 0.25195166 0.045103747
0001d0 ef b7 6b 3d 82 f4 9d bd 17 bb 62 bd 76 95 03 3e
       0.05754846 -0.07712652 -0.055354204 0.12849984
0001e0 1e 5d 90 bd 4c 95 3b 3e 60 7f 1e be 06 73 80 bc
       -0.07049011 0.18318671 -0.15478277 -0.015679847
0001f0 26 61 cb 3d b5 cc 0d 3d 66 ba 77 bd a0 33 4e 3e
       0.09930639 0.034619052 -0.060480498 0.20136881
000200 36 d3 9b bc a8 25 c4 3c 69 e5 d6 bd 49 b2 44 3e
       -0.019021612 0.023943737 -0.10492975 0.19208635
000210 39 dd 5d 3d b0 da 3e be f6 ae 42 3c c8 24 21 bc
       0.054166052 -0.1863811 0.011882534 -0.0098354295
000220 4b 1c 96 bc 8c 4a 73 3b 6b a4 ee 3d 71 bd ac 3c
       -0.018324038 0.003712329 0.11652454 0.021086426
000230 a5 c9 12 bc 14 6d 9b 3c f3 e5 70 3d 3c b2 8e 3d
       -0.008959209 0.018972911 0.058813047 0.06967589
000240 2f 37 13 bc a8 a2 0c be 90 65 2c be 06 90 64 bd
       -0.008985325 -0.13733923 -0.16835618 -0.055801414
000250 40 2b 33 3d c5 d1 cc bb 1e 30 d8 3c 9b 8c cb 3d
       0.04374242 -0.0062505924 0.026390132 0.09938928
000260 17 8a 59 3d 2f ed 9e bd da bd de 3d 36 c8 00 be
       0.05311021 -0.07760083 0.10876055 -0.12576374
000270 39 93 5a bc fb 01 88 3e 50 72 f9 bc 38 99 67 3d
       -0.013340765 0.2656401 -0.030450016 0.056542605
000280 6d a2 27 bd bd ae 13 bd 5d f6 ed bc ea fa c5 3c
       -0.040926386 -0.036055315 -0.02904814 0.024167497
000290 5d 01 7b be 76 db ee 3d 03 b6 28 be 6a e6 22 be
       -0.24512239 0.116629526 -0.16475682 -0.15908208
0002a0 b9 5e bd 3c 63 de 8d 3c 14 47 07 3d 83 a1 e0 bd
       0.023116456 0.017317956 0.03302677 -0.10968306
0002b0 27 7b 70 3d 4c 41 71 be 20 b0 8d bd 1f 75 e4 bd
       0.058711197 -0.23560065 -0.06918359 -0.111551516
0002c0 69 81 1f be 54 9e 46 3e 30 c7 9f 3d 53 bc 88 bb
       -0.1557671 0.19396335 0.07801664 -0.0041728406
0002d0 e1 d4 94 bd 3e 85 e0 bd 13 e0 e9 3d 49 90 a7 bc
       -0.07267166 -0.10962914 0.11419692 -0.020454543
0002e0 65 ff ae bc c4 ef 22 bc e1 c7 e7 bd 62 24 ba bd
       -0.021362016 -0.00994486 -0.11317421 -0.09088971
0002f0 84 93 9b 3c 05 7b 11 3d 18 6a e9 bd 42 27 78 bc
       0.01899124 0.03551771 -0.11397189 -0.015146079
000300 23 39 09 be 42 9e 3e 3d 97 d2 48 3d 23 5d 8b 3d
       -0.13400702 0.046537645 0.04902896 0.06804874
000310 26 49 1c bd a7 8f 6b be 3f 66 95 3d 18 53 d9 3c
       -0.038155697 -0.23004018 0.072948925 0.02652888
000320 7d 8a 1f bd 91 56 05 3e 3c 3f 12 3c 30 35 27 3e
       -0.038950432 0.13021304 0.008926209 0.16328883
000330 c5 31 09 3d 4a 77 39 be 95 02 d2 3c e5 30 bb bd
       0.03349473 -0.18111911 0.025635997 -0.09140185
000340 ce b0 0e bd a2 c8 b9 3c 56 33 8d bd 70 e8 38 3c
       -0.034836583 0.022678677 -0.06894557 0.011285886
000350 e7 a1 68 bd 71 38 05 3e ea 39 a2 3d ed 32 0c 3e
       -0.056795027 0.13009812 0.079212025 0.13691302
000360 11 0d 31 be 9c 09 67 be c5 0e a4 be c8 6a 73 bd
       -0.1729014 -0.2256226 -0.32042518 -0.059428006
000370 34 3b b1 bd dc 9c 06 bd 59 06 43 bd 66 12 c7 bd
       -0.0865387 -0.032864437 -0.047613475 -0.09720306
000380 67 97 70 3d 30 c6 ad 3c 96 f2 56 3e c6 ec 2d 3d
       0.05873814 0.021212667 0.20990977 0.042462133
000390 e8 f1 aa 3d 05 02 17 bd b8 64 83 bc fd a8 a4 3d
       0.08346921 -0.03686716 -0.016039237 0.080400445
0003a0 99 f7 f0 bd 7f 04 70 bd dc b1 b0 bd 54 80 38 bc
       -0.117659755 -0.058598038 -0.08627674 -0.011261065
0003b0 8a 2d d7 3d be 5b 0c bd d1 c7 34 3e 0b 6d 1e be
       0.10506733 -0.03426718 0.17654349 -0.15471284
0003c0 43 e8 45 be 67 15 8f 3e 52 b3 a6 bd e0 d1 ba bd
       -0.19326882 0.27946016 -0.081396714 -0.09122062
0003d0 da 02 ae bd 7d 18 13 3c 39 73 95 bd 05 f0 8f 3d
       -0.08496638 0.008978006 -0.072973676 0.07028202
0003e0 97 9a 16 3e e4 c9 4d be 27 74 43 3e f0 de 8e bc
       0.14707409 -0.20096546 0.19087277 -0.01744029
0003f0 9c 50 01 be 5c 3a cb bd 11 d6 25 be 2d 19 ba 3d
       -0.12628406 -0.099232405 -0.16194941 0.09086833

batch_norm2.weight f4 [128]
000000 ec 9e 61 3f 1e a3 8d 3f c7 30 7d 3f fa ac 85 3f
       0.8813312 1.1065404 0.98902553 1.0443413
000010 8a d5 89 3f e6 ea 89 3f 98 07 82 3f 8b 51 80 3f
       1.0768292 1.077481 1.0158567 1.0024885
000020 ac 53 83 3f 9c da 81 3f 9d c0 86 3f 08 6b 64 3f
       1.025991 1.0144839 1.0527531 0.89225817
000030 59 55 61 3f be 42 72 3f 8b 3c 70 3f 92 b2 82 3f
       0.88020855 0.9463309 0.9384238 1.0210745
000040 72 49 85 3f 7f 5f 6d 3f 95 0f 5f 3f 08 6d 86 3f
       1.0413039 0.9272384 0.8713315 1.0502024
000050 89 03 5a 3f d3 62 6c 3f 92 3d 84 3f 0f eb 80 3f
       0.85161644 0.92338294 1.033129 1.0071734
000060 1d 73 83 3f 58 ff 89 3f c9 e9 8c 3f a9 71 85 3f
       1.0269505 1.078105 1.1008846 1.0425311
000070 d6 ee 97 3f e7 21 80 3f 1f 49 80 3f 29 e2 83 3f
       1.1869762 1.0010346 1.0022315 1.0303394
000080 88 ac 68 3f 68 e1 5a 3f 6b 6d 7f 3f be 33 7b 3f
       0.9088826 0.8550019 0.99776334 0.9812583
000090 a1 53 67 3f 15 31 7d 3f e3 a4 8d 3f 18 fa 80 3f
       0.9036198 0.9890302 1.1065944 1.0076323
0000a0 a7 90 65 3f 08 e4 7e 3f 7b 28 8c 3f 21 17 70 3f
       0.89673847 0.995667 1.0949854 0.9378529
0000b0 9c d9 95 3f 47 ce 7f 3f 86 ae 6a 3f 95 45 71 3f
       1.1707034 0.9992413 0.9167255 0.942468
0000c0 d7 3f 6b 3f f5 2d 84 3f 14 64 6b 3f 72 29 87 3f
       0.91894287 1.0326525 0.9194958 1.0559523
0000d0 f8 aa 76 3f f1 8f 79 3f d4 ce 82 3f 93 4e 6f 3f
       0.9635463 0.9748526 1.0219369 0.9347927
0000e0 2d 46 8a 3f b2 c9 75 3f 32 f8 85 3f bc ac 82 3f
       1.0802666 0.9601089 1.0466368 1.0208964
0000f0 02 08 72 3f 38 3a 83 3f aa 58 69 3f d4 71 8c 3f
       0.9454347 1.0252142 0.91150916 1.0972238
000100 fd 9b 85 3f 8c d0 2b 3f e2 ad 6b 3f 11 26 5e 3f
       1.0438229 0.6711509 0.920622 0.86776835
000110 f3 5b 76 3f e5 db 81 3f 53 32 80 3f 1b 37 85 3f
       0.96234053 1.0145231 1.0015358 1.0407442
000120 40 6a 57 3f 22 a2 83 3f 6d df 77 3f c0 d3 91 3f
       0.841465 1.0283854 0.96825296 1.1392746
000130 47 9d 96 3f 8d 9a 88 3f 80 f2 7b 3f aa 96 82 3f
       1.1766747 1.0672165 0.984169 1.0202229
000140 1e 24 75 3f e5 04 74 3f 1e 0b 79 3f 53 5f 5d 3f
       0.95758235 0.9531997 0.9728259 0.8647358
000150 1b bd 7b 3f a4 69 77 3f b4 eb 6d 3f 9f 18 77 3f
       0.9833543 0.9664557 0.9293778 0.96521944
000160 7f 3b 88 3f ef 10 61 3f 40 e0 7e 3f 8a de 64 3f
       1.0643157 0.87916464 0.9956093 0.8940207
000170 6e 61 68 3f 65 e2 6c 3f 26 0b 74 3f c4 91 69 3f
       0.90773666 0.9253295 0.9532951 0.91238046
000180 4d 27 76 3f 8a f1 77 3f 15 dd 64 3f a9 84 83 3f
       0.9615372 0.96852934 0.89399844 1.027486
000190 ac 9f 56 3f 82 d1 7c 3f cc f1 79 3f c1 ea 68 3f
       0.8383739 0.98757184 0.9763458 0.90983206
0001a0 90 91 6c 3f 47 32 3e 3f 63 2b 5c 3f ca 23 8a 3f
       0.9240961 0.7429547 0.860037 1.0792172
0001b0 ff 21 51 3f 76 d8 6d 3f d9 ad 8f 3f cc f7 84 3f
       0.816925 0.9290842 1.1224929 1.0388122
0001c0 89 12 79 3f fd 05 66 3f 4e ce 9b 3f 5d d2 65 3f
       0.9729391 0.8985289 1.2172334 0.89774114
0001d0 3f 62 71 3f 05 82 82 3f df 1c 8a 3f 50 74 5a 3f
       0.94290537 1.0195929 1.0790061 0.8533373
0001e0 fa 10 6b 3f c8 47 71 3f 4f 63 96 3f 9e 98 89 3f
       0.9182278 0.94250154 1.1749057 1.07497
0001f0 a8 5a 8a 3f 9d c7 87 3f da 83 88 3f cd 8b 81 3f
       1.0808916 1.0607792 1.0665238 1.0120789

batch_norm2.bias f4 [128]
000000 37 70 c2 bd 02 e1 12 3d 33 8b 1e bd db f1 09 3c
       -0.094940595 0.035859115 -0.03870697 0.008419479
000010 d0 96 a0 3d 9b 60 9d bd 3c a9 0d bc 72 e4 ed bb
       0.07841265 -0.07684442 -0.008646306 -0.007259899
000020 cb 9b 66 3c 77 bc e2 3d e0 34 47 3c 41 5f 81 3d
       0.01407523 0.11071103 0.0121586025 0.06316996
000030 0d 04 e2 bd a2 8d 0c bd 53 c3 fe b8 06 9d 50 bc
       -0.11035929 -0.03431476 -0.00012148046 -0.01273275
000040 a2 ee c2 3b 97 13 59 bd 1d d2 72 bd 9f 87 de 3a
       0.0059488574 -0.052997198 -0.05928241 0.0016977674
000050 e6 d0 ae bd 48 bb 2d be 95 6b a6 3c 48 28 7d bc
       -0.08535938 -0.16965973 0.020314971 -0.015451498
000060 f6 a3 65 3d d2 fe 0a 3d 8a 5f 14 bd 7a 33 bf 3d
       0.05606457 0.03393442 -0.036223926 0.0933599
000070 8d 99 96 3d fb 21 29 be ca ea 1a 3d b8 f8 46 3d
       0.07353506 -0.16516869 0.03782157 0.04857704
000080 94 38 a6 bd 76 61 96 bd ec 9b 93 3c f1 9d 04 be
       -0.0811626 -0.07342808 0.018018685 -0.12950875
000090 76 8c 31 bd 5f 77 2c bd bf d9 21 3e ff 83 52 3c
       -0.043346845 -0.04210603 0.1580572 0.012848853
0000a0 6c 30 02 be 71 35 ca 3d b2 9e f9 3c 4e 07 87 bd
       -0.12713784 0.098734744 0.03047118 -0.0659319
0000b0 24 73 95 3d 90 f0 ba bd fc 89 82 bd 0d bc d3 bc
       0.07297352 -0.09127915 -0.06373975 -0.025846506
0000c0 d4 9f d0 bd 55 a2 a5 bd 19 e0 c6 bd a1 d2 ab 3d
       -0.10186735 -0.08087603 -0.09710712 0.08389784
0000d0 13 dc cb bd b7 c7 88 bc 1f da 20 bc 38 24 48 bd
       -0.09954085 -0.016696794 -0.009817629 -0.048862666
0000e0 b1 cf ce 3c 4e 43 97 bd 79 5e 8c 3d 1a 36 13 3d
       0.02524552 -0.07385884 0.06853957 0.035940267
0000f0 cb dc d5 bd 89 ef ea bb 96 19 ca bd 46 ca be 3c
       -0.104425035 -0.007169668 -0.098681614 0.02328981
000100 0c a8 29 3d e7 da c5 be 41 0a 0a be 71 a5 9f bd
       0.041420028 -0.38643572 -0.13480474 -0.07795227
000110 a0 43 11 be 5d 19 bd 3b c2 a0 12 bd aa 44 b4 bb
       -0.14185953 0.005770846 -0.03579784 -0.0055013495
000120 a4 f8 e0 bd df 04 3d 3d 5a 43 11 bd ba 2e 8a 3d
       -0.109849244 0.046147224 -0.035464622 0.06747194
000130 b8 a9 b1 3d c3 34 63 3d 0f 62 de bd 12 ff 1a 3d
       0.086749494 0.05547024 -0.10858547 0.03784091
000140 16 12 50 bc 51 c3 6a bd d5 6b e7 bc b4 37 0a be
       -0.0126996245 -0.057315174 -0.02824966 -0.13497812
000150 ce 65 a7 bc 71 ab 1c bc e3 39 e9 bc 2f 29 ea bc
       -0.020434286 -0.009562359 -0.028469985 -0.028584091
000160 54 94 96 bb 11 e1 ed bd b8 25 c3 3b 00 6b cb bd
       -0.004595319 -0.11615194 0.005955424 -0.09932518
000170 ab 5b 1c be 07 47 0a be af c2 15 3c 34 cc 7a 3c
       -0.15269344 -0.13503657 0.0091406545 0.015307475
000180 3b eb 97 bd c1 7e d6 3c b5 37 06 bd f6 11 5d 3d
       -0.074179135 0.026183488 -0.03276797 0.053972207
000190 c7 ad 99 be 47 68 de bd 8e dc cf bc 3e c4 eb bc
       -0.30015394 -0.10859733 -0.025373723 -0.028780099
0001a0 f9 bf 07 be 1b e1 bd be 37 6b 9e 3c e7 16 81 3d
       -0.13256826 -0.37085804 0.019338233 0.063031964
0001b0 71 49 5a be 19 30 80 bb 36 06 10 3e 35 77 8d 3d
       -0.21317078 -0.0039119837 0.1406487 0.069075026
0001c0 b8 11 df bb 11 8a a4 bd 1e ae 05 3d fe 87 8b bd
       -0.006807532 -0.080341466 0.032636754 -0.06813048
0001d0 45 4b 2a bd c8 06 cc 3c bb 67 7a 3d 83 fb 77 bd
       -0.04157569 0.024905577 0.06113408 -0.060542595
0001e0 7b cc 29 3c 95 7f 9a bd 87 7c c1 3c f0 98 00 be
       0.010363693 -0.075438656 0.02361895 -0.12558341
0001f0 d0 7c 47 bd 39 a9 f8 bb 14 42 78 3d a1 dd 9d bc
       -0.048703015 -0.0075885323 0.060609892 -0.01927072

batch_norm2.running_mean f4 [128]
000000 a0 30 25 40 b4 a5 80 bf c4 64 6a bf 74 77 29 40
       2.5810928 -1.0050569 -0.91560006 2.6479158
000010 00 a1 63 bf f1 68 e2 3f d3 73 7e bf ba e2 fd bd
       -0.8891754 1.7688276 -0.99395484 -0.1239676
000020 3e 61 e7 bf 6f 18 0d 40 98 21 63 c0 81 98 b8 bf
       -1.8076551 2.2046163 -3.5489254 -1.442154
000030 46 1c 35 c0 80 36 5b c0 46 dc 08 c0 30 5d fa bf
       -2.8298507 -3.4252014 -2.1384444 -1.9559689
000040 a0 0e 4c 40 a0 3c d4 3f c0 68 3a 40 d4 eb 3d c0
       3.1883926 1.6581001 2.9126434 -2.9675188
000050 73 e7 d5 3f 14 44 b2 3f 37 05 d2 3e 3e 9b 8e 3f
       1.6711258 1.3927026 0.41019604 1.1141126
000060 ab f3 9e 3f 44 e2 12 c0 cf 51 26 bf 06 58 76 c0
       1.2418112 -2.2950602 -0.6496858 -3.8491225
000070 54 85 ee bf 90 fa 6e 3e d0 3e 3d bf 44 cc 94 3f
       -1.8634439 0.2333777 -0.7392397 1.1624837
000080 9f fa 80 bf 5f 3b a9 bf a5 1f da 3f 33 e3 0c bf
       -1.0076483 -1.3221244 1.7040907 -0.5503418
000090 87 d9 e7 bf bd 0d 8a 3f ea e7 ff 3f 88 60 48 40
       -1.8113259 1.0785443 1.999265 3.1308918
0000a0 34 2d 8a 3f f2 30 70 3f 96 25 ab bf a7 17 69 40
       1.0795045 0.93824685 -1.3370845 3.6420686
0000b0 2d 74 4e c0 8d c0 04 c0 ef e0 51 40 79 9e 42 c0
       -3.2258408 -2.0742524 3.2793539 -3.0409224
0000c0 09 c2 07 c0 22 b6 9c bf 51 ab 82 bf 4a 69 f5 3f
       -2.121218 -1.2243083 -1.0208532 1.9172757
0000d0 a7 c1 f4 bf d6 85 01 c0 84 86 8e 3f af 7c 35 c0
       -1.9121598 -2.0237937 1.1134801 -2.835735
0000e0 d8 d3 d0 bf e1 0c 10 3f d5 69 3a bf 9e 8f 07 c0
       -1.631465 0.5626965 -0.72817737 -2.1181407
0000f0 e2 8f 4b 3f 25 6b 09 c0 13 cc 5a bf 5c 4b 16 bf
       0.7951642 -2.1471646 -0.8546764 -0.5870874
000100 80 1d 2c c0 2e 4c 02 bf ca bd 24 c0 28 3a 8f bf
       -2.6893005 -0.5089749 -2.5740838 -1.1189623
000110 00 2f 04 3f 65 81 3b c0 88 53 5a bf 59 d4 a3 bf
       0.51634216 -2.9297726 -0.8528371 -1.2799178
000120 e1 9a 84 bd fc 2a d5 bf d3 4c 85 bf 70 55 3c c0
       -0.06474853 -1.6653743 -1.041407 -2.9427147
000130 4e a2 d4 bf 69 86 18 40 89 49 01 c0 a5 41 f1 3f
       -1.6612031 2.3832037 -2.0201132 1.8848158
000140 b4 7c 6f bf 23 57 0b 40 04 af a8 3f 81 b5 31 bf
       -0.93549657 2.1771934 1.317841 -0.6941758
000150 54 19 16 40 ea d6 e0 bd 05 d5 63 40 63 f9 59 bf
       2.345296 -0.109784916 3.5598767 -0.8514616
000160 61 1f c7 3f 5a 53 02 bf 12 88 65 c0 1e c0 8a bf
       1.5556451 -0.50908434 -3.58643 -1.083988
000170 64 67 82 bf 16 c0 fc bf 84 79 12 c0 39 8f 90 3f
       -1.0187802 -1.974612 -2.2886667 1.1293708
000180 23 a1 24 bf d3 bc 10 40 86 2a b5 3d 49 4c 33 c0
       -0.64308375 2.261525 0.08846001 -2.801531
000190 39 fa a3 bf 63 d8 2d 3f c4 00 1d c0 62 25 2d 40
       -1.2810737 0.67908305 -2.4531717 2.7054067
0001a0 8d a6 92 bf f9 f7 0d bf 91 c2 02 40 b4 1c 09 40
       -1.1457077 -0.554565 2.0431254 2.142377
0001b0 75 f2 94 be 92 a8 14 3f ac 70 ad bf 36 65 2b c0
       -0.2909123 0.5806972 -1.355001 -2.6780524
0001c0 13 99 03 3f d4 74 b3 bf 42 f6 01 c0 a2 5c 0e 40
       0.5140545 -1.4020028 -2.0306554 2.2244039
0001d0 05 3c af be 40 90 f1 3f ac b7 d8 bf 7a 85 2c c0
       -0.3422548 1.8872147 -1.6931052 -2.6956468
0001e0 8e 07 1d bf 74 1f 31 40 29 0e 11 c0 4a 92 b7 bd
       -0.6133965 2.7675447 -2.2664893 -0.08963449
0001f0 63 8d 1b 3f 3e a1 9d bf b4 69 1f bf 84 a4 12 3f
       0.60762614 -1.2314832 -0.62270665 0.5728228

batch_norm2.running_var f4 [128]
000000 d8 7a 40 40 18 4c 38 40 b0 63 5d 40 59 1b f5 3f
       3.0074978 2.8796444 3.4592094 1.9148971
000010 92 a5 b4 40 16 07 9c 40 d8 99 4d 40 7f 36 de 3f
       5.645211 4.875865 3.2125149 1.7360381
000020 be 2c ed 3f 2f bb 23 41 3b 8a b2 40 85 99 d4 3f
       1.8529279 10.233199 5.579374 1.660935
000030 76 0e f7 40 e0 ea 1b 40 1b b5 23 41 d2 29 31 41
       7.7205153 2.4362106 10.231715 11.07271
000040 66 2c a3 40 40 7a 89 40 c6 dd f3 40 35 d7 86 40
       5.0991697 4.296173 7.620822 4.2137704
000050 6e b7 13 40 3c 26 6d 40 69 c1 58 40 40 17 79 3f
       2.3080707 3.7054586 3.3868048 0.973011
000060 b3 d5 36 41 07 3c db 40 1e 51 da 40 4f 80 aa 40
       11.427173 6.8510776 6.822402 5.3281627
000070 90 f1 d6 40 5e 9b 8e 40 2d 06 cb 3f 4f 74 2e 41
       6.7169876 4.4564657 1.586126 10.903396
000080 d9 c5 7f 40 fc 1e a8 40 6a b2 20 40 46 fa 96 40
       3.9964507 5.2537823 2.5108895 4.718051
000090 9c 8f 9d 40 80 f9 db 40 89 4e 50 41 83 b6 46 41
       4.9237804 6.8742065 13.019174 12.419559
0000a0 74 6c 0d 41 fd da fd 3f 05 c2 cd 40 3e ec 95 40
       8.838978 1.9832455 6.429934 4.685088
0000b0 52 64 8f 3f a9 e4 13 41 73 65 06 41 53 d7 a3 40
       1.120249 9.243325 8.399768 5.1200347
0000c0 75 71 a5 40 b0 3e c5 40 80 f1 da 3f 21 4b a8 40
       5.1700997 6.1639023 1.710495 5.259171
0000d0 f1 fd 03 41 0f c1 b4 40 b9 aa bc 40 ea 56 85 40
       8.249497 5.6485667 5.89584 4.1668596
0000e0 11 11 24 40 7c b4 ce 3f ae 5f 12 40 d3 36 13 40
       2.5635417 1.614883 2.2870898 2.3002212
0000f0 ee 97 2a 40 e9 d6 95 40 b0 5d d4 40 ab 9e ed 3f
       2.665523 4.682484 6.6364365 1.8564047
000100 99 4e 12 41 1c ee 91 40 c6 20 a1 40 5e 98 89 40
       9.144189 4.560316 5.0352507 4.2998495
000110 97 70 16 40 78 b9 13 41 83 5f 33 40 c2 21 43 40
       2.350622 9.23278 2.8027046 3.0489354
000120 ae bf a4 40 bb 2c 76 40 21 df 85 40 20 5c d4 40
       5.1483984 3.8464801 4.1834874 6.6362457
000130 d6 59 8d 3f 8a 31 d2 40 cf 60 f7 40 12 cc df 40
       1.1043041 6.5685472 7.7305675 6.993661
000140 d0 7b 5a 40 69 61 ff 40 58 c2 af 40 eb 94 ea 3f
       3.413807 7.980641 5.4924736 1.8326696
000150 a5 1b 45 40 7e b2 0c 40 aa 87 d2 40 77 8c 6a 40
       3.0798123 2.1983943 6.5790606 3.6648233
000160 59 11 ae 40 c4 bc 20 40 b2 8f 17 41 fd ad 1f 40
       5.4396176 2.5115213 9.472582 2.4949944
000170 86 03 74 40 65 32 e9 40 b7 74 01 41 a1 a5 7e 40
       3.812715 7.2874017 8.090995 3.9788592
000180 45 98 bd 40 11 f4 b1 40 d8 c8 ae 40 cf c1 0e 40
       5.9248376 5.5610433 5.462017 2.2305791
000190 23 3b f6 40 b0 f8 b6 3f 1a 3f 43 41 0a e0 aa 40
       7.694719 1.4294643 12.202906 5.3398485
0001a0 39 51 c9 40 ea 8e ab 40 44 95 33 41 2e 04 d4 40
       6.291165 5.3611956 11.223942 6.62551
0001b0 77 28 91 40 a6 d4 18 40 9b 96 aa 3f 62 d1 8b 40
       4.5361896 2.387979 1.3327211 4.3693094
0001c0 64 9c b7 40 12 79 7f 3f 19 d3 65 40 d5 32 26 41
       5.7378407 0.99794114 3.5910094 10.38741
0001d0 62 04 af 3f eb b6 d4 40 a7 c3 35 40 a7 07 dd 40
       1.3673213 6.647329 2.8400667 6.907184
0001e0 14 21 15 40 55 34 8c 40 0e d6 87 40 1a a6 d1 40
       2.330144 4.381388 4.2448797 6.551526
0001f0 0c e3 79 3f be ae 1a 41 c8 4c 81 40 f6 12 7a 40
       0.9761207 9.667662 4.0406227 3.9074073
