agent_0_gcn.pth (torch, 147323 bytes, 18 tensors)

conv1.bias f4 [128]
-0.000107571876 0.00079851743 -0.0008594736 -0.0007494997 -0.0015258386 -0.0023465727 0.0044840225 -0.0018736415
-0.00087391335 0.00024795605 0.00011242397 0.0022368776 0.00048726398 -0.0008081525 0.00086142897 -0.0012566914
0.0012096526 -5.6918645e-05 -0.0026373342 8.901765e-05 0.00064600253 0.0012035009 -0.0010618315 -0.00082191173
0.0022466008 0.00012870667 -0.0014148809 -0.0011592987 -0.00072664645 0.005309467 0.0025323462 -0.00087841944
0.0023708583 0.0016808832 -0.0018290067 -0.0006941121 0.0011909298 0.0012891059 0.0016503508 -0.00090485107
-0.0021683865 -0.0033167955 0.0005427729 -0.0007233309 -0.00016431893 -3.255636e-05 0.0001199707 0.0008760261
-0.002270725 0.00088522193 0.00090821524 0.0007676603 -0.00041727076 -0.0032969895 -0.0010425939 -0.001116948
0.0005805157 0.0023836126 -0.0013429312 -0.0005381455 -0.0010781441 0.0015362483 0.0004092825 0.00060511124
0.0001770587 8.784642e-06 0.001231501 -0.0031697138 0.0004397191 0.0008337203 -0.0007299474 0.0012969855
-0.00085464976 -0.0003284312 0.00133241 -0.0013692641 0.0018560343 -5.229266e-05 -0.0020823174 -0.00013119678
0.003299448 0.0017388423 -0.00061831804 0.003108797 -0.00038709992 0.0006586355 -0.0009374427 -0.0006089577
0.00030276913 -0.0016510157 0.00042932975 -0.0008087204 -0.00034667752 -0.0009129216 -0.0019962552 -0.0018572953
-0.0013994594 0.0020902464 0.003369793 0.0032373685 -0.00031688978 -0.002120026 -0.0020002304 6.581112e-05
0.00092219026 0.0003405554 0.0006923786 -0.0009060908 -0.0004626418 0.00071252335 0.0010922216 0.0001300982
0.00018755013 -0.00065797736 -0.0020525581 0.0021937403 -0.00040059164 -0.0008404141 -0.0012139762 0.00078462705
-5.029258e-05 -0.0001265979 -0.00017751334 0.0008394774 0.00039182618 -1.6623942e-05 0.00033360848 0.0013223133
00000000: 3698 e1b8 9953 513a 4c4e 61ba 137a 44ba
00000010: a6fe c7ba f5c8 19bb b5ee 923b fa94 f5ba
00000020: 5517 65ba 1900 8239 29c5 eb38 9498 123b
00000030: 7777 ff39 32da 53ba 85d1 613a 91b7 a4ba
00000040: 358d 9e3a eebb 6eb8 20d7 2cbb fdae ba38
00000050: 7f58 293a cabe 9d3a 272d 8bba 9075 57ba
00000060: b53b 133b 6ff5 0639 8673 b9ba 9cf3 97ba
00000070: 6b7c 3eba 0afb ad3b b8f5 253b bb45 66ba
00000080: 6760 1b3b 1551 dc3a 48bb efba 13f5 35ba
00000090: f918 9c3a 37f7 a83a 9550 d83a 8733 6dba
000000a0: 7d1b 0ebb 985e 59bb df48 0e3a ea9d 3dba
000000b0: 074d 2cb9 208d 08b8 c798 fb38 1ea5 653a
000000c0: 72d0 14bb 3d0e 683a 4b15 6e3a d03c 493a
000000d0: 22c5 dab9 4e12 58bb a5a7 88ba 8e66 92ba
000000e0: c02d 183a 6236 1c3b 4b05 b0ba 5512 0dba
000000f0: 8350 8dba f05b c93a f894 d639 54a0 1e3a
00000100: d5a8 3939 c061 1337 516a a13a f9ba 4fbb
00000110: 198a e639 068e 5a3a f159 3fba 9dff a93a
00000120: 930a 60ba 4a31 acb9 43a4 ae3a e178 b3ba
00000130: 2d46 f33a d154 5bb8 7d77 08bb de91 09b9
00000140: 8d3b 583b dee9 e33a 9f16 22ba f5bc 4b3b
00000150: acf3 cab9 48a8 2c3a b7be 75ba 76a2 1fba
00000160: fcbc 9e39 e566 d8ba aa17 e139 4f00 54ba
00000170: 45c2 b5b9 2251 6fba 9bd3 02bb 7d70 f3ba
00000180: 116e b7ba 84fc 083b bfd7 5c3b 082a 543b
00000190: 3a24 a6b9 22f0 0abb 4c16 03bb 1304 8a38
000001a0: 24bf 713a 928c b239 be80 353a b986 6dba
000001b0: bb8e f2b9 a2c8 3a3a e028 8f3a f86a 0839
000001c0: 1ba9 4439 1d7c 2cba 3684 06bb dbc4 0f3b
000001d0: 8006 d2b9 3c4f 5cba 481e 9fba 6eaf 4d3a
000001e0: 3ff1 52b8 5dbf 04b9 e022 3ab9 6010 5c3a
000001f0: 056e cd39 a573 8bb7 2ce8 ae39 7951 ad3a

conv1.lin.weight f4 [128, 3]
-0.18203723 -0.046212662 0.011436298 -0.1160048 0.0015617225 0.10290623 -0.019080605 0.12191302
-0.19953616 -0.008957644 -0.0023249388 0.00040202338 0.1287184 -0.017223056 0.03248756 -0.21386656
0.11204436 -0.1277857 0.13092877 -0.11205431 0.044249315 -0.13874443 -0.0041499333 0.076962575
0.0020020907 0.050377585 0.044641417 -0.026259594 -0.031057239 0.24561985 0.036318082 0.12706748
-0.322502 -0.17535643 0.0016852313 0.0014878677 -0.021160528 0.059422556 0.19390433 -0.01622396
-0.010894055 -0.18766105 0.19406228 0.043297578 -0.21631937 0.18769361 -0.035360824 -0.17346147
-0.017921198 -0.033336885 0.1686256 0.016093906 -0.21553491 -0.059532765 -0.18121307 -0.03007046
-0.14144577 -0.20877174 -0.01605318 -0.11795264 0.108271696 0.09165884 0.12849598 0.21987809
0.16761231 0.082546584 0.060671765 0.09907082 0.12155197 0.20527312 -0.08770809 0.015492787
-0.10641237 0.12659198 0.17439352 0.13768652 -0.058382303 -0.19908594 0.026656616 0.06140182
0.18630522 0.017047446 0.07678499 0.1563792 -0.120703645 0.048729744 -0.13169344 0.016771039
-0.05809056 0.11257552 0.08171572 0.066295326 -0.07592912 0.20182864 -0.005665853 -0.11838592
0.19435097 -0.061639857 -0.10161628 0.04796882 0.015044325 -0.0875319 -0.21078116 0.13292654
-0.15164481 -0.14109017 -0.023111187 0.24452002 0.19007157 -0.21470629 -0.13969485 -0.19950815
0.0005213124 0.10886465 0.15095787 0.065122664 -0.029697316 -0.05179203 -0.0023906103 0.041443408
0.13474296 0.026203332 -0.13266169 0.1824911 0.009851304 0.045801852 -0.18832375 -0.15349782
-0.049939983 0.16117437 -0.107530706 -0.022049755 0.023647474 -0.027903203 0.03449638 -0.026575746
-0.049906038 -0.18614474 -0.20563066 -0.15452118 0.15204966 -0.2097528 -0.21521518 -0.111596994
0.16144189 -0.1421645 -0.20445386 -0.15280366 0.11103348 -0.10864092 -0.08121073 -0.0024491127
0.08716978 0.0313263 -0.025147004 0.22409128 0.20977408 0.03131566 0.12683655 0.09310873
-0.04384077 0.002553959 -0.054437883 -0.063599564 0.22068699 -0.12411316 0.03257543 -0.13038018
-0.25677192 0.0072917687 0.15617615 0.12977423 -0.068880245 0.013652234 0.26482272 -0.06341457
0.16347995 -0.011733417 0.033390548 -0.1281148 -0.1257567 -0.053196073 0.124582976 0.18457502
-0.012333133 -0.060926933 0.1271441 -0.086897045 0.17497452 -0.17743123 0.0511819 -0.13462298
-0.13518056 -0.011852257 0.15755978 -0.11733561 -0.05027282 0.21484493 0.17780837 -0.06442654
0.12972598 -0.16789827 -0.057177868 0.017391825 -0.025666641 0.01832831 -0.13091569 0.14641643
-0.059331533 -0.102431744 0.1336822 -0.0011526612 -0.016118536 -0.12652054 0.006697816 0.024882514
0.0015414986 -0.0065683685 0.0014255692 0.100024424 -0.03936997 -0.086232424 0.027770462 -0.048544362
0.2152481 0.16078873 0.060955677 0.09754485 0.113777615 0.09486372 -0.054710668 0.22582762
0.110498324 0.04570588 0.14990649 -0.08931684 0.08850147 0.006190603 -0.14671998 0.14887393
-0.080041096 -0.014781093 0.012259012 0.0015170483 -0.100156374 0.1753581 0.025525002 0.013193211
0.16727434 0.026290176 -0.07890322 0.17566781 -0.08684356 -0.10139623 0.1022034 -0.07243679
00000000: f867 3abe 7d49 3dbd 4f5f 3b3c ed93 edbd
00000010: b6b2 cc3a 80c0 d23d ee4e 9cbc 89ad f93d
00000020: 3553 4cbe 15c3 12bc 005e 18bb aac6 d239
00000030: c2ce 033e 5e17 8dbc ad11 053d d6ff 5abe
00000040: 8377 e53d 41da 02be 3112 063e bb7c e5bd
00000050: c53e 353d 0513 0ebe 2afc 87bb 8e9e 9d3d
00000060: 8235 033b ba58 4e3d ebd9 363d 5c1e d7bc
00000070: c06b febc c583 7b3e 45c2 143d fa1d 023e
00000080: fb1e a5be a390 33be fbe2 dc3a 8e04 c33a
00000090: d858 adbc 1165 733d db8e 463e 1ce8 84bc
000000a0: fa7c 32bc 382a 40be 43b8 463e cd58 313d
000000b0: d382 5dbe c132 403e 83d6 10bd e29f 31be
000000c0: 7acf 92bc 428c 08bd 30ac 2c3e 5ed7 833c
000000d0: 2fb5 5cbe a1d8 73bd eb8f 39be 5356 f6bc
000000e0: 29d7 10be 42c8 55be f581 83bc 2791 f1bd
000000f0: 8dbd dd3d a1b7 bb3d 7394 033e b927 613e
00000100: 90a2 2b3e 2f0e a93d f582 783d a4e5 ca3d
00000110: 3df0 f83d 1e33 523e 4da0 b3bd 75d5 7d3c
00000120: bbee d9bd 54a1 013e 3794 323e b2fd 0c3e
00000130: 4822 6fbd 2fdd 4bbe fa5e da3c 7a80 7b3d
00000140: ccc6 3e3e 16a7 8b3c 7341 9d3d de21 203e
00000150: 7933 f7bd d798 473d a5da 06be 6b63 893c
00000160: 5ef0 6dbd ff8d e63d 925a a73d d8c5 873d
00000170: ba80 9bbd 2bac 4e3e 9fa8 b9bb 5174 f2bd
00000180: f103 473e 137a 7cbd 321c d0bd f47a 443d
00000190: 797c 763c ed43 b3bd 04d7 57be e51d 083e
000001a0: c748 1bbe f179 10be ac53 bdbc 7563 7a3e
000001b0: 1fa2 423e f7db 5bbe 2b0c 0fbe dd4b 4cbe
000001c0: afa8 083a 6ef4 de3d b394 1a3e 085f 853d
000001d0: c947 f3bc e123 54bd c9ab 1cbb 90c0 293d
000001e0: 0ffa 093e 5fa8 d63c 77d8 07be f2de 3a3e
000001f0: 5d67 213c b99a 3b3d f1d7 40be 882e 1dbe
00000200: de8d 4cbd e50a 253e 0f39 dcbd b0a1 b4bc
00000210: 59b8 c13c 4295 e4bc 134c 0d3d 61b5 d9bc
00000220: 466a 4cbd ba9c 3ebe d890 52be cd3a 1ebe
00000230: e8b2 1b3e 70c9 56be 5e61 5cbe f78c e4bd
00000240: 0651 253e 9293 11be 5a5c 51be 9078 1cbe
00000250: 8565 e33d 217f debd d051 a6bd 4b81 20bb
00000260: 1286 b23d 0250 003d 1701 cebc 2f78 653e
00000270: 04cf 563e d944 003d 71e1 013e caaf be3d
00000280: 6192 33bd 5260 273b 42fa 5ebd 7d40 82bd
00000290: c5fb 613e 0a2f febd d06d 053d 6282 05be
000002a0: 9c77 83be caef ee3b a4ec 1f3e 89e3 043e
000002b0: 1611 8dbd 9fad 5f3c d896 873e 80df 81bd
000002c0: 4a67 273e 853d 40bc 87c4 083d 8730 03be
000002d0: 5dc6 00be 20e4 59bd 5c25 ff3d 3c01 3d3e
000002e0: e910 4abc 858e 79bd 1032 023e 14f7 b1bd
000002f0: 852c 333e 88b0 35be 1da4 513d 9bda 09be
00000300: c66c 0abe f82f 42bc 5a57 213e a74d f0bd
00000310: dfea 4dbd 4f00 5c3e 6613 363e 10f2 83bd
00000320: e3d6 043e 86ed 2bbe 5733 6abd 4d79 8e3c
00000330: d942 d2bc 4125 963c c30e 06be 30ee 153e
00000340: 9f05 73bd bcc7 d1bd fde3 083e e414 97ba
00000350: 050b 84bc 9a8e 01be 5a79 db3b 6ad6 cb3c
00000360: 1c0c ca3a 783b d7bb 2ada ba3a 9bd9 cc3d
00000370: 6842 21bd a09a b0bd e17e e33c 74d6 46bd
00000380: ff69 5c3e cda5 243e a9ac 793d 98c5 c73d
00000390: 3d04 e93d e947 c23d 4b18 60bd 5b3f 673e
000003a0: f24c e23d 1736 3b3d 1681 193e bfeb b6bd
000003b0: 4240 b53d 8bda ca3b c33d 16be 6872 183e
000003c0: 96ec a3bd 662c 72bc 06da 483c b2d7 c63a
000003d0: c91e cdbd 1391 333e cf19 d13c 5628 583c
000003e0: f749 2b3e 7f5e d73c 0398 a1bd 43e2 333e
000003f0: 09db b1bd d4a8 cfbd 0450 d13d bd59 94bd

batch_norm1.weight f4 [128]
1.029738 1.0866842 1.0114855 0.97520435 1.004202 0.97845465 0.8991108 1.0398732
0.9706932 1.0325538 0.92440057 1.0372256 0.9974993 0.92695016 0.9028382 0.9143354
0.998205 0.9306513 1.0212661 0.94922316 0.9421174 0.94120705 0.99609613 0.94025993
0.97789675 0.9215849 1.0188581 1.0302066 0.93138087 0.99050367 1.0074425 0.93672436
0.9673971 0.99112236 0.92178226 1.0141305 0.90053374 1.0014697 0.9821311 1.0358484
0.91308236 0.9895909 0.9437108 0.92298627 1.0155339 0.97132725 1.0108064 0.94479907
0.94191754 0.92758244 1.0395893 1.0729078 0.9733856 0.93321794 1.0501586 0.94346017
1.0268977 0.90031534 0.92555356 0.95175046 1.0160383 0.9624576 0.99166393 0.9789857
1.0072261 1.026551 0.93659496 0.97184813 0.89510185 0.9478523 0.9515316 1.0165595
0.9736467 0.90966535 1.0429871 0.97579104 0.9729651 0.9874004 0.96254677 1.0353823
1.0083942 1.0019078 1.0811177 1.0117682 0.97661877 0.9324965 1.0203118 1.0158656
0.90757185 0.9900543 0.92035735 1.0170815 1.0186267 0.98259306 0.94595623 0.9584945
0.94533646 1.0065956 0.9383579 0.9705024 0.95941365 1.0273192 0.9207565 1.0139143
1.0223725 0.9445391 0.9884167 0.98215395 0.98473597 0.9126868 1.0005835 0.9893614
0.9521122 1.0160472 0.921138 0.9508182 0.91632706 1.0026869 0.9974026 0.94933397
0.9877202 1.0558639 0.9283306 0.91409236 1.0460839 1.0041381 0.9965491 0.9066645
00000000: 74ce 833f 7818 8b3f 5b78 813f fea6 793f
00000010: b189 803f 017c 7a3f 202c 663f 911a 853f
00000020: 597f 783f b92a 843f 84a5 6c3f cfc3 843f
00000030: 1d5c 7f3f 9b4c 6d3f 6720 673f e311 6a3f
00000040: 5d8a 7f3f 2a3f 6e3f d9b8 823f 4a00 733f
00000050: 9b2e 713f f2f2 703f 2800 7f3f e0b4 703f
00000060: 7157 7a3f fdec 6b3f f169 823f cfdd 833f
00000070: fa6e 6e3f a691 7d3f e0f3 803f 2bcd 6f3f
00000080: 56a7 773f 32ba 7d3f ecf9 6b3f 07cf 813f
00000090: 6189 663f 2930 803f f26c 7b3f ae96 843f
000000a0: c4bf 693f d455 7d3f 0897 713f d448 6c3f
000000b0: 04fd 813f e7a8 783f 1b62 813f 5ade 713f
000000c0: 8221 713f 0b76 6d3f 4311 853f 0b55 893f
000000d0: cc2f 793f 5fe7 6e3f 996b 863f 9b86 713f
000000e0: 6271 833f 117b 663f 14f1 6c3f eba5 733f
000000f0: 8b0d 823f 9f63 763f b0dd 7d3f cf9e 7a3f
00000100: c9ec 803f 0666 833f b0c4 6f3f 0acb 783f
00000110: 6525 653f 73a6 723f 9397 733f 9f1e 823f
00000120: e940 793f d4df 683f 9a80 853f 71cd 793f
00000130: 3e14 793f 46c6 7c3f 7769 763f 6887 843f
00000140: 1013 813f 843e 803f 1162 8a3f 9f81 813f
00000150: b003 7a3f 17b8 6e3f 9499 823f e207 823f
00000160: a156 683f 3374 7d3f 8a9c 6b3f ba2f 823f
00000170: 5c62 823f 388b 7b3f 302a 723f e55f 753f
00000180: 9201 723f 20d8 803f 3938 703f d872 783f
00000190: 229c 753f 327f 833f b3b6 6b3f f2c7 813f
000001a0: 1add 823f 51cd 713f e008 7d3f 716e 7b3f
000001b0: a817 7c3f d8a5 693f 1f13 803f ca46 7d3f
000001c0: a0bd 733f d60d 823f b3cf 6b3f d268 733f
000001d0: 6994 6a3f 0b58 803f c755 7f3f 8d07 733f
000001e0: 3bdb 7c3f 8c26 873f 13a7 6d3f f501 6a3f
000001f0: 14e6 853f 9987 803f d81d 7f3f 2a1b 683f

batch_norm1.bias f4 [128]
0.054237094 0.08294057 0.02240537 -0.06850278 -0.0075845905 -0.008576851 -0.030656002 0.06993352
-0.033098545 0.0241545 -0.018337812 0.038822103 0.0013395847 -0.055655032 -0.06337855 -0.0046189176
-0.026727779 -0.08203175 0.039860703 -0.023047026 -0.054799482 -0.07515784 -0.019723566 -0.04481624
-0.00446515 -0.045603782 -0.0036300987 0.024508312 -0.06317101 -0.03516464 0.059227977 0.05956601
0.049724244 -0.008915733 -0.06562667 0.011299792 -0.036603205 0.037500422 -0.014701142 0.04932825
-0.055177342 -0.023958936 -0.032473676 -0.038857788 0.007187202 0.0038152263 0.013918352 -0.017426692
0.015958307 -0.08434336 0.042100497 0.015462241 0.02619235 -0.03709879 0.035482846 -0.08157033
0.07455745 -0.0002518474 -0.014207994 0.020880267 0.0031568161 0.091225326 0.009685783 0.0038832945
0.018151334 0.019624881 -0.034890722 -0.012205196 -0.042687964 0.073316194 0.0745883 0.022254528
0.0006148697 -0.00087669946 -0.0068401713 -0.03153113 -0.009321819 -0.012890856 -0.018462678 -0.028391838
0.030238193 -0.031060683 0.044394396 -0.037582804 0.034098297 -0.07762153 -0.031330526 0.03163469
-0.05940831 0.023300845 -0.042093348 0.03137933 0.039199978 -0.014836737 -0.04293995 -0.05381003
-0.05100877 0.02306463 0.018101785 0.0077962717 -0.042210303 0.030095104 -0.07048818 0.0015394267
0.033745345 -0.018136203 -0.033635892 0.008095471 0.017887939 -0.06125338 -0.021070126 0.034759045
-0.022758152 0.020130485 -0.0711212 -0.054927472 -0.06185447 0.057115905 -0.01825165 -0.0065239044
-0.059992727 0.033189837 0.025205199 -0.059937514 0.076963894 -0.00089088525 0.01740373 -0.06083873
00000000: b727 5e3d bfdc a93d 778b b73c 2f4b 8cbd
00000010: 2888 f8bb ec85 0cbc 4c22 fbbc 4e39 8f3d
00000020: 5792 07bd a8df c53c 2e39 96bc ed03 1f3d
00000030: 0195 af3a 88f6 63bd 9dcc 81bd 4a5a 97bb
00000040: 37f4 dabc 4300 a8bd fa44 233d 1ecd bcbc
00000050: 6c75 60bd 5bec 99bd 5193 a1bc 3c91 37bd
00000060: 6550 92bb 08cb 3abd f3e6 6dbb a8c5 c83c
00000070: cd5f 81bd cc08 10bd 0999 723d 7dfb 733d
00000080: a6ab 4b3d 4b13 12bc 4767 86bd c322 393c
00000090: 3eed 15bd 0b9a 193d 0fdd 70bc 6b0c 4a3d
000000a0: a301 62bd 8845 c4bc 1e03 05bd 5829 1fbd
000000b0: 9f82 eb3b e008 7a3b cd09 643c 6cc2 8ebc
000000c0: ffba 823c 36bc acbd 9271 2c3d 5755 7d3c
000000d0: 5791 d63c e7f4 17bd 7656 113d 580e a7bd
000000e0: 94b1 983d 630a 84b9 a5c8 68bc 180d ab3c
000000f0: 96e2 4e3b 58d4 ba3d 1eb1 1e3c df7e 7e3b
00000100: 1bb2 943c 5cc4 a03c 93e9 0ebd 4df8 47bc
00000110: 93d9 2ebd cd26 963d c0c1 983d 214f b63c
00000120: 352f 213a 4ed2 65ba 8423 e0bb c926 01bd
00000130: 8bba 18bc 2b34 53bc 0b3f 97bc 0096 e8bc
00000140: 16b6 f73c f972 febc e6d6 353d 6df0 19bd
00000150: a8aa 0b3d 09f8 9ebd 7054 00bd 6093 013d
00000160: 2156 73bd 6ae1 be3c 136a 2cbd 9d87 003d
00000170: 2890 203d c915 73bc cde1 2fbd e867 5cbd
00000180: 92ee 50bd 09f2 bc3c 324a 943c de77 ff3b
00000190: b6e4 2cbd 028a f63c 1b5c 90bd 97c6 c93a
000001a0: 8f38 0a3d 6092 94bc cac5 09bd dea2 043c
000001b0: ba89 923c d3e4 7abd 429b acbc 805f 0e3d
000001c0: 4e6f babc b0e8 a43c fea7 91bd a1fb 60bd
000001d0: 1d5b 7dbd 5ef2 693d 7c84 95bc 7ac6 d5bb
000001e0: efba 75bd 11f2 073d 227b ce3c 0a81 75bd
000001f0: 3f9f 9d3d 4c8a 69ba 4492 8e3c 0832 79bd

batch_norm1.running_mean f4 [128]
-0.17645809 -0.07810061 -0.04998601 -0.009476571 0.12434712 -0.21514617 0.11614387 -0.11053469
0.024046535 0.03885536 -0.031026682 -0.16078825 0.047909006 -0.071356215 0.12982364 0.11762677
0.025336787 -0.04643964 -0.21817376 -0.2316429 0.15711953 0.26460755 0.110509545 0.1771763
-0.021605508 0.060293302 0.08893703 0.07491727 -0.1406945 0.040847033 0.0710585 0.15294063
0.14239173 0.024805047 -0.21418849 -0.06802572 0.094804525 -0.1541396 0.1477076 -0.038046397
0.09154049 0.1821517 -0.22123574 0.121360354 0.02592739 -0.087885395 -0.18083884 -0.2711405
0.06124077 -0.14966151 -0.05078184 0.08829066 0.2379216 0.07532955 -0.0025481791 -0.14723957
-0.19353886 0.113238074 0.27921048 -0.040876802 -0.09427315 0.15414113 0.15075897 -0.19267498
-0.083931416 -0.05915039 0.19073784 -0.16689284 -0.056812666 0.096321076 0.11933251 -0.1084557
-0.00036998026 0.060552333 0.078192085 0.18904479 0.11224274 0.24667184 0.1445421 0.01748151
-0.07105103 0.03211452 0.073321044 0.061105687 -0.073526785 -0.08150566 0.058355957 -0.0069300253
-0.05996088 0.10117328 -0.0947316 0.114138335 -0.24678962 0.08473657 0.15520349 -0.14760293
-0.1454455 -0.10207263 0.1043435 0.09150917 0.19612381 -0.12837118 -0.12488276 -0.03196834
0.18696004 0.073621 -0.017539905 -0.06676091 0.009359393 0.045919187 0.0404465 -0.118573576
0.19167677 0.046371065 -0.11757984 -0.0074706594 -0.057119936 -0.14434381 -0.21079034 -0.15597059
-0.070854485 -0.12954445 0.10797961 -0.084598675 -0.10341983 0.0053118924 -0.15194176 -0.26219952
00000000: 6eb1 34be 36f3 9fbd 21be 4cbd 9f43 1bbc
00000010: b4a9 fe3d 474f 5cbe d6dc ed3d 0360 e2bd
00000020: 3dfd c43c cc26 1f3d ab2b febc ada5 24be
00000030: 3c3c 443d 3523 92bd 7df0 043e 4ee6 f03d
00000040: 188f cf3c 7e37 3ebd f168 5fbe cc33 6dbe
00000050: f1e3 203e a47a 873e d452 e23d b46d 353e
00000060: 09fe b0bc 1cf6 763d 9e24 b63d 3a6e 993d
00000070: 3812 10be 384f 273d 1e87 913d 789c 1c3e
00000080: 23cf 113e f433 cb3c 3a54 5bbe 1251 8bbd
00000090: e028 c23d c5d6 1dbe a940 173e 8ad6 1bbd
000000a0: 9579 bb3d fa85 3a3e 9f8b 62be c78b f83d
000000b0: ae65 d43c 42fd b3bd d12d 39be edd2 8abe
000000c0: 9ad7 7a3d de40 19be 9e00 50bd bcd1 b43d
000000d0: b8a1 733e 6146 9a3d 5aff 26bb f8c5 16be
000000e0: 0d2f 46be 5de9 e73d adf4 8e3e 6f6e 27bd
000000f0: 4812 c1bd 2cd7 1d3e 8f60 1a3e 974c 45be
00000100: 3ce4 abbd ae47 72bd c850 433e f5e5 2abe
00000110: 66b4 68bd fc43 c53d 9a64 f43d 061e debd
00000120: e9f9 c1b9 b905 783d 2c23 a03d f594 413e
00000130: 86df e53d 8b97 7c3e d802 143e 6235 8f3c
00000140: 3483 91bd 848a 033d 5829 963d f549 7a3d
00000150: 3695 96bd 71ec a6bd a806 6f3d 4415 e3bb
00000160: 8a99 75bd f033 cf3d a402 c2bd 5cc1 e93d
00000170: 6bb6 7cbe 5e8a ad3d aaed 1e3e 3925 17be
00000180: aaef 14be 740b d1bd 0cb2 d53d 2969 bb3d
00000190: aed4 483e bc73 03be 88c2 ffbd 3cf1 02bd
000001a0: 7472 3f3e 9bc6 963d d9af 8fbc f2b9 88bd
000001b0: 2458 193c c215 3c3d 3bab 253d b4d6 f2bd
000001c0: ea46 443e 96ef 3d3d b3cd f0bd 6fcc f4bb
000001d0: 98f6 69bd ddce 13be 6cd9 57be c1b6 1fbe
000001e0: 281c 91bd 4da7 04be 6a24 dd3d 1242 adbd
000001f0: c7cd d3bd 620f ae3b 9f96 1bbe 043f 86be

batch_norm1.running_var f4 [128]
0.0029331457 0.003111194 0.004687242 6.937169e-06 0.00075125456 0.0019139677 0.00084477314 0.0030259825
0.00013228344 0.0064216875 0.013122328 0.0021498946 0.003212982 0.0026585443 0.011993563 0.008012428
0.0031555314 0.0010928524 0.0012941586 0.001640401 0.00079099514 0.0035318688 0.0006665718 0.0022519904
0.0042895623 0.0069014267 0.0021308777 0.0014818477 0.0010053565 0.0013195798 0.002215928 0.0065152096
0.0049833953 0.0013730363 0.0022142513 0.010674571 0.0054458766 0.0060991547 0.0027254478 0.0005738225
0.00502078 0.0016467593 0.0030764027 0.0018263153 0.00010393949 0.002185397 0.011372965 0.0035128836
0.0072693587 0.0012470402 0.0018904818 0.003957322 0.001682042 0.00049221393 0.0066806884 0.00091937097
0.010842399 0.0008626764 0.0026038508 0.0015119049 0.0047848513 0.00376759 0.0020086055 0.001308383
0.005852327 0.008494194 0.001327615 0.0027968127 0.0012910285 0.0034798435 0.0014852798 0.0014616194
1.5489826e-06 0.0019910198 0.003993528 0.0011203212 0.00276019 0.0036560588 0.0009819997 0.0035722821
0.0006213636 0.0038392202 0.0019257859 0.0030558968 0.0035445553 0.00023780514 0.0025477153 0.0011278652
0.0004806798 0.00623915 0.00043904773 0.0005738073 0.0025600458 0.0009037331 0.0012243391 0.0010783528
0.0011115298 0.007818591 0.0035833416 0.0003422384 0.0016019632 0.00747849 0.00068071473 0.006117621
0.0033586172 0.0008279123 0.007325329 0.0012893754 0.0021671443 0.0016312966 0.008165127 0.00831065
0.002132121 9.6328215e-05 0.0009689765 0.0005130381 0.0012254055 0.008999383 0.0027738763 0.0023086127
0.001719792 0.007936981 0.0014334738 0.0008695349 0.0070707547 0.00059646944 0.0047796573 0.0071614124
00000000: 053a 403b 2ce5 4b3b 7097 993b d4c5 e836
00000010: d7ef 443a 19de fa3a c473 5d3a 904f 463b
00000020: 91b5 0a39 056d d23b 08ff 563c 3fe5 0c3b
00000030: e590 523b f93a 2e3b a680 443c 8f46 033c
00000040: 08cd 4e3b 0b3e 8f3a c2a0 a93a b902 d73a
00000050: c95a 4f3a ed76 673b e0bc 2e3a 2196 133b
00000060: 758f 8c3b 5d25 e23b 32a6 0b3b 8f3a c23a
00000070: 2bc6 833a c0f5 ac3a 1a39 113b 8a7d d53b
00000080: c04b a33b 74f7 b33a f91c 113b 65e4 2e3c
00000090: 5373 b23b 6bdb c73b 6d9d 323b 936c 163a
000000a0: 5b85 a43b 13d8 d73a 799d 493b f960 ef3a
000000b0: 17fa d938 e138 0f3b ac55 3a3c 6838 663b
000000c0: cd33 ee3b ba73 a33a 0bca f73a 6cac 813b
000000d0: f777 dc3a eb07 013a ade9 da3b f101 713a
000000e0: 51a4 313c 3c25 623a 5ea5 2a3b 1c2b c63a
000000f0: 3eca 9c3b ace9 763b cfa2 033b 0c7e ab3a
00000100: e1c4 bf3b 3b2b 0b3c 5e03 ae3a bb4a 373b
00000110: ba37 a93a 160e 643b b8ad c23a cf93 bf3a
00000120: a3e6 cf35 c57b 023b 24dc 823b bed7 923a
00000130: 4ee4 343b 7d9a 6f3b 71b6 803a f31c 6a3b
00000140: 01e3 223a 6d9b 7b3b a76a fc3a 7145 483b
00000150: c54b 683b 555b 7939 92f7 263b e0d4 933a
00000160: c003 fc39 c971 cc3b fd2f e639 8e6b 163a
00000170: 71c6 273b 80e8 6c3a 017a a03a 8457 8d3a
00000180: c0b0 913a 8c19 003c 7fd6 6a3b 766e b339
00000190: f7f8 d13a 1f0e f53b fe71 323a 5376 c83b
000001a0: 3f1c 5c3b 4108 593a 5009 f03b 4200 a93a
000001b0: a606 0e3b 3bd1 d53a 06c7 053c 6429 083c
000001c0: 0ebb 0b3b d103 ca38 ea02 7e3a 677d 063a
000001d0: c99d a03a 2672 133c ecc9 353b 184c 173b
000001e0: a56a e13a 1c0a 023c 66e3 bb3a 80f1 633a
000001f0: cab1 e73b 635c 1c3a ac9e 9c3b 48aa ea3b

conv2.bias f4 [128]
1.7624707e-05 -0.00014588077 -1.8721485e-05 -0.0001118995 0.00012104479 0.00030510378 7.392579e-05 -0.0002711219
4.7321555e-05 -0.00050865894 -0.00023342724 0.00015305368 0.00043565815 1.2456239e-05 -5.9238544e-05 0.00037339597
-0.00041542618 0.00010879022 -0.00011367609 -6.6511195e-05 0.00040835384 0.0001576311 -0.00012085622 -0.00018082673
-0.00037051702 -0.0005759508 0.0002858057 -9.9637495e-05 0.00019584727 -0.00012494813 0.00032974232 -0.0003457489
-3.6102458e-05 -0.00018810274 -0.0004954569 0.00023835097 2.164649e-05 0.00027335412 0.00041747713 -0.0003930564
-3.3932192e-05 1.626714e-05 -7.26084e-05 6.0985043e-05 -0.00018274279 -7.064638e-05 0.00013339974 0.00047905027
0.00054987735 0.00045519616 -0.00061323366 -1.4271854e-05 0.000539382 -6.922621e-05 -0.0003146183 0.00029793705
-0.00024966977 -3.4408426e-05 -0.0003301358 0.0003887467 -4.9551338e-05 -0.00021794763 -0.00013699471 -0.00029004551
0.00025797237 0.00026439407 5.0159888e-05 5.735058e-05 7.260131e-07 0.00021583348 -3.4405516e-06 -8.6285814e-05
-0.00017150844 6.245264e-05 0.00010691986 -9.0698675e-05 -0.00022549734 -0.00013234788 -0.0004810556 -8.415767e-05
-0.00018884506 3.9098373e-05 -6.822022e-05 -0.00034594178 0.0002877103 -0.00021241087 0.0005772275 -5.4476674e-05
0.0003932302 -3.479182e-06 -0.00021902325 7.744179e-05 -0.000489025 -7.2872767e-06 0.00029617027 8.290667e-05
6.0704373e-05 5.3934422e-05 8.741763e-05 -0.00037429066 0.0006890307 -0.00038952133 1.604617e-06 7.003086e-05
0.00018635725 -8.6126965e-05 0.0002275586 0.00012400644 -0.00022645261 -0.00018989481 3.057843e-05 0.00012667725
-7.1320814e-05 -0.00016703222 0.00040040232 -0.00013222428 -2.5951953e-05 -0.00016838913 -0.00034797032 0.00014675347
0.00037946753 8.36853e-05 2.6814323e-05 -0.00014060977 0.0001089021 -2.889031e-05 -0.0008725497 -5.0979823e-05
00000000: c5d8 9337 92f7 18b9 150c 9db7 96ab eab8
00000010: 6dd9 fd38 56f6 9f39 9b08 9b38 5e25 8eb9
00000020: 227b 4638 8657 05ba 26c4 74b9 097d 2039
00000030: 0c69 e439 24fb 5037 e776 78b8 5cc4 c339
00000040: 8fcd d9b9 4e26 e438 6365 eeb8 ed7b 8bb8
00000050: 5318 d639 c749 2539 3074 fdb8 4e9c 3db9
00000060: f441 c2b9 67fb 16ba 31d8 9539 79f4 d0b8
00000070: 5a5c 4d39 8204 03b9 44e1 ac39 a245 b5b9
00000080: b86c 17b8 723d 45b9 8de1 01ba daed 7939
00000090: 7c95 b537 f850 8f39 d5e0 da39 2313 ceb9
000000a0: 6a52 0eb8 6b75 8837 5745 98b8 31ca 7f38
000000b0: a59e 3fb9 fd27 94b8 38e1 0b39 0a29 fb39
000000c0: a525 103a 65a7 ee39 6ac1 20ba 2571 6fb7
000000d0: 5065 0d3a 8a2d 91b8 5af3 a4b9 6f34 9c39
000000e0: 1ce6 82b9 c451 10b8 1416 adb9 b3d0 cb39
000000f0: 58d5 4fb8 df88 64b9 3da6 0fb9 4011 98b9
00000100: 7740 8739 5f9e 8a39 c562 5238 b78b 7038
00000110: 3ee3 4235 5c51 6239 3ae4 66b6 58f4 b4b8
00000120: f2d6 33b9 01f9 8238 2a3a e038 7b35 beb8
00000130: 7b73 6cb9 ddc6 0ab9 3136 fcb9 ce7d b0b8
00000140: b604 46b9 8ffd 2338 7411 8fb8 855f b5b9
00000150: d3d7 9639 9cba 5eb9 1551 173a e27d 64b8
00000160: 772a ce39 e47b 69b6 9ba9 65b9 3f68 a238
00000170: ea31 00ba 3b85 f4b6 4d47 9b39 2ede ad38
00000180: d39c 7e38 a537 6238 fc53 b738 713c c4b9
00000190: 11a0 343a ab38 ccb9 385e d735 88dd 9238
000001a0: e568 4339 109f b4b8 cc9c 6e39 ba07 0239
000001b0: e973 6db9 801e 47b9 5741 0038 aad4 0439
000001c0: 1292 95b8 5f25 2fb9 17ed d139 afa5 0ab9
000001d0: 65b3 d9b7 9d91 30b9 c96f b6b9 d6e1 1939
000001e0: 45f3 c639 3480 af38 52ef e037 a670 13b9
000001f0: 5f62 e438 7859 f2b7 d2bb 64ba 2bd3 55b8

conv2.lin.weight f4 [128, 128]
0.08113575 0.07099447 -0.18250343 -0.076651625 0.0035995238 0.00090810395 0.0185654 -0.11399655
-0.052433036 0.15059671 -0.15871917 -0.0019495022 0.17925374 0.05119503 -0.01202849 0.00026147315
0.16825373 -0.09865142 0.14634447 0.06905432 0.071587384 0.0028022574 -0.047881424 -0.12751468
0.15104061 -0.1072115 0.119172394 0.09432928 0.173884 0.16342315 -0.108977206 -0.058635537
-0.042940818 -0.0021681741 -0.01703533 0.052577242 -0.08823302 0.044073395 -0.13157023 0.014481434
0.038949076 -0.028478991 0.15030235 -0.12909015 0.0025591082 0.07901735 -0.11407346 -0.04308816
0.067037575 -0.026868448 -0.1139119 -0.0030095875 0.09024534 -0.020379366 0.07168636 0.12522776
-0.030202731 -0.059665907 -0.01609314 0.038342435 0.09287841 -0.08746021 -0.05956796 0.14527763
-0.124054775 -0.07273365 0.012445944 0.010195014 0.006707186 -0.024902564 -0.02443793 0.15120207
0.0811209 0.05776615 -0.010220976 -0.021789117 0.058899973 0.022180263 -0.000779706 -0.092415266
0.127852 -0.03335377 0.062409062 0.025237001 0.07171776 0.0770375 0.17477818 0.022607842
0.05202342 -0.12800756 0.005054983 -0.023697525 -0.034548067 0.05331328 -0.03324492 0.085032664
0.018576069 0.052102458 0.0072240275 0.029639743 -0.1669206 0.06513185 0.10136053 0.10546587
0.0052553997 0.010940529 -0.116117775 0.06058941 0.007205298 -0.021850672 0.06013442 0.03380975
0.017721413 -0.047503065 0.10327522 0.0123598315 0.12978019 0.10437805 -0.047785603 0.038848203
0.13791834 -0.12565264 0.09234287 -0.10437654 -0.16777647 -0.09135839 0.016355831 0.06492559
0.032996714 0.017317465 0.021192197 -0.025181869 -0.0212771 0.08246016 0.13440992 -0.059718315
-0.117880374 0.14323853 0.078500316 -0.094644435 0.03806183 -0.05337593 0.02132912 -0.022056846
0.0043471367 -0.07690308 0.009976599 -0.13591534 0.05979136 0.0022731083 0.13104516 -0.07658929
-0.1850325 -0.020955836 0.042074673 -0.012449773 -0.004013475 0.08259192 0.07170265 0.0008886167
0.0060808877 0.010775616 -0.124350645 -0.08326176 -0.010958625 0.08945364 -0.048047222 0.08078332
-0.03789472 -0.0018253045 0.0010822276 0.0819916 0.21796279 -0.0029167978 -0.12201116 0.13161956
-0.019078668 0.05013448 0.00054859114 0.04034599 0.108482905 0.05646501 -0.093270764 0.036920622
0.07281833 0.13906626 0.08921314 -0.13126476 0.034142293 -0.044977233 0.0650965 -0.08511377
-0.120174445 0.053880874 0.16873421 -0.047322933 0.059570562 0.10576272 0.032039303 0.17722034
-0.058047645 0.083216555 0.08736943 -0.050284028 -0.15032831 -0.04278116 0.18635732 0.14812908
0.05879885 -0.09070156 0.12728965 0.11466409 0.10802769 0.11394808 0.016465945 -0.07992173
0.044472557 -0.16486016 0.10078173 0.09512662 -0.04602547 0.076229095 0.007925133 -0.0938069
0.1375689 -0.05918696 0.017569996 0.1597194 0.1388696 0.04890237 0.042587813 0.15675177
0.13449085 -0.13831964 -0.081629194 0.032525934 0.111229785 0.042344496 0.034483634 -0.11196155
-0.00080880366 0.06301371 0.042957455 0.09761729 0.061372645 0.097069785 0.074226886 -0.055379916
-0.052341875 -0.0955814 -0.043596722 -0.09385686 -0.106016904 0.059502944 -0.13067776 0.056813337
00000000: 802a a63d 8c65 913d 2ee2 3abe 87fb 9cbd
00000010: fde5 6b3b d30d 6e3a 7716 983c 0677 e9bd
00000020: 06c4 56bd 0636 1a3e 4787 22be 7086 ffba
00000030: 4b8e 373e e1b1 513d 2513 45bc 5516 8939
00000040: b54a 2c3e c109 cabd 53db 153e 5a6c 8d3d
00000050: 689c 923d 14a6 373b 501f 44bd 3593 02be
00000060: 64aa 1a3e b491 dbbd a810 f43d b62f c13d
00000070: a60e 323e 6658 273e 712f dfbd d12b 70bd
00000080: b6e2 2fbd ed17 0ebb ad8d 8bbc 3c5b 573d
00000090: 83b3 b4bd 4e86 343d 59ba 06be 8943 6d3c
000000a0: 1189 1f3d c64c e9bc dce8 193e 3530 04be
000000b0: b6b6 273b d9d3 a13d 599f e9bd 367d 30bd
000000c0: ff4a 893d 381b dcbc a44a e9bd 803c 45bb
000000d0: 8cd2 b83d a1f2 a6bc 4cd0 923d b53b 003e
000000e0: b86b f7bc 3d64 74bd c3d5 83bc f50c 1d3d
000000f0: 0937 be3d 571e b3bd 89fd 73bd a9c3 143e
00000100: 6e10 febd 61f5 94bd 13ea 4b3c fd08 273c
00000110: f4c7 db3b 7600 ccbc 0e32 c8bc b7d4 1a3e
00000120: b722 a63d 339c 6c3d e175 27bc 177f b2bc
00000130: 1941 713d 62b3 b53c 2f65 4cba 3744 bdbd
00000140: a2eb 023e f69d 08bd a5a0 7f3d d4bd ce3c
00000150: c3e0 923d d6c5 9d3d 0df9 323e 1534 b93c
00000160: 8216 553d 6a14 03be 45a4 a53b 5021 c2bc
00000170: 4682 0dbd 075f 5a3d d32b 08bd 9b25 ae3d
00000180: d72c 983c 6369 553d 89b7 ec3b 0ccf f23c
00000190: 3ced 2abe d963 853d 1c96 cf3d 7dfe d73d
000001a0: 7d35 ac3b e83f 333c 28cf edbd 9a2c 783d
000001b0: 6c1a ec3b 2e00 b3bc 824f 763d 187c 0a3d
000001c0: 7f2c 913c 9392 42bd f581 d33d e480 4a3c
000001d0: 19e5 043e 29c4 d53d d6ba 43bd 4b1f 1f3d
000001e0: 773a 0d3e 16ab 00be 421e bd3d 5ec3 d5bd
000001f0: 98cd 2bbe 1c1a bbbd aafc 853c b5f7 843d
00000200: 9027 073d 5bdd 8d3c 429b ad3c 354a cebc
00000210: 504d aebc dfe0 a83d c1a2 093e 319b 74bd
00000220: 446b f1bd 1fad 123e c6c4 a03d f1d4 c1bd
00000230: b9e6 1b3d b8a0 5abd 68ba ae3c 8fb0 b4bc
00000240: 6d72 8e3b 5d7f 9dbd e474 233c 642d 0bbe
00000250: c9e7 743d 6ef8 143b b430 063e d8da 9cbd
00000260: 2979 3dbe 93ab abbc 7e56 2c3d 22fa 4bbc
00000270: 7883 83bb f425 a93d d7d8 923d 0ff2 683a
00000280: 2f42 c73b 368c 303c 8dab febd 2485 aabd
00000290: ce8b 33bc 7833 b73d 2acd 44bd ba71 a53d
000002a0: 7e37 1bbd 0e3f efba 88d9 8d3a 36eb a73d
000002b0: a331 5f3e bf27 3fbb fde0 f9bd 47c7 063e
000002c0: de4a 9cbc d059 4d3d 54cf 0f3a d641 253d
000002d0: 492c de3d db47 673d be04 bfbd 143a 173d
000002e0: c721 953d 6367 0e3e 61b5 b63d 456a 06be
000002f0: cad8 0b3d 0c3a 38bd 5051 853d 2150 aebd
00000300: 051e f6bd 31b2 5c3d a9c8 2c3e b1d5 41bd
00000310: 4300 743d 209a d83d a53b 033d 4079 353e
00000320: 5ec3 6dbd 716d aa3d beee b23d a0f6 4dbd
00000330: aaef 19be 4c3b 2fbd 74d4 3e3e 26af 173e
00000340: 10d7 703d bdc1 b9bd 3858 023e 02d5 ea3d
00000350: 9f3d dd3d 9c5d e93d 97e3 863c 01ae a3bd
00000360: db28 363d 1ad1 28be a766 ce3d bfd1 c23d
00000370: 3485 3cbd 001e 9c3d 6bd8 013c d51d c0bd
00000380: ddde 0c3e 076e 72bd f4ee 8f3c 7b8d 233e
00000390: d533 0e3e da4d 483d 8f70 2e3d 8983 203e
000003a0: f8b7 093e aaa3 0dbe 352d a7bd ea39 053d
000003b0: 71cc e33d 6c71 2d3d b63e 0d3d 194c e5bd
000003c0: e505 54ba 550d 813d 28f4 2f3d 93eb c73d
000003d0: e261 7b3d 86cc c63d 4404 983d 0dd6 62bd
000003e0: 6f64 56bd 2ec0 c3bd 7a92 32bd 0738 c0bd
000003f0: 641f d9bd 5cb9 733d 64d0 05be 1ab5 683d

batch_norm2.weight f4 [128]
1.0404052 1.034575 1.0659734 0.9641231 0.9112066 1.0094849 1.0214715 0.96393186
1.0485225 1.0870564 1.0418682 0.96499723 1.0897425 1.0681847 0.97403234 1.0436482
1.0231822 1.0027635 1.0026541 1.0254323 1.058888 1.0796869 1.044615 1.0682554
1.0424967 0.9755018 0.9498198 1.0301105 1.0478096 1.062745 1.0444099 0.98752695
0.98401666 1.0028989 1.0176181 0.9744326 1.0837303 1.0381142 1.0038958 1.0404503
1.0789132 1.0661467 0.9463708 1.0134436 0.96159846 1.0282631 1.0455098 0.99392205
1.0136492 1.0428381 0.9922712 1.0293027 1.0050259 0.9360713 1.014641 1.0170383
1.055044 1.0212587 0.9840511 1.0351888 0.97371376 0.9435257 1.0154159 1.0094187
0.9823386 1.0322801 1.0109532 0.98491836 1.0731012 1.047219 0.96670413 1.0272614
1.0039165 1.0577602 1.0444598 0.9991492 0.98633766 1.0259444 0.9883364 0.97425056
1.027654 1.0052688 0.93695325 1.0290788 1.0172609 1.0051696 1.1534245 0.9751822
0.9723263 1.0416461 1.0781933 1.0104619 1.0354822 1.1102772 1.0489432 1.0345539
1.0347315 1.0403076 0.9984219 0.9589092 1.0183387 1.0138618 1.0065793 0.9635596
1.0505469 1.0185513 1.0347756 1.0387665 0.98362255 1.0597123 0.9994461 1.029256
0.9877121 1.0367119 1.0264019 1.0747384 1.0926659 1.0302688 1.0055288 1.0402923
1.0670476 1.0984218 0.99335766 1.0953177 1.0044404 1.0789704 1.0755483 1.004941
00000000: ff2b 853f f46c 843f d171 883f c5d0 763f
00000010: d644 693f cd36 813f 94bf 823f 3dc4 763f
00000020: fc35 863f aa24 8b3f f05b 853f 0f0a 773f
00000030: af7c 8b3f 47ba 883f 2f5a 793f 4496 853f
00000040: a2f7 823f 8e5a 803f f856 803f 5e41 833f
00000050: a489 873f 2e33 8a3f f2b5 853f 98bc 883f
00000060: 8870 853f 7cba 793f 6427 733f a9da 833f
00000070: a01e 863f 0708 883f 39af 853f 91ce 7c3f
00000080: 84e8 7b3f fe5e 803f 4f41 823f 6a74 793f
00000090: adb7 8a3f ede0 843f a87f 803f 7a2d 853f
000000a0: d419 8a3f 7f77 883f 5b45 723f 85b8 813f
000000b0: 512b 763f 209e 833f 44d3 853f ad71 7e3f
000000c0: 42bf 813f b87b 853f 7c05 7e3f 31c0 833f
000000d0: b0a4 803f 5ea2 6f3f c2df 813f 502e 823f
000000e0: af0b 873f 9bb8 823f c6ea 7b3f 1181 843f
000000f0: 4e45 793f e68a 713f 26f9 813f a234 813f
00000100: 8b7a 7b3f c121 843f ea66 813f 9c23 7c3f
00000110: 615b 893f 460b 863f ec79 773f 4d7d 833f
00000120: 5680 803f b064 873f dcb0 853f 3ec8 7f3f
00000130: a080 7c3f 2552 833f 9d03 7d3f 7c68 793f
00000140: 2b8a 833f a6ac 803f 2bdc 6f3f dbb8 833f
00000150: 9b35 823f 66a9 803f 6aa3 933f 8aa5 793f
00000160: 60ea 783f a954 853f 3d02 8a3f d156 813f
00000170: ae8a 843f 901d 8e3f c543 863f 436c 843f
00000180: 1572 843f cd28 853f 9498 7f3f 137b 753f
00000190: ec58 823f 39c6 813f 97d7 803f d8ab 763f
000001a0: 5278 863f e45f 823f 8773 843f 4df6 843f
000001b0: b0ce 7b3f a7a4 873f b3db 7f3f a9be 833f
000001c0: b3da 7c3f fab2 843f 2361 833f 0791 893f
000001d0: 7adc 8b3f d9df 833f 2bb5 803f 4c28 853f
000001e0: 0495 883f 1699 8c3f b04c 7e3f 5f33 8c3f
000001f0: 8191 803f b41b 8a3f 91ab 893f e8a1 803f

batch_norm2.bias f4 [128]
0.046694916 0.009378539 0.04481347 0.029983904 -0.07118221 -0.0021214478 0.010298715 -0.06536274
0.078314885 0.053976677 -0.03122646 -0.01898953 0.028074909 0.018552631 -0.036306575 0.016657509
0.0055674636 -0.023607077 -0.031630248 0.05822202 0.022313576 0.0667734 0.029143922 0.06336058
-0.014152496 -0.028989106 -0.025974788 0.024295626 0.022716772 0.033535726 0.04618722 0.023731155
0.0020024949 0.024531376 0.023501161 -0.028149998 0.06414823 -0.013993953 0.011854873 0.03690407
0.040619545 0.056848425 -0.051452436 0.02456098 -0.027690535 0.037343785 0.033915084 0.019964373
0.0051163603 -0.007512318 -0.0160264 0.059976302 0.0019704003 -0.06418986 -0.018252501 0.02179912
0.041291904 0.06803435 0.001673987 0.03341247 -0.022328291 -0.061437186 0.03170363 -0.015742918
0.011221073 0.010945155 0.0011834151 -0.01248632 0.068124264 0.037292197 0.0059496774 -0.008655792
0.012895363 0.043999657 0.041697238 -0.039014395 -0.034371153 0.016953325 0.002038976 -0.028949179
0.013486102 0.0088840425 -0.023940379 0.007951382 -0.007843343 -0.02054799 0.11767167 0.005255303
-0.02494494 0.03318811 0.06003691 0.0009916003 0.01427332 0.08262597 0.04717886 0.023371663
0.02882611 0.046408318 0.0058795847 -0.044179965 -0.03249095 0.015644912 -0.02726755 -0.01549139
0.028480627 0.016081478 0.015982987 0.025708195 -0.01940717 0.09536304 0.012726423 0.02233424
-0.0062124333 0.04167189 0.028529834 0.031464655 0.04877026 0.0453321 0.00062610005 0.04735123
0.05839726 0.07754295 0.013858773 0.024831304 -0.00048539095 0.08430089 0.040459465 0.0023205725
00000000: 2b43 3f3d 72a8 193c 548e 373d cea0 f53c
00000010: fbc7 91bd fd07 0bbb f1bb 283c e6dc 85bd
00000020: 8e63 a03d a616 5d3d a2ce ffbc ee8f 9bbc
00000030: 5afd e53c b0fb 973c 34b6 14bd 5475 883c
00000040: 456f b63b a163 c1bc b88e 01bd 367a 6e3d
00000050: f6ca b63c 7ec0 883d 3cbf ee3c 31c3 813d
00000060: dfdf 67bc 907a edbc 14c9 d4bc 9f07 c73c
00000070: 8618 ba3c c25c 093d cf2e 3d3d d767 c23c
00000080: 4a3c 033b 06f6 c83c 8285 c03c d39a e6bc
00000090: 2660 833d e546 65bc f13a 423c b928 173d
000000a0: ae60 263d e5d9 683d cabf 52bd 1c34 c93c
000000b0: 43d7 e2bc ccf5 183d 8bea 0a3d 538c a33c
000000c0: 24a7 a73b e429 f6bb cc49 83bc b6a9 753d
000000d0: d521 013b f975 83bd 4586 95bc 1194 b23c
000000e0: b321 293d 9855 8b3d af69 db3a 84db 083d
000000f0: d2e9 b6bc 8fa5 7bbd aadb 013d 4bf7 80bc
00000100: 97d8 373c 4f53 333c d21c 9b3a 6c93 4cbc
00000110: bc84 8b3d b4bf 183d 83f5 c23b 06d1 0dbc
00000120: 1347 533c fc38 343d b9ca 2a3d 8fcd 1fbd
00000130: c4c8 0cbd b3e1 8a3c 57a0 053b d426 edbc
00000140: d0f4 5c3c 608e 113c 9d1e c4bc 8346 023c
00000150: 5d81 00bc 4254 a8bc d8fd f03d ad34 ac3b
00000160: 5559 ccbc 41f0 073d 43e9 753d 96f8 813a
00000170: a5da 693c ce37 a93d 9f3e 413d ee75 bf3c
00000180: bc24 ec3c a616 3e3d 88a9 c03b 0df6 34bd
00000190: 3b15 05bd c229 803c 3260 dfbc 99cf 7dbc
000001a0: 3450 e93c 4ebd 833c c1ee 823c fe99 d23c
000001b0: c9fb 9ebc b34d c33d 7d82 503c 4cf6 b63c
000001c0: ab91 cbbb 25b0 2a3d 66b7 e93c 15e1 003d
000001d0: 53c3 473d 27ae 393d dd20 243a 5df3 413d
000001e0: f731 6f3d d7ce 9e3d e80f 633c 056b cb3c
000001f0: 127c feb9 f2a5 ac3d d3b8 253d bf14 183b

batch_norm2.running_mean f4 [128]
0.186483 0.7196861 1.0504217 -0.24480598 0.5271775 0.51594335 0.8414258 -0.08084709
0.48524198 0.43431476 1.0145264 -0.26284802 1.5807394 0.5844382 -0.63794696 0.010747138
1.3563628 0.63236773 0.63125926 -0.49278674 -0.1262424 0.1453261 0.7223252 0.16636653
0.67545396 -0.93731034 0.59565985 0.013689047 -0.6993299 1.2358458 0.28962767 0.90296394
-0.64420104 -0.59663457 -0.0961238 -0.62810385 -0.4246957 0.62443054 0.50211674 -0.43695417
-0.7992298 -0.23078178 -0.13216586 0.25406858 -0.45056152 -0.023831163 0.25040627 -1.1363672
0.11938374 -0.010071855 -0.45444372 -0.5593568 -0.650188 1.1264919 -0.0017649382 -0.7019754
0.7281514 -1.2258267 0.67456585 -0.26114208 -0.1596378 -0.12087282 -0.5942846 0.70405483
0.18573791 0.07650152 0.6260981 0.8630791 -0.57547283 -0.49331775 -0.29740033 -0.33034515
-0.419924 -0.8263445 -0.039560482 -0.6593933 -0.35954714 0.17135365 -0.76873374 0.7146837
-0.07061212 0.1295046 0.41302297 1.0850499 -0.8718631 0.51753354 1.42746 0.91274756
-0.22396412 1.0815154 0.2527323 0.35472375 0.02000343 -0.41856167 -0.7939351 -0.06892952
0.6680598 -0.5464989 -0.09103473 0.20502971 -1.2367861 0.7882897 -0.26643708 0.2474343
0.80514014 -0.45607108 -0.8621937 0.062265553 -0.6924925 0.27073622 0.76262045 0.992806
0.38410726 -1.196924 -1.08545 0.11587462 0.35734355 0.29441866 -0.50691414 -0.2069862
-0.23188742 0.108213305 -1.2436974 -0.28520933 -0.051910393 0.7740352 0.36676028 0.70187736
00000000: 66f5 3e3e 593d 383f 3874 863f 6bae 7abe
00000010: 1bf5 063f dd14 043f ae67 573f 2993 a5bd
00000020: a371 f83e 815e de3e 00dc 813f 0494 86be
00000030: ab55 ca3f be9d 153f 7e50 23bf c414 303c
00000040: 4c9d ad3f dae2 213f 359a 213f 8b4e fcbe
00000050: b045 01be 5dd0 143e 4eea 383f fd5b 2a3e
00000060: 8dea 2c3f 92f3 6fbf 2a7d 183f 0648 603c
00000070: 4907 33bf 3230 9e3f 144a 943e a528 673f
00000080: 5cea 24bf 0bbd 18bf 8edc c4bd 6acb 20bf
00000090: b771 d9be aeda 1f3f b98a 003f 75b8 dfbe
000000a0: 539a 4cbf 0f52 6cbe 7d56 07be 4715 823e
000000b0: 00b0 e6be 9239 c3bc 4035 803e 7b74 91bf
000000c0: 767f f43d 6c04 25bc d9ac e8be 0232 0fbf
000000d0: b972 26bf e330 903f 8055 e7ba a9b4 33bf
000000e0: 2168 3a3f e4e7 9cbf 59b0 2c3f 6ab4 85be
000000f0: 1778 23be 2b8c f7bd 0923 18bf f03c 343f
00000100: 1432 3e3e d4ac 9c3d f747 203f c0f2 5c3f
00000110: 3052 13bf 2594 fcbe db44 98be 0023 a9be
00000120: 4700 d7be 508b 53bf 2c0a 22bd 00ce 28bf
00000130: 9016 b8be 5577 2f3e bccb 44bf 83f5 363f
00000140: 169d 90bd db9c 043e bf77 d33e eae2 8a3f
00000150: 6c32 5fbf 147d 043f 02b7 b63f d3a9 693f
00000160: da56 65be 196f 8a3f 2166 813e 5a9e b53e
00000170: 3cde a33c b74d d6be 553f 4bbf ec2a 8dbd
00000180: f805 2b3f 5ae7 0bbf 6b70 babd 4ff3 513e
00000190: 024f 9ebf 5bcd 493f 716a 88be 6b5f 7d3e
000001a0: aa1d 4e3f 2682 e9be bab8 5cbf 2a0a 7f3d
000001b0: 3047 31bf f09d 8a3e 183b 433f 8928 7e3f
000001c0: b5a9 c43e ce34 99bf 07f0 8abf ac4f ed3d
000001d0: bcf5 b63e 0bbe 963e 20c5 01bf 31f4 53be
000001e0: e573 6dbe f09e dd3d 7a31 9fbf f506 92be
000001f0: fe9f 54bd 2c27 463f 01c8 bb3e 3cae 333f

batch_norm2.running_var f4 [128]
0.6813534 0.35043874 0.23937583 0.96061623 1.0102956 0.12607619 0.09475447 0.29865894
0.3911487 0.48362982 0.1692542 1.2420563 0.34258205 0.15535425 0.80312973 0.54489243
0.19081679 0.6788114 0.56067723 0.28438762 0.32804593 0.30280975 0.33081707 0.16999926
0.10714513 0.58164805 0.49081427 0.38431144 0.90918547 0.30306813 0.5583694 0.61334306
0.8072974 0.60812 0.6761414 0.3012611 0.8428832 0.38227448 0.23441789 0.36845744
0.39758804 0.8459314 0.5835974 0.2226822 0.27818024 0.12608114 0.25026828 0.28233272
0.41676736 0.18157421 0.58997834 0.9211279 0.36087692 0.19619893 0.8080088 0.44155452
0.3228048 0.19995224 0.2578951 0.53166384 0.647251 0.7300826 0.7469575 0.14395125
0.5922893 0.58600736 0.58651507 0.32786343 0.77728695 0.46812218 0.8880003 1.0777799
0.74823576 0.81041217 0.26131642 0.54329216 0.6751669 0.35720405 0.3506389 0.111001484
0.6014546 0.20532684 0.61619395 0.16769718 0.79471767 0.24002235 0.22604139 0.092554845
0.54620177 0.59002244 0.4071185 0.23090342 0.12446113 0.48267218 0.44737738 0.17456667
0.5595371 0.5953863 0.1860872 0.26910448 0.16183753 0.3733878 0.17029631 0.36122817
0.22652578 0.72520065 0.8567805 0.542158 0.88409454 0.66276693 0.51935005 0.334759
1.3036284 0.14595902 0.323216 0.48257488 0.44182453 0.25836638 1.0714253 0.61243874
0.11011806 0.25806102 0.40457857 1.1885256 0.53580934 0.33036146 0.09548915 0.7445451
00000000: 2d6d 2e3f b56c b33e f01e 753e f2ea 753f
00000010: 5e51 813f 1e1a 013e a20e c23d d3e9 983e
00000020: a444 c83e 549e f73e f950 2d3e b3fb 9e3f
00000030: ea66 af3e 2f15 1f3e e999 4d3f 127e 0b3f
00000040: 7a65 433e 95c6 2d3f 8b88 0f3f 419b 913e
00000050: a3f5 a73e e109 9b3e db60 a93e 4914 2e3e
00000060: e86e db3d e3e6 143f 024c fb3e 78c4 c43e
00000070: 61c0 683f bf2b 9b3e 4cf1 0e3f 0d04 1d3f
00000080: 0bab 4e3f c1ad 1b3f 9a17 2d3f e53e 9a3e
00000090: 32c7 573f 7bb9 c33e 3e0b 703e 74a6 bc3e
000000a0: a990 cb3e f68e 583f a466 153f cd06 643e
000000b0: a46d 8e3e 6a1b 013e 2a23 803e ea8d 903e
000000c0: 8862 d53e 97ee 393e d208 173f 0acf 6b3f
000000d0: dcc4 b83e 5fe8 483e aad9 4e3f 6f13 e23e
000000e0: ac46 a53e 48c0 4c3e d40a 843e 1f1b 083f
000000f0: 3eb2 253f b1e6 3a3f 9b38 3f3f f567 133e
00000100: 46a0 173f 9404 163f da25 163f b7dd a73e
00000110: 47fc 463f b6ad ef3e fd53 633f b1f4 893f
00000120: 618c 3f3f 2c77 4f3f 44cb 853e 3215 0b3f
00000130: bdd7 2c3f 73e3 b63e f186 b33e bf54 e33d
00000140: eef8 193f 3341 523e e3be 1d3f cfb8 2b3e
00000150: 9e72 4b3f 6bc8 753e 6577 673e 658d bd3d
00000160: e1d3 0b3f b60b 173f d671 d03e f271 6c3e
00000170: 7ae5 fe3d cf20 f73e a60e e53e 9bc1 323e
00000180: d33d 0f3f 3d6b 183f a58d 3e3e 10c8 893e
00000190: bdb8 253e b02c bf3e 2862 2e3e e6f2 b83e
000001a0: 60f6 673e c0a6 393f f855 5b3f deca 0a3f
000001b0: 0554 623f 18ab 293f 20f4 043f 8865 ab3e
000001c0: 4cdd a63f 4876 153e 917c a53e 0e14 f73e
000001d0: d336 e23e 9948 843e 7724 893f c9c8 1c3f
000001e0: 9485 e13d 9320 843e ec24 cf3e 9b21 983f
000001f0: cd2a 093f 2325 a93e d18f c33d 829a 3e3f

conv3.bias f4 [128]
2.1258216e-05 0.00012419236 -0.00010052648 0.00030490907 -0.00023518557 -0.00034757424 2.226284e-05 3.203193e-05
2.9482551e-05 3.0064028e-05 -0.0002793593 0.00055599073 -0.0005782187 0.00056623446 0.00029750366 -0.00018976055
0.00015239826 0.00018165699 -0.00032871947 0.0005887111 0.00011410272 0.00025062487 -1.6695836e-05 4.9064343e-05
0.0001535185 0.000170413 -0.00024798588 -7.9305515e-05 -4.594327e-05 4.9630158e-05 0.00013868343 -0.00010727081
-4.907532e-05 0.00032389606 9.795775e-05 8.874226e-05 0.00013744974 -4.4130582e-05 -0.00025445534 0.00027118088
0.0001426587 -0.0005263875 -0.0006518389 -0.000102246464 -0.00029747703 -4.4466415e-05 -0.00022083019 -3.7285397e-05
0.00017003104 8.421372e-06 0.0005528106 0.00031327587 -1.6700993e-05 0.00035977882 -0.00018593947 -0.00051135506
-0.00043261872 -0.0005246215 0.0002074352 0.00049990485 0.0012142488 3.89697e-05 0.0002307266 -0.00036419398
-0.0004546028 -5.0081282e-05 -0.00012916177 -0.000303248 0.0002493337 -0.00023717768 -0.00037642778 0.00046265443
0.00022297085 0.0002599936 -0.00031042777 0.0001765975 0.0006601798 -0.0005750613 -1.6321682e-06 4.7782327e-05
9.9283265e-05 -0.00015572183 -0.00014326196 0.00016202652 0.00033638507 6.14005e-05 -0.0002211019 -9.879149e-05
2.4456436e-05 -0.00079128373 8.442205e-05 0.00020626774 7.686888e-05 2.8519253e-05 0.000112072776 0.00016182449
0.0004198417 0.0007160701 -7.5879965e-05 0.00030029117 0.00032914788 0.0005075866 0.0001878802 0.00030683173
0.00014948598 -0.00045315226 -0.0003480682 -0.00018425491 0.00035632052 -0.00012650009 0.000119758406 0.00042467978
0.00060667435 0.0001382128 9.6233925e-05 -0.00046925386 0.0001855584 4.8758026e-05 -0.0002644933 0.00045177652
0.00095014647 0.00013044043 0.00035649556 0.0005932976 6.672108e-05 -0.00011137968 -5.2644496e-05 -0.00043492505
00000000: ac53 b237 a239 0239 bed1 d2b8 34dc 9f39
00000010: 259c 76b9 a03a b6b9 16c1 ba37 065a 0638
00000020: 4c51 f737 0232 fc37 f876 92b9 e8bf 113a
00000030: 9a93 17ba 5a6f 143a 44fa 9b39 76fa 46b9
00000040: 19cd 1f39 2d7b 3e39 fb57 acb9 bc53 1a3a
00000050: 6e4a ef38 4d66 8339 090e 8cb7 70ca 4d38
00000060: cff9 2039 e4b0 3239 1a04 82b9 d350 a6b8
00000070: 36b3 40b8 fa29 5038 8d6b 1139 94f6 e0b8
00000080: 39d6 4db8 98d0 a939 ab6e cd38 231b ba38
00000090: 6220 1039 da18 39b8 6b68 85b9 482d 8e39
000000a0: a796 1539 44fd 09ba 2be0 2aba 276d d6b8
000000b0: b1f6 9bb9 7381 3ab8 a78e 67b9 e462 1cb8
000000c0: 5c4a 3239 8449 0d37 7eea 103a 2d3f a439
000000d0: 1c19 8cb7 b2a0 bc39 bff8 42b9 750c 06ba
000000e0: 1ad1 e2b9 c186 09ba f682 5939 0c0c 033a
000000f0: 6e27 9f3a 6673 2338 33ef 7139 4af1 beb9
00000100: c157 eeb9 5e0e 52b8 996f 07b9 42fd 9eb9
00000110: 01b9 8239 e6b2 78b9 485b c5b9 6d90 f239
00000120: 48cd 6939 c04f 8839 e9c0 a2b9 082d 3939
00000130: eb0f 2d3a b6bf 16ba df10 dbb5 e269 4838
00000140: 4c36 d038 4349 23b9 9738 16b9 aae5 2939
00000150: d75c b039 24c4 8038 97d7 67b9 472e cfb8
00000160: cc27 cd37 276e 4fba be0b b138 9349 5839
00000170: aa34 a138 a13c ef37 9d08 eb38 6eaf 2939
00000180: 331e dc39 a7b6 3b3a bf21 9fb8 6670 9d39
00000190: 7b91 ac39 8f0f 053a b501 4539 42de a039
000001a0: 56bf 1c39 1195 edb9 ec7c b6b9 8d34 41b9
000001b0: 88d0 ba39 1ca5 04b9 ce26 fb38 8ea7 de39
000001c0: 3a09 1f3a 37ed 1039 32d1 c938 3006 f6b9
000001d0: 7492 4239 8881 4c38 b1ab 8ab9 6bdc ec39
000001e0: 4013 793a d6c6 0839 06e8 ba39 8787 1b3a
000001f0: 9bec 8b38 8394 e9b8 99ce 5cb8 a706 e4b9
