agent_0_gcn.pth (torch, 147323 bytes, 18 tensors)

conv1.bias f4 [128]
000000 00 00 00 00 00 00 00 00 00 00 00 00 00 00 00 00
       0.0 0.0 0.0 0.0
000010 00 00 00 00 00 00 00 00 00 00 00 00 00 00 00 00
       0.0 0.0 0.0 0.0
000020 00 00 00 00 00 00 00 00 00 00 00 00 00 00 00 00
       0.0 0.0 0.0 0.0
000030 00 00 00 00 00 00 00 00 00 00 00 00 00 00 00 00
       0.0 0.0 0.0 0.0
000040 00 00 00 00 00 00 00 00 00 00 00 00 00 00 00 00
       0.0 0.0 0.0 0.0
000050 00 00 00 00 00 00 00 00 00 00 00 00 00 00 00 00
       0.0 0.0 0.0 0.0
000060 00 00 00 00 00 00 00 00 00 00 00 00 00 00 00 00
       0.0 0.0 0.0 0.0
000070 00 00 00 00 00 00 00 00 00 00 00 00 00 00 00 00
       0.0 0.0 0.0 0.0
000080 00 00 00 00 00 00 00 00 00 00 00 00 00 00 00 00
       0.0 0.0 0.0 0.0
000090 00 00 00 00 00 00 00 00 00 00 00 00 00 00 00 00
       0.0 0.0 0.0 0.0
0000a0 00 00 00 00 00 00 00 00 00 00 00 00 00 00 00 00
       0.0 0.0 0.0 0.0
0000b0 00 00 00 00 00 00 00 00 00 00 00 00 00 00 00 00
       0.0 0.0 0.0 0.0
0000c0 00 00 00 00 00 00 00 00 00 00 00 00 00 00 00 00
       0.0 0.0 0.0 0.0
0000d0 00 00 00 00 00 00 00 00 00 00 00 00 00 00 00 00
       0.0 0.0 0.0 0.0
0000e0 00 00 00 00 00 00 00 00 00 00 00 00 00 00 00 00
       0.0 0.0 0.0 0.0
0000f0 00 00 00 00 00 00 00 00 00 00 00 00 00 00 00 00
       0.0 0.0 0.0 0.0
000100 00 00 00 00 00 00 00 00 00 00 00 00 00 00 00 00
       0.0 0.0 0.0 0.0
000110 00 00 00 00 00 00 00 00 00 00 00 00 00 00 00 00
       0.0 0.0 0.0 0.0
000120 00 00 00 00 00 00 00 00 00 00 00 00 00 00 00 00
       0.0 0.0 0.0 0.0
000130 00 00 00 00 00 00 00 00 00 00 00 00 00 00 00 00
       0.0 0.0 0.0 0.0
000140 00 00 00 00 00 00 00 00 00 00 00 00 00 00 00 00
       0.0 0.0 0.0 0.0
000150 00 00 00 00 00 00 00 00 00 00 00 00 00 00 00 00
       0.0 0.0 0.0 0.0
000160 00 00 00 00 00 00 00 00 00 00 00 00 00 00 00 00
       0.0 0.0 0.0 0.0
000170 00 00 00 00 00 00 00 00 00 00 00 00 00 00 00 00
       0.0 0.0 0.0 0.0
000180 00 00 00 00 00 00 00 00 00 00 00 00 00 00 00 00
       0.0 0.0 0.0 0.0
000190 00 00 00 00 00 00 00 00 00 00 00 00 00 00 00 00
       0.0 0.0 0.0 0.0
0001a0 00 00 00 00 00 00 00 00 00 00 00 00 00 00 00 00
       0.0 0.0 0.0 0.0
0001b0 00 00 00 00 00 00 00 00 00 00 00 00 00 00 00 00
       0.0 0.0 0.0 0.0
0001c0 00 00 00 00 00 00 00 00 00 00 00 00 00 00 00 00
       0.0 0.0 0.0 0.0
0001d0 00 00 00 00 00 00 00 00 00 00 00 00 00 00 00 00
       0.0 0.0 0.0 0.0
0001e0 00 00 00 00 00 00 00 00 00 00 00 00 00 00 00 00
       0.0 0.0 0.0 0.0
0001f0 00 00 00 00 00 00 00 00 00 00 00 00 00 00 00 00
       0.0 0.0 0.0 0.0

conv1.lin.weight f4 [128, 3]
000000 07 17 e5 bc 8a 50 33 3e 6b 7c 30 3e 19 c5 aa 3d
       -0.027965082 0.17511192 0.17234962 0.08338375
000010 a0 c7 4d be cc 64 15 3e 58 d4 d0 3d ce bd 6e bc
       -0.20095682 0.14589232 0.10196751 -0.01457162
000020 f3 59 a1 3d ac 47 1f 3e 36 92 99 3d 03 0e 23 bd
       0.078784846 0.15554684 0.07498591 -0.039808284
000030 5d 69 b3 bd 13 36 e2 3d 2e 64 bf 3d 2a 72 33 3e
       -0.08760331 0.1104547 0.0934528 0.17524019
000040 a7 2b 06 3d 6d 13 2e be 51 e6 d7 bd 7d cd 12 3e
       0.032756474 -0.16999598 -0.10541976 0.143362
000050 bf 64 b6 bc 40 0b 75 bd f8 bb 2e 3e 94 66 3d 3e
       -0.022264836 -0.059825182 0.17063892 0.18496162
000060 62 57 0d 3e 47 28 45 be 8a 8a 39 be c0 af a9 3c
       0.13802865 -0.19253646 -0.18119255 0.020713687
000070 64 bd 4c 3e ff 8f cc bc 2d 65 b8 3d 19 da 2a 3e
       0.19994122 -0.024971006 0.09003673 0.1668476
000080 0d 20 d2 3d 9d 14 f1 3c 3d d3 a6 bc ed d3 0d be
       0.102600195 0.029428774 -0.020364398 -0.13850375
000090 d9 01 41 3e cc 41 27 3e 4d 32 8b 3d 6c 24 26 3e
       0.18848361 0.16333693 0.067967035 0.16224831
0000a0 71 9b 96 bd 90 b5 36 3d 7d 9c e7 3c 9b b2 9f 3d
       -0.07353867 0.044606745 0.028272862 0.07797738
0000b0 e3 cf f8 3d 01 07 27 be c1 01 ce bc 7a 4d 5a be
       0.12149026 -0.16311266 -0.02514732 -0.21318617
0000c0 0c d0 bb bd 76 1a 41 3e df 74 45 3e 0c 07 7d 3d
       -0.09170541 0.1885775 0.19282864 0.0617743
0000d0 bb d4 b2 bd 50 23 1a be ae 99 4d 3e 1a ce 36 3e
       -0.08731981 -0.15052533 0.20078155 0.17852059
0000e0 5c 54 f7 3d 05 be b3 3d 83 82 ab bd e1 90 29 bc
       0.12076637 0.08776478 -0.083745025 -0.010349483
0000f0 25 d8 4a bd 4d 4a 12 3e 82 c0 ec bc 57 39 3c be
       -0.049522538 0.14286156 -0.028900389 -0.18381248
000100 5a 89 07 3e 25 d8 1c be 83 05 06 be fa 57 2b be
       0.13235989 -0.15316828 -0.1308804 -0.16732779
000110 d0 0a cb 3c 85 f1 4d be 61 f9 24 3e 84 5a f3 bc
       0.02478543 -0.20111664 0.16110756 -0.029706247
000120 fe 9c d6 3d 59 25 b4 bd 08 6b 5a 3e 67 1a 1f bc
       0.10479163 -0.08796186 0.21329892 -0.009710885
000130 fb d6 8b bd 97 ac 47 be 82 66 25 be cd e6 12 bd
       -0.06828114 -0.19499432 -0.16152385 -0.03586464
000140 5d d3 da bd dc 52 06 3e ab e6 90 3d 03 2e 9d bd
       -0.106848456 0.13117546 0.070752464 -0.07674792
000150 10 50 0a bd 76 63 fa bd 19 8c 55 bc 89 ba bc 3d
       -0.03376776 -0.12226002 -0.01303389 0.09215266
000160 b5 fa 41 3e ec 26 1d be 79 d8 78 3c 9b ff a4 bd
       0.18943293 -0.15346879 0.01518833 -0.080565654
000170 b4 bc 80 3c ff 8a 46 3d eb 90 6c 3d d1 0f 57 be
       0.01571498 0.0484724 0.057755392 -0.21002127
000180 f0 ba 00 be b9 af 0e bb d0 2d d4 3c e1 5d 43 be
       -0.12571311 -0.002177222 0.025900751 -0.1907878
000190 56 5b 3d 3e 5e da c7 bd 4c 26 b0 bd e7 bb 0b 3e
       0.18491873 -0.09758447 -0.086010545 0.13645898
0001a0 84 35 9e 38 b9 2f 00 bd 01 ea 50 be c0 59 82 3d
       7.543995e-05 -0.031295512 -0.20401765 0.06364775
0001b0 b1 21 01 be 27 82 8a bd 53 61 17 be 9c c5 7c bd
       -0.12610509 -0.06763106 -0.1478322 -0.061711892
0001c0 bd 42 a9 bd 79 a6 1d 3e b2 2d 23 be 52 29 d0 3d
       -0.082646824 0.15395536 -0.159354 0.10164131
0001d0 d6 45 9a 3d 95 73 12 3e 39 66 8b 3c 8f 93 83 3d
       0.075328514 0.14301904 0.017016517 0.06424629
0001e0 1b 43 38 be c7 2f 49 be 61 ef 00 3e be 9a 1c 3d
       -0.17994349 -0.19647132 0.12591316 0.03823351
0001f0 ae 06 4a be 84 b9 e5 bd 9f 2f ea 3d 53 4b 8c 3d
       -0.1972911 -0.11217025 0.11434864 0.068503045
000200 00 b6 c5 3c 32 78 f2 3c 54 dc f0 bc ca 1e f8 3d
       0.024134636 0.02959833 -0.029401936 0.121152475
000210 7f 92 af bd cd 2f fd 3d 38 56 4e 3e f5 9d 6d bc
       -0.08572864 0.12362633 0.20150077 -0.014502992
000220 4e d0 8f 3d 58 46 99 3d fa ef b1 bd 0c 5d 90 3d
       0.07022153 0.0748412 -0.0868835 0.07048997
000230 76 71 41 3e c7 ee 0f 3e 3c c2 50 bc 21 10 1b be
       0.18890938 0.1405593 -0.012741622 -0.15142871
000240 77 55 46 3d 6c 47 df ba 21 a9 c7 ba bf 98 e4 bd
       0.04842135 -0.0017034835 -0.00152329 -0.111619465
000250 75 c8 0b 3d 5c 57 07 3e f1 d3 f0 bd c4 08 1d 3e
       0.034126718 0.13216919 -0.117591746 0.15335375
000260 94 ea 44 3d 64 97 d3 3d 3c 53 dd bd 19 67 fa bd
       0.048075274 0.1033161 -0.10806891 -0.122266956
000270 2e b7 80 3d 8a 35 17 be c4 6f 12 3e c3 be e1 3c
       0.06284939 -0.14766517 0.14300448 0.027556783
000280 29 35 49 be 8d b0 1e be 9e 6f 25 be 72 f7 0e 3d
       -0.19649185 -0.15497036 -0.1615586 0.03490395
000290 aa 23 0c be 3e 91 19 3e aa eb ff bd 4b 8f 4d be
       -0.1368548 0.14996812 -0.12496121 -0.20074193
0002a0 a2 a3 26 3e fd 83 be bd 35 71 e3 3d 24 a4 ca bd
       0.16273358 -0.093025185 0.11105577 -0.098945886
0002b0 f8 da 0d bd b1 d9 59 3e f1 3f 91 3d ab 4f 36 bd
       -0.034632653 0.21274449 0.07092274 -0.04450957
0002c0 d0 8f 00 3e f7 9e 19 3e 09 b0 e0 3b 11 41 89 3d
       0.1255486 0.15002047 0.0068569225 0.067018636
0002d0 86 66 02 3e 5b 98 0b be e7 95 47 be ca bd 28 be
       0.12734422 -0.13632338 -0.19490777 -0.16478649
0002e0 c0 88 9f bd 77 ab 35 3e 56 71 b1 bd 00 26 0c be
       -0.07789755 0.1774119 -0.08664195 -0.13686371
0002f0 7b 2c 8e bc 93 28 48 3d 69 45 12 ba bd db d9 bd
       -0.017355194 0.04886682 -0.0005579801 -0.10637615
000300 b0 c2 6b 3d 98 17 f6 bd 7c ea ea 3d f7 89 45 3d
       0.057558715 -0.12016219 0.114705056 0.048227277
000310 51 ec 57 be 88 d1 0b 3e 9f 20 f8 3d 1e ec c8 bd
       -0.21086241 0.13654149 0.12115597 -0.09810661
000320 c2 12 20 be 89 b6 03 3d b9 92 3c be 82 05 9d bc
       -0.15632156 0.0321565 -0.18415345 -0.019167665
000330 ba 55 47 be 60 5a 57 3e 9b fe bf 3d 87 15 00 3e
       -0.19466296 0.21030569 0.09374734 0.12508212
000340 9a fd 1f 3e 33 ff 32 be dc c6 b7 bd ad 4e d5 ba
       0.15624085 -0.17480163 -0.08973476 -0.0016274058
000350 f1 14 8a 3b 59 92 cc bc 7c f6 46 be 63 5e 86 bd
       0.004213922 -0.024972128 -0.19429964 -0.065609716
000360 ea 3d d8 3c 53 45 4f be f3 01 82 3d 51 44 55 be
       0.02639671 -0.20241289 0.06348028 -0.20826842
000370 81 a7 4b 3e e4 6e ce 3d a8 28 23 3e 0b 6b 15 3e
       0.19888116 0.100797445 0.15933478 0.14591615
000380 5f 6e 2b 3d 91 39 42 bd 0a dc 15 be 31 75 1d 3e
       0.041853305 -0.04741818 -0.1463472 0.15376736
000390 dd 5a 50 3d 60 db 3a 3e 66 80 cb bd d2 5c 08 3e
       0.050867904 0.18247747 -0.099365994 0.13316658
0003a0 a5 3b b2 bd 6e bc 0c 3e dc 28 87 3d b2 ec 2c be
       -0.087027825 0.13743755 0.0659959 -0.16887167
0003b0 a0 7f 65 bd 09 91 56 3d 3d 14 f1 bd f0 1f 12 3e
       -0.056029916 0.05238441 -0.11771438 0.14269996
0003c0 ad 06 d6 bc 83 1d ee 3b 65 4f 3e 3e 5e af 5e 3c
       -0.02612623 0.0072667017 0.18584974 0.0135916155
0003d0 f3 dd 29 3e 63 1f e7 bd f5 08 c2 3d 4e 76 32 3e
       0.16588573 -0.112852834 0.09474365 0.17427942
0003e0 8e 9e 5f bd a3 25 41 be be e1 3d 3e 04 6a 80 bd
       -0.05459457 -0.18862014 0.18543145 -0.06270221
0003f0 b4 3d 48 be 64 9b 2d bd 29 72 7b bd f4 ab e5 bd
       -0.19554788 -0.04238452 -0.06138817 -0.11214438

batch_norm1.weight f4 [128]
000000 00 00 80 3f 00 00 80 3f 00 00 80 3f 00 00 80 3f
       1.0 1.0 1.0 1.0
000010 00 00 80 3f 00 00 80 3f 00 00 80 3f 00 00 80 3f
       1.0 1.0 1.0 1.0
000020 00 00 80 3f 00 00 80 3f 00 00 80 3f 00 00 80 3f
       1.0 1.0 1.0 1.0
000030 00 00 80 3f 00 00 80 3f 00 00 80 3f 00 00 80 3f
       1.0 1.0 1.0 1.0
000040 00 00 80 3f 00 00 80 3f 00 00 80 3f 00 00 80 3f
       1.0 1.0 1.0 1.0
000050 00 00 80 3f 00 00 80 3f 00 00 80 3f 00 00 80 3f
       1.0 1.0 1.0 1.0
000060 00 00 80 3f 00 00 80 3f 00 00 80 3f 00 00 80 3f
       1.0 1.0 1.0 1.0
000070 00 00 80 3f 00 00 80 3f 00 00 80 3f 00 00 80 3f
       1.0 1.0 1.0 1.0
000080 00 00 80 3f 00 00 80 3f 00 00 80 3f 00 00 80 3f
       1.0 1.0 1.0 1.0
000090 00 00 80 3f 00 00 80 3f 00 00 80 3f 00 00 80 3f
       1.0 1.0 1.0 1.0
0000a0 00 00 80 3f 00 00 80 3f 00 00 80 3f 00 00 80 3f
       1.0 1.0 1.0 1.0
0000b0 00 00 80 3f 00 00 80 3f 00 00 80 3f 00 00 80 3f
       1.0 1.0 1.0 1.0
0000c0 00 00 80 3f 00 00 80 3f 00 00 80 3f 00 00 80 3f
       1.0 1.0 1.0 1.0
0000d0 00 00 80 3f 00 00 80 3f 00 00 80 3f 00 00 80 3f
       1.0 1.0 1.0 1.0
0000e0 00 00 80 3f 00 00 80 3f 00 00 80 3f 00 00 80 3f
       1.0 1.0 1.0 1.0
0000f0 00 00 80 3f 00 00 80 3f 00 00 80 3f 00 00 80 3f
       1.0 1.0 1.0 1.0
000100 00 00 80 3f 00 00 80 3f 00 00 80 3f 00 00 80 3f
       1.0 1.0 1.0 1.0
000110 00 00 80 3f 00 00 80 3f 00 00 80 3f 00 00 80 3f
       1.0 1.0 1.0 1.0
000120 00 00 80 3f 00 00 80 3f 00 00 80 3f 00 00 80 3f
       1.0 1.0 1.0 1.0
000130 00 00 80 3f 00 00 80 3f 00 00 80 3f 00 00 80 3f
       1.0 1.0 1.0 1.0
000140 00 00 80 3f 00 00 80 3f 00 00 80 3f 00 00 80 3f
       1.0 1.0 1.0 1.0
000150 00 00 80 3f 00 00 80 3f 00 00 80 3f 00 00 80 3f
       1.0 1.0 1.0 1.0
000160 00 00 80 3f 00 00 80 3f 00 00 80 3f 00 00 80 3f
       1.0 1.0 1.0 1.0
000170 00 00 80 3f 00 00 80 3f 00 00 80 3f 00 00 80 3f
       1.0 1.0 1.0 1.0
000180 00 00 80 3f 00 00 80 3f 00 00 80 3f 00 00 80 3f
       1.0 1.0 1.0 1.0
000190 00 00 80 3f 00 00 80 3f 00 00 80 3f 00 00 80 3f
       1.0 1.0 1.0 1.0
0001a0 00 00 80 3f 00 00 80 3f 00 00 80 3f 00 00 80 3f
       1.0 1.0 1.0 1.0
0001b0 00 00 80 3f 00 00 80 3f 00 00 80 3f 00 00 80 3f
       1.0 1.0 1.0 1.0
0001c0 00 00 80 3f 00 00 80 3f 00 00 80 3f 00 00 80 3f
       1.0 1.0 1.0 1.0
0001d0 00 00 80 3f 00 00 80 3f 00 00 80 3f 00 00 80 3f
       1.0 1.0 1.0 1.0
0001e0 00 00 80 3f 00 00 80 3f 00 00 80 3f 00 00 80 3f
       1.0 1.0 1.0 1.0
0001f0 00 00 80 3f 00 00 80 3f 00 00 80 3f 00 00 80 3f
       1.0 1.0 1.0 1.0

batch_norm1.bias f4 [128]
000000 00 00 00 00 00 00 00 00 00 00 00 00 00 00 00 00
       0.0 0.0 0.0 0.0
000010 00 00 00 00 00 00 00 00 00 00 00 00 00 00 00 00
       0.0 0.0 0.0 0.0
000020 00 00 00 00 00 00 00 00 00 00 00 00 00 00 00 00
       0.0 0.0 0.0 0.0
000030 00 00 00 00 00 00 00 00 00 00 00 00 00 00 00 00
       0.0 0.0 0.0 0.0
000040 00 00 00 00 00 00 00 00 00 00 00 00 00 00 00 00
       0.0 0.0 0.0 0.0
000050 00 00 00 00 00 00 00 00 00 00 00 00 00 00 00 00
       0.0 0.0 0.0 0.0
000060 00 00 00 00 00 00 00 00 00 00 00 00 00 00 00 00
       0.0 0.0 0.0 0.0
000070 00 00 00 00 00 00 00 00 00 00 00 00 00 00 00 00
       0.0 0.0 0.0 0.0
000080 00 00 00 00 00 00 00 00 00 00 00 00 00 00 00 00
       0.0 0.0 0.0 0.0
000090 00 00 00 00 00 00 00 00 00 00 00 00 00 00 00 00
       0.0 0.0 0.0 0.0
0000a0 00 00 00 00 00 00 00 00 00 00 00 00 00 00 00 00
       0.0 0.0 0.0 0.0
0000b0 00 00 00 00 00 00 00 00 00 00 00 00 00 00 00 00
       0.0 0.0 0.0 0.0
0000c0 00 00 00 00 00 00 00 00 00 00 00 00 00 00 00 00
       0.0 0.0 0.0 0.0
0000d0 00 00 00 00 00 00 00 00 00 00 00 00 00 00 00 00
       0.0 0.0 0.0 0.0
0000e0 00 00 00 00 00 00 00 00 00 00 00 00 00 00 00 00
       0.0 0.0 0.0 0.0
0000f0 00 00 00 00 00 00 00 00 00 00 00 00 00 00 00 00
       0.0 0.0 0.0 0.0
000100 00 00 00 00 00 00 00 00 00 00 00 00 00 00 00 00
       0.0 0.0 0.0 0.0
000110 00 00 00 00 00 00 00 00 00 00 00 00 00 00 00 00
       0.0 0.0 0.0 0.0
000120 00 00 00 00 00 00 00 00 00 00 00 00 00 00 00 00
       0.0 0.0 0.0 0.0
000130 00 00 00 00 00 00 00 00 00 00 00 00 00 00 00 00
       0.0 0.0 0.0 0.0
000140 00 00 00 00 00 00 00 00 00 00 00 00 00 00 00 00
       0.0 0.0 0.0 0.0
000150 00 00 00 00 00 00 00 00 00 00 00 00 00 00 00 00
       0.0 0.0 0.0 0.0
000160 00 00 00 00 00 00 00 00 00 00 00 00 00 00 00 00
       0.0 0.0 0.0 0.0
000170 00 00 00 00 00 00 00 00 00 00 00 00 00 00 00 00
       0.0 0.0 0.0 0.0
000180 00 00 00 00 00 00 00 00 00 00 00 00 00 00 00 00
       0.0 0.0 0.0 0.0
000190 00 00 00 00 00 00 00 00 00 00 00 00 00 00 00 00
       0.0 0.0 0.0 0.0
0001a0 00 00 00 00 00 00 00 00 00 00 00 00 00 00 00 00
       0.0 0.0 0.0 0.0
0001b0 00 00 00 00 00 00 00 00 00 00 00 00 00 00 00 00
       0.0 0.0 0.0 0.0
0001c0 00 00 00 00 00 00 00 00 00 00 00 00 00 00 00 00
       0.0 0.0 0.0 0.0
0001d0 00 00 00 00 00 00 00 00 00 00 00 00 00 00 00 00
       0.0 0.0 0.0 0.0
0001e0 00 00 00 00 00 00 00 00 00 00 00 00 00 00 00 00
       0.0 0.0 0.0 0.0
0001f0 00 00 00 00 00 00 00 00 00 00 00 00 00 00 00 00
       0.0 0.0 0.0 0.0

batch_norm1.running_mean f4 [128]
000000 7a d2 85 3d 57 b0 cf 3d 16 cb e3 3d 8f 54 f1 3d
       0.06534286 0.10141056 0.1112272 0.117837064
000010 40 df ab bc e8 f4 9e 3d 7c ce 9d bd 48 0f 35 3d
       -0.020980477 0.07761556 -0.077053994 0.044204026
000020 6a 16 90 3c de e8 f2 3c ea e5 06 3e b1 e3 07 bd
       0.017588813 0.029652055 0.13173643 -0.033176128
000030 13 81 49 3e 3b cf 0e 3e 1b a1 a2 3d 2c f9 5e be
       0.19678144 0.1394624 0.07940885 -0.21774739
000040 70 7f c2 3c 1c 5a a0 bc 06 aa 6a 3e 2f df 68 3d
       0.023742408 -0.019574217 0.22916421 0.05685347
000050 c4 a5 0e bd b5 65 45 be 40 76 ea bd 1f 88 1e be
       -0.034826055 -0.1927708 -0.11448336 -0.15481614
000060 71 d2 21 3e 5e 0c bd bd 68 15 34 be 72 7d aa 3d
       0.15802933 -0.092308745 -0.17586291 0.08324708
000070 55 4b 3d bd 87 81 10 3d cd 60 16 3c a2 ed 17 bd
       -0.04621442 0.035279777 0.009178353 -0.03709186
000080 c2 6d ba bd 64 98 2e be 04 fe 5a bd b6 b4 bf bc
       -0.09102966 -0.1705032 -0.053464904 -0.0234016
000090 b8 2d 2b be ac 53 cc 3a cf a7 b1 bd 75 7f 11 3e
       -0.16716659 0.0015588901 -0.08674585 0.14208777
0000a0 25 82 f0 bd 42 45 13 bd 37 90 df 3d df 6a 8b 3d
       -0.11743573 -0.03595472 0.10916179 0.068074934
0000b0 11 fe c8 3c 84 79 d3 3c df 2f 4e 3c 42 73 54 3d
       0.02453521 0.02581478 0.012584656 0.05186773
0000c0 cd 0b 1c 3d 7f 45 0a bd d7 a3 6d bd 54 a1 b8 3c
       0.03809719 -0.033757683 -0.058017578 0.022537865
0000d0 47 0d b8 3d 99 fc 7a bd 0e ec 37 be 7e e0 de 3c
       0.089869075 -0.061276052 -0.17961141 0.027206656
0000e0 83 b2 27 3e 62 01 8b 39 66 66 cf 3d 4a 2f 17 3e
       0.1637669 0.00026513176 0.10126953 0.14764133
0000f0 f0 60 24 3c be 58 92 bd b5 84 bc bd 04 80 2e bb
       0.010032877 -0.071458325 -0.09204999 -0.0026626596
000100 af fb 9e 3d 30 02 8c 3d cf 95 c9 3c 20 1d 34 bb
       0.077628486 0.06836355 0.024607567 -0.002748318
000110 b8 79 c3 bd 0c ef 4a 3d 64 97 90 bd 01 64 8b bd
       -0.095447004 0.04954438 -0.070601255 -0.068061836
000120 b0 d9 bc 3c 0a d9 d6 bd 30 f9 24 3e 2a 6b ba 3b
       0.02305302 -0.10490616 0.16110682 0.0056890445
000130 71 38 b9 3c 73 b5 1a 3e 78 48 3f 3c 64 99 ad 3d
       0.022609921 0.1510828 0.011674993 0.084765226
000140 ae ea 58 3d 4b 11 6e bc 4a a1 98 3d 62 b3 1e be
       0.052958183 -0.01453049 0.074526384 -0.15498117
000150 34 84 3e be 87 7e ea bd 5c 42 d9 3d 8b 36 50 bd
       -0.18605119 -0.114499144 0.1060836 -0.050833266
000160 ed 28 e4 3d 5c f0 b9 bd b4 2c 25 bd 5d e7 55 be
       0.111406185 -0.09079048 -0.040325835 -0.2088904
000170 df ce 01 3c b0 81 6c bd f4 62 df 3c 1d 51 95 bd
       0.007922857 -0.057740867 0.027268864 -0.07290862
000180 62 cd 71 3e df 34 2f 3d 19 ff 32 be ae a8 24 be
       0.23613504 0.04277503 -0.17480125 -0.16079971
000190 09 21 f3 bd d5 36 03 3d 52 1c 45 bc 38 bf b9 bd
       -0.11871535 0.032034714 -0.012030678 -0.09069675
0001a0 58 3a 2b bc 79 36 c7 bd 4f f0 8b bd 72 a5 12 3e
       -0.010450922 -0.09727187 -0.068329446 0.14320925
0001b0 ea 9c 13 be f1 a4 65 3c d2 fa 1e 3e 0a f7 c7 3d
       -0.14415327 0.014016376 0.15525368 0.09763916
0001c0 e0 4c fc bc 52 49 06 3e eb 4d 63 3d 6d df a5 bd
       -0.030798376 0.13113907 0.05549423 -0.08099256
0001d0 b9 1e 35 3e f0 91 84 bc 30 74 5c bd 0b 5a b8 3d
       0.17687501 -0.01618287 -0.053821743 0.09001549
0001e0 d0 24 36 3e 1f 21 af bd 7f 64 10 3e 40 8c b0 3d
       0.1778748 -0.08551239 0.14100836 0.086205006
0001f0 a2 65 4b 3d 09 bc 0b be d4 a0 ca bc 83 84 94 bd
       0.04965747 -0.13645948 -0.024734892 -0.07251837

batch_norm1.running_var f4 [128]
000000 4c 9d 89 3a d2 28 e6 3a 53 7b 67 3a c7 24 57 3b
       0.0010499149 0.0017559773 0.00088303274 0.0032828317
000010 fc 30 7c 3a 62 a4 c4 3b 01 84 32 3a a5 2c c7 3a
       0.00096203364 0.0060010413 0.0006809831 0.00151958
000020 64 a1 3a 3b 23 aa 76 3a 04 e7 b4 3a fa 79 8c 3a
       0.0028477544 0.00094095076 0.0013801758 0.0010717504
000030 7d 5c 8e 3b d7 02 f9 3a 5b db 0a 3a 24 fb 4c 3b
       0.0043445216 0.0018998039 0.0005296969 0.0031277621
000040 b5 fd 06 3b f5 fa b0 3a 18 8c 9b 3b 59 be 09 3a
       0.0020597999 0.0013502525 0.004746925 0.0005254499
000050 42 86 98 39 d9 a1 36 3b 62 38 52 3b ec 3b 2f 3b
       0.0002909173 0.0027867465 0.0032077064 0.0026738597
000060 16 57 1e 3b 3d c0 bc 3a 84 d7 1b 3b dc 0d 42 3b
       0.0024160794 0.0014400553 0.002377958 0.0029610312
000070 fe 6b df 39 de 05 96 3b cf 48 c1 38 42 e3 55 3b
       0.00042614335 0.004578336 9.216519e-05 0.0032636677
000080 66 c5 db 3a 26 5d 23 3b 94 00 e8 39 9b a7 cc 3a
       0.0016767203 0.0024927347 0.0004425092 0.0015613915
000090 0c 28 f1 3a d0 3d 28 3b 39 f7 1e 3b 61 e4 e9 3a
       0.0018398776 0.0025671609 0.0024256243 0.0017844551
0000a0 5e 6e f6 3b 34 b5 03 3a 17 86 c2 3a 85 bd 34 3a
       0.007520481 0.0005024255 0.0014840987 0.00068946957
0000b0 ae d6 1f 3b 44 b2 5a 39 fe 09 28 3b be cb 76 3b
       0.0024389434 0.00020856509 0.0025640721 0.003765806
0000c0 13 05 67 39 46 42 1c 3b 9c 12 83 3a 52 d5 cf 3a
       0.00022031767 0.0023843213 0.0010000053 0.0015856421
0000d0 c0 07 ba 3a 5a b0 59 3a 1d 0d 14 3b 98 82 85 3b
       0.0014192984 0.00083041715 0.0022590824 0.004074406
0000e0 c9 80 04 3b 4e 2e 8f 3b 98 53 63 3a 4b 64 fa 3a
       0.0020218363 0.0043695336 0.0008671819 0.0019103376
0000f0 bd 71 51 3b 7e 83 d0 3b fb de af 3a 04 a7 81 3a
       0.0031958662 0.0063633313 0.0013417894 0.0009891693
000100 9e 13 71 3a f6 87 e7 3a 3f c9 28 3b 38 f2 7d 39
       0.00091963436 0.0017664421 0.0025754718 0.00024218194
000110 97 42 4a 3b 35 89 be 3b 7b d4 4c 3a 9a 2e 0e 3a
       0.0030862445 0.005814696 0.00078136445 0.00054238143
000120 db 97 60 3a 74 4e 72 3b a8 bb 56 3b bc b8 3b 3b
       0.000856755 0.0036973031 0.003276566 0.0028644046
000130 e9 82 15 3b 05 61 dc 3a 3f 65 be 39 f2 41 a7 3a
       0.0022813624 0.0016813582 0.00036315058 0.0012760742
000140 7d f6 f4 3a 0f 42 db 3a 26 c8 29 3b d4 2a 16 3b
       0.0018689182 0.0016728061 0.0025906651 0.002291371
000150 d2 18 68 3b ae 75 82 3a 11 6d ad 3a 0b 37 bb 39
       0.0035415185 0.0009953284 0.0013231357 0.0003570843
000160 bd bd e1 3a e0 6f e9 3a ed e6 7d 3a c6 37 43 3b
       0.0017222684 0.0017809831 0.00096855947 0.0029787882
000170 ce 96 61 3a fb fd 1a 3a f9 54 83 3a 0c 6d 8a 3b
       0.00086055405 0.000591248 0.0010019831 0.004224425
000180 4f 0c 80 3b 6a ce 16 3b 4a 00 35 3b 16 e7 ed 3a
       0.0039077173 0.0023011216 0.002761858 0.0018150534
000190 53 59 73 3b c7 69 8c 39 8b 95 71 3b 7f 91 55 3b
       0.0037132099 0.0002678169 0.0036862816 0.0032587943
0001a0 c5 01 3d 38 83 40 92 3a 64 cb 95 3b dc 4b 0c 3b
       4.506276e-05 0.0011158142 0.004571365 0.002140752
0001b0 02 31 01 3b 22 f8 a8 3a 52 63 73 3b de af a7 3a
       0.0019713049 0.0012891332 0.0037138057 0.0012793501
0001c0 e6 5a 36 3a 17 ce 66 3b b0 04 fe 39 04 7b 93 3b
       0.0006956294 0.0035218054 0.00048450148 0.0045007486
0001d0 6a b0 0b 3b 19 2f 4d 39 67 cd 66 39 50 55 34 3b
       0.0021314868 0.00019567869 0.00022011028 0.002751667
0001e0 1a e9 80 3b f7 66 c4 3a a4 3d f6 3a 81 ae 58 3a
       0.003934038 0.0014984299 0.0018786681 0.0008265749
0001f0 d8 b6 ab 3a ca 0c db 3b 3f 67 3e 3a d5 2e 01 3a
       0.0013100756 0.006684874 0.00072633097 0.0004927938

conv2.bias f4 [128]
000000 00 00 00 00 00 00 00 00 00 00 00 00 00 00 00 00
       0.0 0.0 0.0 0.0
000010 00 00 00 00 00 00 00 00 00 00 00 00 00 00 00 00
       0.0 0.0 0.0 0.0
000020 00 00 00 00 00 00 00 00 00 00 00 00 00 00 00 00
       0.0 0.0 0.0 0.0
000030 00 00 00 00 00 00 00 00 00 00 00 00 00 00 00 00
       0.0 0.0 0.0 0.0
000040 00 00 00 00 00 00 00 00 00 00 00 00 00 00 00 00
       0.0 0.0 0.0 0.0
000050 00 00 00 00 00 00 00 00 00 00 00 00 00 00 00 00
       0.0 0.0 0.0 0.0
000060 00 00 00 00 00 00 00 00 00 00 00 00 00 00 00 00
       0.0 0.0 0.0 0.0
000070 00 00 00 00 00 00 00 00 00 00 00 00 00 00 00 00
       0.0 0.0 0.0 0.0
000080 00 00 00 00 00 00 00 00 00 00 00 00 00 00 00 00
       0.0 0.0 0.0 0.0
000090 00 00 00 00 00 00 00 00 00 00 00 00 00 00 00 00
       0.0 0.0 0.0 0.0
0000a0 00 00 00 00 00 00 00 00 00 00 00 00 00 00 00 00
       0.0 0.0 0.0 0.0
0000b0 00 00 00 00 00 00 00 00 00 00 00 00 00 00 00 00
       0.0 0.0 0.0 0.0
0000c0 00 00 00 00 00 00 00 00 00 00 00 00 00 00 00 00
       0.0 0.0 0.0 0.0
0000d0 00 00 00 00 00 00 00 00 00 00 00 00 00 00 00 00
       0.0 0.0 0.0 0.0
0000e0 00 00 00 00 00 00 00 00 00 00 00 00 00 00 00 00
       0.0 0.0 0.0 0.0
0000f0 00 00 00 00 00 00 00 00 00 00 00 00 00 00 00 00
       0.0 0.0 0.0 0.0
000100 00 00 00 00 00 00 00 00 00 00 00 00 00 00 00 00
       0.0 0.0 0.0 0.0
000110 00 00 00 00 00 00 00 00 00 00 00 00 00 00 00 00
       0.0 0.0 0.0 0.0
000120 00 00 00 00 00 00 00 00 00 00 00 00 00 00 00 00
       0.0 0.0 0.0 0.0
000130 00 00 00 00 00 00 00 00 00 00 00 00 00 00 00 00
       0.0 0.0 0.0 0.0
000140 00 00 00 00 00 00 00 00 00 00 00 00 00 00 00 00
       0.0 0.0 0.0 0.0
000150 00 00 00 00 00 00 00 00 00 00 00 00 00 00 00 00
       0.0 0.0 0.0 0.0
000160 00 00 00 00 00 00 00 00 00 00 00 00 00 00 00 00
       0.0 0.0 0.0 0.0
000170 00 00 00 00 00 00 00 00 00 00 00 00 00 00 00 00
       0.0 0.0 0.0 0.0
000180 00 00 00 00 00 00 00 00 00 00 00 00 00 00 00 00
       0.0 0.0 0.0 0.0
000190 00 00 00 00 00 00 00 00 00 00 00 00 00 00 00 00
       0.0 0.0 0.0 0.0
0001a0 00 00 00 00 00 00 00 00 00 00 00 00 00 00 00 00
       0.0 0.0 0.0 0.0
0001b0 00 00 00 00 00 00 00 00 00 00 00 00 00 00 00 00
       0.0 0.0 0.0 0.0
0001c0 00 00 00 00 00 00 00 00 00 00 00 00 00 00 00 00
       0.0 0.0 0.0 0.0
0001d0 00 00 00 00 00 00 00 00 00 00 00 00 00 00 00 00
       0.0 0.0 0.0 0.0
0001e0 00 00 00 00 00 00 00 00 00 00 00 00 00 00 00 00
       0.0 0.0 0.0 0.0
0001f0 00 00 00 00 00 00 00 00 00 00 00 00 00 00 00 00
       0.0 0.0 0.0 0.0

conv2.lin.weight f4 [128, 128]
000000 03 bb 17 be 45 8e db 3d 8b e8 51 3d 0a 46 c5 3d
       -0.14817433 0.10720495 0.05124716 0.096324995
000010 25 11 8a bc 3f 13 b2 bd ed 56 8f bc b8 e1 e1 bc
       -0.016853878 -0.08695077 -0.017497504 -0.027573451
000020 73 40 d3 bb b2 19 38 3d 1c 23 9f 3c 2e 6e 97 3d
       -0.006446892 0.04494638 0.019425921 0.07394062
000030 5e a2 ae 3c 87 06 ae 3d 8d 0f 01 3e af 62 ec bd
       0.021317657 0.08497339 0.12603588 -0.1154226
000040 72 00 16 be d8 c6 e2 3d 2c 5a 5f 3d 4d 47 00 3e
       -0.14648607 0.11073083 0.054529354 0.12527199
000050 a3 d7 b7 3d 90 3f 91 bd 92 10 f2 3d 3a 54 15 be
       0.08976676 -0.07092202 0.11819567 -0.14582911
000060 3f 75 1d bd 8a a7 6c 3b b7 e7 ac bd da 85 12 3e
       -0.038441893 0.0036110603 -0.084426336 0.14308873
000070 0c ff b6 bd 7f ba c1 3d 0d 66 9b bd f9 d2 96 3d
       -0.08935365 0.094593994 -0.07587824 0.073644586
000080 0b 9d c2 3d 3d 2d ee bc be ac 08 3c 8c a1 3c bb
       0.0950261 -0.029074306 0.008341966 -0.0028782813
000090 b7 d7 06 3e a0 53 a1 bd 37 c8 8f bd 6a 71 07 be
       0.13168226 -0.07877278 -0.0702061 -0.13226858
0000a0 7d 22 e2 3d f8 8e c0 bd 09 7f 12 be 22 83 19 be
       0.11041734 -0.09402269 -0.14306273 -0.1499143
0000b0 41 a7 2d 3d 7e 1c 08 3e 1b 96 8e bd 59 62 cc 3d
       0.042395834 0.13292119 -0.06962224 0.09979696
0000c0 66 66 16 be bf 0d 18 3e d9 88 74 3c 25 e9 af 3c
       -0.146875 0.14848994 0.014925205 0.021473477
0000d0 19 1c 07 be 26 ac 04 bd 0e 56 8c bc a0 a6 e5 3d
       -0.13194312 -0.032390736 -0.017130878 0.11213422
0000e0 a1 93 28 bd 34 d3 c6 bd 9e 72 1a be d1 ed 22 bd
       -0.041156415 -0.097082525 -0.15082785 -0.03977758
0000f0 21 88 13 bd 96 4c 96 bb 75 69 0d be 29 eb 8f bd
       -0.036018495 -0.0045867665 -0.1380976 -0.07027275
000100 9d 77 13 3c b7 5e 89 bb 4e 29 a2 bc 51 e7 af 3d
       0.009000686 -0.004192199 -0.019795086 0.08589042
000110 09 b2 bb bc 41 fd ac 3d a0 19 b1 3d 89 12 82 bd
       -0.022912042 0.08446742 0.08647466 -0.063511916
000120 e9 99 06 be 2c 51 cb 3d 2b b3 60 bd e8 ab 1a 3d
       -0.1314465 0.09927592 -0.054858368 0.0377616
000130 37 52 b7 3d f6 c4 f1 3d 75 0d 85 bc 27 b9 20 3c
       0.08951228 0.118051454 -0.016241768 0.009809769
000140 2f 9e f6 bd 0f c7 c3 bd 2f c8 7d 3d d6 6b 42 3d
       -0.1204189 -0.09559452 0.061958488 0.04746612
000150 10 9f 3c bd 1d 78 b2 3c 00 27 ad bd f5 f3 12 3e
       -0.04605013 0.02178579 -0.08454704 0.14350875
000160 8f b2 04 bd 1b 31 18 3d f6 6d 95 bd 87 32 6b bc
       -0.03239685 0.037156206 -0.07296364 -0.014355308
000170 40 4e 03 3e d6 36 04 3e 8e 30 9b bd f5 4e 42 3d
       0.12822819 0.12911543 -0.075776204 0.04743858
000180 82 c1 da bd 72 b9 fd bd 19 c0 0c be fb 9f f4 bd
       -0.1068144 -0.123888865 -0.13745154 -0.11944576
000190 c3 c7 13 be b0 a8 ea bd 9f f5 dd 3d 86 e5 23 bd
       -0.14431672 -0.11457956 0.10837864 -0.040013812
0001a0 2c ec 0f 3d 55 a7 4a 3d 2c a3 80 3d 6a 7a 68 3d
       0.03513734 0.049475987 0.062811226 0.05675737
0001b0 9e cb 03 3e 1e 3d 36 3d f3 ee d8 3d c2 a5 84 3d
       0.12870643 0.04449188 0.10592451 0.06476928
0001c0 5c 8e e5 bc fc ef 11 be b0 00 3c bd 3c a7 f1 bd
       -0.028021984 -0.14251703 -0.045899093 -0.117994756
0001d0 22 0a bf 3d f7 9b da bd ee 09 0c 3e 80 95 1c 3d
       0.093281046 -0.10674279 0.13675663 0.03822851
0001e0 8f 1d ad 3d f0 d6 83 bd c1 87 ed 3d d7 d8 0f 3e
       0.084529035 -0.064374804 0.11598159 0.14047562
0001f0 de ca db 3d 04 a8 b8 3c d1 51 bb 3b 4e 40 ee bd
       0.10732053 0.022541054 0.0057165404 -0.11633359
000200 ec ab bf 3d d1 5c 0f 3e 61 0c 1b 3e 41 fb 2e bd
       0.09358963 0.1400025 0.15141441 -0.042720083
000210 5b 4a 95 bc 79 bd 06 be f7 bf 85 bd c9 d2 04 3d
       -0.018223932 -0.13158216 -0.06530755 0.032427583
000220 de 9f 57 3d 40 e2 90 bd 9f 6f 27 3d 89 db 10 3e
       0.052642696 -0.07074404 0.040877935 0.14146246
000230 f2 a3 01 be cd 64 d6 3c 90 f6 6b 3d f5 11 c0 3d
       -0.12660196 0.026171112 0.057608187 0.09378425
000240 86 72 f1 3d 93 b0 10 3e 4d 2d 12 be 6a 43 ff 3d
       0.11789422 0.14129858 -0.14275093 0.1246403
000250 58 29 dc bc 24 0e 02 be 0f 74 ca bd d6 de f1 3d
       -0.026875183 -0.12700707 -0.09885418 0.11810081
000260 31 dd f2 bd 66 b2 3f 3d eb 61 84 3a f4 79 a3 bd
       -0.11858595 0.046800993 0.0010099983 -0.07982245
000270 d8 90 3c 3d fd 72 12 be a7 cf af bd dc c6 b2 3d
       0.04603657 -0.14301677 -0.085845284 0.08729336
000280 78 5b 86 3d a5 f8 10 3e a6 e2 e8 3d ff e1 b4 3d
       0.06560415 0.1415735 0.11371355 0.08832168
000290 40 e2 d9 3b de ad 19 bc 17 85 9b bb 85 8f a0 bd
       0.0066492856 -0.009379832 -0.00474609 -0.07839874
0002a0 e7 6d 11 be b9 1e bf 3d d9 a3 f6 bd 69 75 54 bd
       -0.1420208 0.09332032 -0.1204297 -0.051869784
0002b0 64 cd 40 3d c8 98 30 3d 61 81 86 bd 4d fd 02 be
       0.047070876 0.043114454 -0.06567646 -0.12791939
0002c0 da e2 ea bd a8 17 06 be 3b 63 88 bd fc 0f 4e bc
       -0.1146905 -0.13094962 -0.06659552 -0.012577053
0002d0 25 6a 49 bd 1e 0c 7e bd 4f 5e 9e bd 07 9e 55 bd
       -0.049173493 -0.062023275 -0.07732832 -0.05215266
0002e0 ed 07 1a be 65 67 94 bd bd 80 b6 bd 97 ee e8 bd
       -0.15042086 -0.072462834 -0.08911274 -0.113736324
0002f0 2b e8 fa 3d 7b 37 18 be e5 8e 0c be 6f 68 87 bd
       0.12251314 -0.14864914 -0.13726385 -0.06611716
000300 39 87 97 3d 07 b3 c9 3d f6 9a f4 bd 09 fd ad bd
       0.073988385 0.098486 -0.11943619 -0.08495528
000310 3f 16 f7 bc 31 d8 bb bc 4c 3c 88 bb db 4e af 3d
       -0.030161975 -0.022930237 -0.0041575786 0.08559962
000320 2a 85 f4 3d 9b 8a 00 3e 20 20 a1 bd bf fe 19 be
       0.119394615 0.12552874 -0.078674555 -0.15038584
000330 b6 8f 12 be d3 61 6a bd 3a 7b 89 bd 5c bc ea bd
       -0.14312634 -0.0572222 -0.06712957 -0.11461708
000340 53 28 12 3e e7 28 0d 3e 83 73 1a 3d 3d a6 29 3d
       0.14273195 0.13785134 0.037707817 0.041418303
000350 8a 9f f0 3d e2 64 ca bd c0 13 ad 3d 1d 33 d6 bd
       0.1174918 -0.09882523 0.08451033 -0.10458968
000360 09 77 0f be 36 6b 8b bb 74 e7 b9 3d a2 dd 75 3d
       -0.14010252 -0.004254724 0.09077349 0.06002582
000370 b9 8a b1 bd 05 f5 34 bd ff ee 3c bd a3 41 1c be
       -0.08669037 -0.04417898 -0.046126362 -0.15259413
000380 cb 49 78 bd b2 d7 d7 3d ea fe 89 bd 59 13 d9 3c
       -0.06061725 0.105391875 -0.06738074 0.026498483
000390 f0 8c d5 3a 9b 8b b1 bd 71 66 15 3e df 5d 3b 3d
       0.0016292613 -0.08669206 0.1458986 0.04574382
0003a0 de 62 b9 3a 8a 00 82 3d e5 5f e2 bd fb 6a 01 be
       0.0014143845 0.06347759 -0.11053447 -0.12638466
0003b0 1c 38 ab 3d 5a 98 d2 3c 06 d2 07 3e 56 70 31 bc
       0.083603114 0.025707413 0.13263711 -0.010830006
0003c0 83 bf 5c 3d c6 e8 53 3c 2c d4 80 bd 51 cd 0c 3e
       0.053893577 0.0129339155 -0.062904686 0.13750197
0003d0 55 93 5b bd 17 71 f7 bd 38 86 1b be 29 81 04 3e
       -0.053607304 -0.12082117 -0.15187919 0.12939896
0003e0 e7 91 03 bd fb 27 d2 bb 1d 1d 09 3e e5 a5 c3 3d
       -0.032121565 -0.0064134574 0.13390012 0.09553126
0003f0 4c 48 57 bc 50 82 07 3e 29 8f a5 3d 6b c8 5d bb
       -0.0131397955 0.13233304 0.08083946 -0.0033841382

batch_norm2.weight f4 [128]
000000 00 00 80 3f 00 00 80 3f 00 00 80 3f 00 00 80 3f
       1.0 1.0 1.0 1.0
000010 00 00 80 3f 00 00 80 3f 00 00 80 3f 00 00 80 3f
       1.0 1.0 1.0 1.0
000020 00 00 80 3f 00 00 80 3f 00 00 80 3f 00 00 80 3f
       1.0 1.0 1.0 1.0
000030 00 00 80 3f 00 00 80 3f 00 00 80 3f 00 00 80 3f
       1.0 1.0 1.0 1.0
000040 00 00 80 3f 00 00 80 3f 00 00 80 3f 00 00 80 3f
       1.0 1.0 1.0 1.0
000050 00 00 80 3f 00 00 80 3f 00 00 80 3f 00 00 80 3f
       1.0 1.0 1.0 1.0
000060 00 00 80 3f 00 00 80 3f 00 00 80 3f 00 00 80 3f
       1.0 1.0 1.0 1.0
000070 00 00 80 3f 00 00 80 3f 00 00 80 3f 00 00 80 3f
       1.0 1.0 1.0 1.0
000080 00 00 80 3f 00 00 80 3f 00 00 80 3f 00 00 80 3f
       1.0 1.0 1.0 1.0
000090 00 00 80 3f 00 00 80 3f 00 00 80 3f 00 00 80 3f
       1.0 1.0 1.0 1.0
0000a0 00 00 80 3f 00 00 80 3f 00 00 80 3f 00 00 80 3f
       1.0 1.0 1.0 1.0
0000b0 00 00 80 3f 00 00 80 3f 00 00 80 3f 00 00 80 3f
       1.0 1.0 1.0 1.0
0000c0 00 00 80 3f 00 00 80 3f 00 00 80 3f 00 00 80 3f
       1.0 1.0 1.0 1.0
0000d0 00 00 80 3f 00 00 80 3f 00 00 80 3f 00 00 80 3f
       1.0 1.0 1.0 1.0
0000e0 00 00 80 3f 00 00 80 3f 00 00 80 3f 00 00 80 3f
       1.0 1.0 1.0 1.0
0000f0 00 00 80 3f 00 00 80 3f 00 00 80 3f 00 00 80 3f
       1.0 1.0 1.0 1.0
000100 00 00 80 3f 00 00 80 3f 00 00 80 3f 00 00 80 3f
       1.0 1.0 1.0 1.0
000110 00 00 80 3f 00 00 80 3f 00 00 80 3f 00 00 80 3f
       1.0 1.0 1.0 1.0
000120 00 00 80 3f 00 00 80 3f 00 00 80 3f 00 00 80 3f
       1.0 1.0 1.0 1.0
000130 00 00 80 3f 00 00 80 3f 00 00 80 3f 00 00 80 3f
       1.0 1.0 1.0 1.0
000140 00 00 80 3f 00 00 80 3f 00 00 80 3f 00 00 80 3f
       1.0 1.0 1.0 1.0
000150 00 00 80 3f 00 00 80 3f 00 00 80 3f 00 00 80 3f
       1.0 1.0 1.0 1.0
000160 00 00 80 3f 00 00 80 3f 00 00 80 3f 00 00 80 3f
       1.0 1.0 1.0 1.0
000170 00 00 80 3f 00 00 80 3f 00 00 80 3f 00 00 80 3f
       1.0 1.0 1.0 1.0
000180 00 00 80 3f 00 00 80 3f 00 00 80 3f 00 00 80 3f
       1.0 1.0 1.0 1.0
000190 00 00 80 3f 00 00 80 3f 00 00 80 3f 00 00 80 3f
       1.0 1.0 1.0 1.0
0001a0 00 00 80 3f 00 00 80 3f 00 00 80 3f 00 00 80 3f
       1.0 1.0 1.0 1.0
0001b0 00 00 80 3f 00 00 80 3f 00 00 80 3f 00 00 80 3f
       1.0 1.0 1.0 1.0
0001c0 00 00 80 3f 00 00 80 3f 00 00 80 3f 00 00 80 3f
       1.0 1.0 1.0 1.0
0001d0 00 00 80 3f 00 00 80 3f 00 00 80 3f 00 00 80 3f
       1.0 1.0 1.0 1.0
0001e0 00 00 80 3f 00 00 80 3f 00 00 80 3f 00 00 80 3f
       1.0 1.0 1.0 1.0
0001f0 00 00 80 3f 00 00 80 3f 00 00 80 3f 00 00 80 3f
       1.0 1.0 1.0 1.0

batch_norm2.bias f4 [128]
000000 00 00 00 00 00 00 00 00 00 00 00 00 00 00 00 00
       0.0 0.0 0.0 0.0
000010 00 00 00 00 00 00 00 00 00 00 00 00 00 00 00 00
       0.0 0.0 0.0 0.0
000020 00 00 00 00 00 00 00 00 00 00 00 00 00 00 00 00
       0.0 0.0 0.0 0.0
000030 00 00 00 00 00 00 00 00 00 00 00 00 00 00 00 00
       0.0 0.0 0.0 0.0
000040 00 00 00 00 00 00 00 00 00 00 00 00 00 00 00 00
       0.0 0.0 0.0 0.0
000050 00 00 00 00 00 00 00 00 00 00 00 00 00 00 00 00
       0.0 0.0 0.0 0.0
000060 00 00 00 00 00 00 00 00 00 00 00 00 00 00 00 00
       0.0 0.0 0.0 0.0
000070 00 00 00 00 00 00 00 00 00 00 00 00 00 00 00 00
       0.0 0.0 0.0 0.0
000080 00 00 00 00 00 00 00 00 00 00 00 00 00 00 00 00
       0.0 0.0 0.0 0.0
000090 00 00 00 00 00 00 00 00 00 00 00 00 00 00 00 00
       0.0 0.0 0.0 0.0
0000a0 00 00 00 00 00 00 00 00 00 00 00 00 00 00 00 00
       0.0 0.0 0.0 0.0
0000b0 00 00 00 00 00 00 00 00 00 00 00 00 00 00 00 00
       0.0 0.0 0.0 0.0
0000c0 00 00 00 00 00 00 00 00 00 00 00 00 00 00 00 00
       0.0 0.0 0.0 0.0
0000d0 00 00 00 00 00 00 00 00 00 00 00 00 00 00 00 00
       0.0 0.0 0.0 0.0
0000e0 00 00 00 00 00 00 00 00 00 00 00 00 00 00 00 00
       0.0 0.0 0.0 0.0
0000f0 00 00 00 00 00 00 00 00 00 00 00 00 00 00 00 00
       0.0 0.0 0.0 0.0
000100 00 00 00 00 00 00 00 00 00 00 00 00 00 00 00 00
       0.0 0.0 0.0 0.0
000110 00 00 00 00 00 00 00 00 00 00 00 00 00 00 00 00
       0.0 0.0 0.0 0.0
000120 00 00 00 00 00 00 00 00 00 00 00 00 00 00 00 00
       0.0 0.0 0.0 0.0
000130 00 00 00 00 00 00 00 00 00 00 00 00 00 00 00 00
       0.0 0.0 0.0 0.0
000140 00 00 00 00 00 00 00 00 00 00 00 00 00 00 00 00
       0.0 0.0 0.0 0.0
000150 00 00 00 00 00 00 00 00 00 00 00 00 00 00 00 00
       0.0 0.0 0.0 0.0
000160 00 00 00 00 00 00 00 00 00 00 00 00 00 00 00 00
       0.0 0.0 0.0 0.0
000170 00 00 00 00 00 00 00 00 00 00 00 00 00 00 00 00
       0.0 0.0 0.0 0.0
000180 00 00 00 00 00 00 00 00 00 00 00 00 00 00 00 00
       0.0 0.0 0.0 0.0
000190 00 00 00 00 00 00 00 00 00 00 00 00 00 00 00 00
       0.0 0.0 0.0 0.0
0001a0 00 00 00 00 00 00 00 00 00 00 00 00 00 00 00 00
       0.0 0.0 0.0 0.0
0001b0 00 00 00 00 00 00 00 00 00 00 00 00 00 00 00 00
       0.0 0.0 0.0 0.0
0001c0 00 00 00 00 00 00 00 00 00 00 00 00 00 00 00 00
       0.0 0.0 0.0 0.0
0001d0 00 00 00 00 00 00 00 00 00 00 00 00 00 00 00 00
       0.0 0.0 0.0 0.0
0001e0 00 00 00 00 00 00 00 00 00 00 00 00 00 00 00 00
       0.0 0.0 0.0 0.0
0001f0 00 00 00 00 00 00 00 00 00 00 00 00 00 00 00 00
       0.0 0.0 0.0 0.0

batch_norm2.running_mean f4 [128]
000000 35 87 a1 3e 29 64 03 bf 92 53 6a bf cd 6f b9 3e
       0.31548467 -0.5132471 -0.9153377 0.3621811
000010 d6 41 4c 3f a4 b8 7f bf ed c0 df be b8 d5 28 bf
       0.7978796 -0.99891114 -0.43701878 -0.6595111
000020 18 d4 ea 3d 4f 6c 01 3c 6d 7c 94 be 60 c4 95 3e
       0.11466235 0.007899358 -0.2900118 0.29251385
000030 0d 65 37 be 55 64 27 3c e3 ad 1a 3f 12 56 ea 3d
       -0.17909642 0.010216792 0.6042158 0.11442198
000040 b9 fb d5 3e 3a 4f 0a 3f 44 92 4e 3e ac 76 81 bf
       0.41793612 0.5402714 0.20172983 -1.0114341
000050 17 c2 72 3e 84 f0 45 3e f2 e8 1f 3f fc 54 d0 be
       0.23706852 0.1933003 0.6246482 -0.40689838
000060 dc 67 0c be e4 59 46 bf 80 70 ae 3e 9a 81 69 3f
       -0.13711494 -0.7748091 0.34070206 0.9121338
000070 33 ce d6 be 0d 60 4d be 5e 50 c3 3e 87 9b 73 bf
       -0.41954193 -0.20056172 0.38147253 -0.9515919
000080 d0 fb ad 3d a1 54 13 bf ed 15 98 be dd 81 e9 bd
       0.08495295 -0.5755101 -0.29704228 -0.114017226
000090 c5 79 be 3d 3a 3e 93 3e 43 bb 47 3f 0e ef 68 bf
       0.093005694 0.28758413 0.78020114 -0.9098977
0000a0 cb 22 d6 3d 7c 2b e0 3e f4 79 8c be 8c ce 12 bf
       0.10455855 0.43783176 -0.27436793 -0.57346416
0000b0 f5 19 61 bf 6b 1b a7 be aa 51 df 3e c4 17 13 3f
       -0.8793023 -0.32638106 0.43616992 0.5745814
0000c0 b4 eb 4a be 9c cb 34 be f8 95 86 bf ac 64 4a be
       -0.19816476 -0.17655796 -1.0514517 -0.19764966
0000d0 f8 d5 11 3f a3 30 f7 3e ba 8e 8c 3f 8e 7d d0 be
       0.56967115 0.48279294 1.0981057 -0.4072079
0000e0 6a 32 25 bf 87 a6 cc 3e a2 b7 4c bf e7 02 7c b9
       -0.6453005 0.399708 -0.799677 -0.00024033674
0000f0 ea 40 81 3b 87 8f 9e be d5 33 00 bf 03 16 b7 3c
       0.003944506 -0.30968878 -0.5007909 0.022349363
000100 7a 17 9e bf 18 b2 80 bf ba 29 0d bf 69 db 53 be
       -1.2350914 -1.005435 -0.55141795 -0.20689167
000110 aa 22 c0 3e ae fc b3 be 01 db 8a bf cc 23 e3 be
       0.37526447 -0.35153717 -1.0848085 -0.44363248
000120 43 61 c1 3e 3b ea a2 bf 60 91 36 3f 14 fb c7 be
       0.37769517 -1.2727731 0.71315575 -0.39058745
000130 1b 6a 46 be 5a 61 d2 be e0 bb 94 be e0 38 05 3e
       -0.19376414 -0.41089898 -0.29049587 0.13009977
000140 4e 6f 53 bd 15 15 72 bf 36 7b c5 bc 39 2d de 3e
       -0.05161982 -0.9456342 -0.024106603 0.43393877
000150 02 47 fd bd 68 aa cc be 5c e8 c4 3e 37 ad d0 be
       -0.12367059 -0.3997376 0.38458526 -0.40757152
000160 5d eb 5b 3e 59 63 86 3e 3c 46 eb 3d ba 5e 81 3d
       0.21476503 0.2624767 0.114880055 0.06316896
000170 f5 45 56 3f 13 d4 e0 3e 03 a9 68 3c 7c d2 5a bd
       0.83700496 0.439118 0.014200452 -0.05342339
000180 20 20 b8 bd e1 81 c4 be 9e fc 25 3f ba 56 2a 3f
       -0.08990502 -0.3838034 0.6483859 0.66538584
000190 55 b7 e5 3e 11 d7 68 be fc 5a b5 be 84 cb 30 3f
       0.44866434 -0.22738291 -0.35420978 0.6906054
0001a0 be f6 c5 3b 10 d6 49 3f 64 e5 9a 3f d4 94 e0 3e
       0.006041377 0.7884226 1.2101254 0.43863547
0001b0 4a ec ff be 52 60 b8 be b4 8d 45 bd e6 1b 81 be
       -0.49984962 -0.36010987 -0.04823084 -0.25216597
0001c0 c1 5b 5e 3e e0 a7 ba 3e 96 18 dc 3d d7 17 96 bc
       0.21714689 0.36456203 0.10746877 -0.018321915
0001d0 e8 b5 93 3d 12 24 ba 3e 64 a7 b7 3d b1 69 ae 3e
       0.0721243 0.36355644 0.08967474 0.3406501
0001e0 d0 49 e3 3c 99 0d 40 3e 31 7c 90 3e 8a c5 79 3e
       0.027745157 0.18755187 0.2821975 0.24391761
0001f0 10 bd 56 3d d8 7c 71 be 25 68 8b be 8c 6d 50 3f
       0.052426398 -0.2358278 -0.27227893 0.81417155

batch_norm2.running_var f4 [128]
000000 3a 9e 0b 3f c3 a1 74 3e ed d2 8e 3e aa 53 82 3e
       0.5453831 0.23889832 0.278953 0.25454456
000010 06 5a 92 3d 8b 77 24 3f f4 10 20 3e 16 e6 09 3e
       0.07146077 0.6424491 0.15631467 0.13466677
000020 9a bc 2c 3e ee fc 90 3d 6f c5 08 3d f0 e0 05 3e
       0.16868821 0.070794925 0.033391412 0.13074088
000030 07 56 ae 3e d1 83 a6 3e eb 79 21 3e 1c 35 5b 3e
       0.3405001 0.32522443 0.15769164 0.21406978
000040 d9 8c c0 3d e5 3b c4 3d b1 ba 69 3e 07 cf 84 3e
       0.094018646 0.095817365 0.22825123 0.259392
000050 d4 39 67 3e 16 ba aa 3d 1b 1f 43 3e 78 e4 5a 3d
       0.22580653 0.08336274 0.19054835 0.05344054
000060 36 1f d7 3d 70 3b 08 3e fc 81 d2 3e 58 fe d6 3e
       0.10504 0.13303924 0.41114795 0.41990924
000070 34 ff 7c 3e 31 91 0e 3e ac 54 2c 3e e2 56 4a 3e
       0.24706727 0.13922574 0.16829175 0.19759706
000080 fa 18 15 3e 4b 87 82 3e 12 48 3c 3f 32 96 88 3e
       0.14560309 0.25493845 0.7354747 0.2667709
000090 52 69 96 3e 8a 14 aa 3e 86 87 fd 3d 2d c8 11 3f
       0.29377228 0.33218795 0.12379365 0.5694607
0000a0 4f 33 5c 3e 87 28 e3 3d 8e 35 33 3e fd cc 3b 3e
       0.21503948 0.11091714 0.17500898 0.18339916
0000b0 14 40 8a 3e 04 fa 69 3e 5e 85 d2 3d a4 86 d0 3d
       0.27002013 0.2284928 0.10279344 0.10181931
0000c0 b7 d2 53 3e 7e c6 fd 3d d3 02 7d 3e 10 3f a7 3e
       0.2068585 0.12391375 0.24708109 0.326653
0000d0 77 0c 15 3e 17 33 a3 3e ea 6b 9f 3e a0 9a 34 3f
       0.14555536 0.31874916 0.3113702 0.7054844
0000e0 8f 78 87 3e 2a e8 07 3e c9 df 89 3e e0 38 af 3e
       0.26459166 0.13272157 0.26928547 0.3422308
0000f0 c5 5a 57 3e ea fe a0 3d 8b 76 09 3f d6 ef ac 3d
       0.2103072 0.07861121 0.5369651 0.084441826
000100 d6 6c 54 3f f2 4a b1 3e ef a4 22 3e a2 16 b4 3d
       0.8297857 0.3462749 0.1588323 0.08793379
000110 6d fa 7a 3e c1 49 a5 3e c7 c5 db 3e fe 3e 5d 3e
       0.24509592 0.32282832 0.4292433 0.21606061
000120 ad b1 36 3e 40 0e eb 3e b2 26 e0 3e b7 cf 0e 3e
       0.17841215 0.4590931 0.43779522 0.13946424
000130 cb 5e 82 3e 24 21 91 3d 96 d8 27 3e 1a af e5 3d
       0.25462946 0.07086399 0.16391215 0.112150386
000140 a4 70 c2 3d 1a 03 e2 3e a7 27 e3 3e 3a 51 b6 3d
       0.09494141 0.4414299 0.4436619 0.089022115
000150 f0 d8 ab 3d 67 7a 07 3f 4d 83 bd 3d d3 be fd 3d
       0.08390987 0.52921146 0.09253559 0.123899125
000160 1e 32 a0 3d 66 35 64 3e c1 de 3d 3e 21 8c 92 3e
       0.07822059 0.22285995 0.18542005 0.28622535
000170 97 69 66 3e 0a 5b 47 3e 63 9a 2d 3e ef df c9 3d
       0.22501217 0.19468322 0.16953425 0.09857165
000180 86 36 11 3e 01 bd d9 3d 15 db 3f 3e 38 ab bd 3e
       0.14180955 0.10631753 0.18735917 0.37044692
000190 26 45 b0 3d 1b d7 c3 3e 09 40 92 3e 7a be 83 3e
       0.08606939 0.3825005 0.2856448 0.2573126
0001a0 ae 48 8c 3e 8f c3 ce 3e 70 15 9c 3e 56 c1 12 3e
       0.273992 0.40383574 0.30485106 0.14331564
0001b0 e1 c3 cf 3e cc 37 35 3f 5c 42 03 3e a1 70 e2 3d
       0.4057913 0.70788264 0.12818283 0.110566385
0001c0 3a 83 21 3e 38 0a 21 3d aa 01 24 3e a9 bd 9f 3d
       0.15772715 0.039316386 0.1601626 0.07799847
0001d0 79 04 05 3e fb fc b8 3e e6 97 50 3e f5 0e a1 3d
       0.12989987 0.3613051 0.20370445 0.07864181
0001e0 5c 6f df 3d 1b ee 96 3e 18 16 85 3d a3 02 fa 3e
       0.10909912 0.29478535 0.06498355 0.48830137
0001f0 18 8f 2e 3e f1 fb 8b 3d a6 a0 51 3e a8 40 72 3e
       0.17046773 0.068351634 0.20471439 0.23657477

conv3.bias f4 [128]
000000 00 00 00 00 00 00 00 00 00 00 00 00 00 00 00 00
       0.0 0.0 0.0 0.0
000010 00 00 00 00 00 00 00 00 00 00 00 00 00 00 00 00
       0.0 0.0 0.0 0.0
000020 00 00 00 00 00 00 00 00 00 00 00 00 00 00 00 00
       0.0 0.0 0.0 0.0
000030 00 00 00 00 00 00 00 00 00 00 00 00 00 00 00 00
       0.0 0.0 0.0 0.0
000040 00 00 00 00 00 00 00 00 00 00 00 00 00 00 00 00
       0.0 0.0 0.0 0.0
000050 00 00 00 00 00 00 00 00 00 00 00 00 00 00 00 00
       0.0 0.0 0.0 0.0
000060 00 00 00 00 00 00 00 00 00 00 00 00 00 00 00 00
       0.0 0.0 0.0 0.0
000070 00 00 00 00 00 00 00 00 00 00 00 00 00 00 00 00
       0.0 0.0 0.0 0.0
000080 00 00 00 00 00 00 00 00 00 00 00 00 00 00 00 00
       0.0 0.0 0.0 0.0
000090 00 00 00 00 00 00 00 00 00 00 00 00 00 00 00 00
       0.0 0.0 0.0 0.0
0000a0 00 00 00 00 00 00 00 00 00 00 00 00 00 00 00 00
       0.0 0.0 0.0 0.0
0000b0 00 00 00 00 00 00 00 00 00 00 00 00 00 00 00 00
       0.0 0.0 0.0 0.0
0000c0 00 00 00 00 00 00 00 00 00 00 00 00 00 00 00 00
       0.0 0.0 0.0 0.0
0000d0 00 00 00 00 00 00 00 00 00 00 00 00 00 00 00 00
       0.0 0.0 0.0 0.0
0000e0 00 00 00 00 00 00 00 00 00 00 00 00 00 00 00 00
       0.0 0.0 0.0 0.0
0000f0 00 00 00 00 00 00 00 00 00 00 00 00 00 00 00 00
       0.0 0.0 0.0 0.0
000100 00 00 00 00 00 00 00 00 00 00 00 00 00 00 00 00
       0.0 0.0 0.0 0.0
000110 00 00 00 00 00 00 00 00 00 00 00 00 00 00 00 00
       0.0 0.0 0.0 0.0
000120 00 00 00 00 00 00 00 00 00 00 00 00 00 00 00 00
       0.0 0.0 0.0 0.0
000130 00 00 00 00 00 00 00 00 00 00 00 00 00 00 00 00
       0.0 0.0 0.0 0.0
000140 00 00 00 00 00 00 00 00 00 00 00 00 00 00 00 00
       0.0 0.0 0.0 0.0
000150 00 00 00 00 00 00 00 00 00 00 00 00 00 00 00 00
       0.0 0.0 0.0 0.0
000160 00 00 00 00 00 00 00 00 00 00 00 00 00 00 00 00
       0.0 0.0 0.0 0.0
000170 00 00 00 00 00 00 00 00 00 00 00 00 00 00 00 00
       0.0 0.0 0.0 0.0
000180 00 00 00 00 00 00 00 00 00 00 00 00 00 00 00 00
       0.0 0.0 0.0 0.0
000190 00 00 00 00 00 00 00 00 00 00 00 00 00 00 00 00
       0.0 0.0 0.0 0.0
0001a0 00 00 00 00 00 00 00 00 00 00 00 00 00 00 00 00
       0.0 0.0 0.0 0.0
0001b0 00 00 00 00 00 00 00 00 00 00 00 00 00 00 00 00
       0.0 0.0 0.0 0.0
0001c0 00 00 00 00 00 00 00 00 00 00 00 00 00 00 00 00
       0.0 0.0 0.0 0.0
0001d0 00 00 00 00 00 00 00 00 00 00 00 00 00 00 00 00
       0.0 0.0 0.0 0.0
0001e0 00 00 00 00 00 00 00 00 00 00 00 00 00 00 00 00
       0.0 0.0 0.0 0.0
0001f0 00 00 00 00 00 00 00 00 00 00 00 00 00 00 00 00
       0.0 0.0 0.0 0.0
