agent_0_gcn.pth (torch, 70320 bytes, 4 tensors)

conv1.bias f4 [128]
0	0x00000000	0.0
1	0x00000000	0.0
2	0x00000000	0.0
3	0x00000000	0.0
4	0x00000000	0.0
5	0x00000000	0.0
6	0x00000000	0.0
7	0x00000000	0.0
8	0x00000000	0.0
9	0x00000000	0.0
10	0x00000000	0.0
11	0x00000000	0.0
12	0x00000000	0.0
13	0x00000000	0.0
14	0x00000000	0.0
15	0x00000000	0.0
16	0x00000000	0.0
17	0x00000000	0.0
18	0x00000000	0.0
19	0x00000000	0.0
20	0x00000000	0.0
21	0x00000000	0.0
22	0x00000000	0.0
23	0x00000000	0.0
24	0x00000000	0.0
25	0x00000000	0.0
26	0x00000000	0.0
27	0x00000000	0.0
28	0x00000000	0.0
29	0x00000000	0.0
30	0x00000000	0.0
31	0x00000000	0.0
32	0x00000000	0.0
33	0x00000000	0.0
34	0x00000000	0.0
35	0x00000000	0.0
36	0x00000000	0.0
37	0x00000000	0.0
38	0x00000000	0.0
39	0x00000000	0.0
40	0x00000000	0.0
41	0x00000000	0.0
42	0x00000000	0.0
43	0x00000000	0.0
44	0x00000000	0.0
45	0x00000000	0.0
46	0x00000000	0.0
47	0x00000000	0.0
48	0x00000000	0.0
49	0x00000000	0.0
50	0x00000000	0.0
51	0x00000000	0.0
52	0x00000000	0.0
53	0x00000000	0.0
54	0x00000000	0.0
55	0x00000000	0.0
56	0x00000000	0.0
57	0x00000000	0.0
58	0x00000000	0.0
59	0x00000000	0.0
60	0x00000000	0.0
61	0x00000000	0.0
62	0x00000000	0.0
63	0x00000000	0.0
64	0x00000000	0.0
65	0x00000000	0.0
66	0x00000000	0.0
67	0x00000000	0.0
68	0x00000000	0.0
69	0x00000000	0.0
70	0x00000000	0.0
71	0x00000000	0.0
72	0x00000000	0.0
73	0x00000000	0.0
74	0x00000000	0.0
75	0x00000000	0.0
76	0x00000000	0.0
77	0x00000000	0.0
78	0x00000000	0.0
79	0x00000000	0.0
80	0x00000000	0.0
81	0x00000000	0.0
82	0x00000000	0.0
83	0x00000000	0.0
84	0x00000000	0.0
85	0x00000000	0.0
86	0x00000000	0.0
87	0x00000000	0.0
88	0x00000000	0.0
89	0x00000000	0.0
90	0x00000000	0.0
91	0x00000000	0.0
92	0x00000000	0.0
93	0x00000000	0.0
94	0x00000000	0.0
95	0x00000000	0.0
96	0x00000000	0.0
97	0x00000000	0.0
98	0x00000000	0.0
99	0x00000000	0.0
100	0x00000000	0.0
101	0x00000000	0.0
102	0x00000000	0.0
103	0x00000000	0.0
104	0x00000000	0.0
105	0x00000000	0.0
106	0x00000000	0.0
107	0x00000000	0.0
108	0x00000000	0.0
109	0x00000000	0.0
110	0x00000000	0.0
111	0x00000000	0.0
112	0x00000000	0.0
113	0x00000000	0.0
114	0x00000000	0.0
115	0x00000000	0.0
116	0x00000000	0.0
117	0x00000000	0.0
118	0x00000000	0.0
119	0x00000000	0.0
120	0x00000000	0.0
121	0x00000000	0.0
122	0x00000000	0.0
123	0x00000000	0.0
124	0x00000000	0.0
125	0x00000000	0.0
126	0x00000000	0.0
127	0x00000000	0.0

conv1.lin.weight f4 [128, 3]
0	0xbd673d3c	-0.056454882
1	0xbe2bcd9b	-0.16777651
2	0x3d01f1c4	0.031724706
3	0xbe491b35	-0.19639285
4	0x3e374ec9	0.17901148
5	0x3dc3ad7e	0.095545754
6	0xbe3a8909	-0.18216337
7	0x3e008f35	0.12554629
8	0xbd7aa5c0	-0.061193228
9	0xbd8ea222	-0.06964518
10	0xbdf155a9	-0.117839165
11	0x3e47904f	0.19488643
12	0x3e21ae91	0.15789248
13	0xbca382a0	-0.019959748
14	0xbde744c5	-0.112924136
15	0x3d59175c	0.053000793
16	0xbda897a0	-0.08232045
17	0xbc5b02e0	-0.013367385
18	0x3d7cd984	0.061730877
19	0xbd9c7e6e	-0.07641302
20	0x3ce21608	0.027598396
21	0xbe040b2a	-0.12894884
22	0x3d9fd10e	0.07803546
23	0xbe0e07c5	-0.13870151
24	0x3ddbdf5e	0.10735963
25	0xbe4c507b	-0.19952576
26	0xbd7cec30	-0.061748683
27	0xbe240e1b	-0.16021006
28	0x3e440725	0.1914335
29	0xbe0d4531	-0.13795926
30	0xbe0f0d4a	-0.13969913
31	0xbe4c0a40	-0.19925785
32	0xbe1e4f1a	-0.15459862
33	0x3d0ae88c	0.03391318
34	0xbd0f78c8	-0.035027295
35	0xbd9f932c	-0.07791743
36	0xbcbbe488	-0.02293612
37	0xbd8b1f90	-0.067931294
38	0x3bfe77a0	0.0077657253
39	0x3db40b46	0.08791213
40	0x3de6a0de	0.11261152
41	0xbe03c28a	-0.1286718
42	0x3da4a236	0.08038752
43	0x3de50f46	0.11184554
44	0xbe32ed15	-0.17473252
45	0xbd49c7b4	-0.049262717
46	0xbde0c046	-0.10974173
47	0xbde50a14	-0.11183563
48	0xbe2c7c49	-0.16844286
49	0xbe4a4b9e	-0.19755408
50	0x3c2ad350	0.010426357
51	0xbe579397	-0.21052395
52	0xbe1663bb	-0.14686482
53	0xbe2e0559	-0.16994227
54	0x3dc635c2	0.09678222
55	0x3d27bd8c	0.04095225
56	0xbe1f1be3	-0.15537982
57	0x3dbec156	0.0931422
58	0x3d7b8694	0.06140764
59	0x3d93280a	0.07185371
60	0xbdbbeb74	-0.091757685
61	0xbcb128e8	-0.021625951
62	0xbe545843	-0.20736794
63	0x3de1cb76	0.11025135
64	0x3e0fe96b	0.14053886
65	0xbb710f80	-0.003678292
66	0x3e3c6d0b	0.18400972
67	0x3e137317	0.14399372
68	0x3e4879f5	0.19577773
69	0x3d811e3a	0.063045934
70	0xbe4f1fa3	-0.20226912
71	0xbcdb4378	-0.02676557
72	0xbd4dc278	-0.050234288
73	0xbdbe90f0	-0.093049884
74	0x3e31d297	0.1736549
75	0x3de4e30a	0.11176117
76	0xbe574cbb	-0.21025364
77	0xbe2f08e6	-0.17093238
78	0x3e423f8d	0.18969555
79	0x3e231acd	0.15928192
80	0x3d66313c	0.056199297
81	0x3e077243	0.13227181
82	0x3d837b0e	0.06419955
83	0x3e1db013	0.15399198
84	0xbc55e000	-0.013053894
85	0x3dc4dd9e	0.096125826
86	0x3cd656a8	0.026164368
87	0xbdbfa09a	-0.09356804
88	0xbb7ccd80	-0.0038574636
89	0xbd38aee0	-0.04508865
90	0x3e23c283	0.15992169
91	0x3d6aa744	0.057288423
92	0x3e00e051	0.1258557
93	0x3da2ff46	0.07958846
94	0x3c804760	0.015659034
95	0x3e44702b	0.19183414
96	0xbd520864	-0.051277533
97	0x3e2d41b1	0.1691959
98	0x3d77bafc	0.060481057
99	0x3d960606	0.07325368
100	0xbe028cca	-0.1274902
101	0x3da7e1ca	0.08197363
102	0xbd8ac0b2	-0.06775035
103	0x3e011de7	0.12609063
104	0x3e35d1f7	0.17755876
105	0xbac40d80	-0.0014957637
106	0xbe4cf4c0	-0.2001524
107	0xbdaefe62	-0.085446134
108	0x3d92af0e	0.07162295
109	0x3e36c569	0.17848743
110	0xbe30dceb	-0.17271774
111	0x3e0cefd1	0.13763358
112	0xbda7cc0e	-0.08193217
113	0x3d77e6fc	0.06052302
114	0x3e281569	0.16414417
115	0x3e138ef5	0.14410003
116	0x3cd065d8	0.025439188
117	0xbd03287c	-0.03202103
118	0xbd90bf8c	-0.07067785
119	0xbd57ad10	-0.05265528
120	0x3e320743	0.17385583
121	0x3cb713b0	0.022348255
122	0xbd08757c	-0.033315167
123	0xbd15ad7c	-0.0365424
124	0xbd69b61c	-0.05705844
125	0x3e25fcd5	0.16209729
126	0xbda5fc16	-0.08104722
127	0xbd9d36b8	-0.076764524
128	0x3e4833c7	0.19551001
129	0x3e24b187	0.16083346
130	0xbb48d000	-0.0030641556
131	0xbde66d9f	-0.11251377
132	0x3d595c44	0.053066507
133	0xbda009b2	-0.07814349
134	0xbe06bc20	-0.13157701
135	0x3de44e72	0.11147775
136	0x3d9e9c76	0.07744686
137	0xbd25f32c	-0.04051511
138	0xbdd77e07	-0.10522085
139	0x3b6fd240	0.0036593825
140	0x3e19e8df	0.1503024
141	0xbd7bb3f8	-0.06145093
142	0xbdea3ace	-0.11436997
143	0x3d9a8b86	0.07546143
144	0xbdfcb13d	-0.12338493
145	0xbd9266c8	-0.0714851
146	0xbe178004	-0.14794928
147	0xbe260580	-0.16213036
148	0x3d0bbfd8	0.034118503
149	0x3c60e590	0.013726607
150	0x3e4b429d	0.1984963
151	0x3dd295f2	0.10282506
152	0xbd63b2e8	-0.05559054
153	0xbe38c5c0	-0.18044186
154	0xbc4707c0	-0.012147844
155	0xbe3b9976	-0.1832026
156	0x3e4b0145	0.19824703
157	0x3dba3ab6	0.090932295
158	0xbe29ccd3	-0.1658204
159	0xbe27e679	-0.16396512
160	0xbe2b598e	-0.16733381
161	0x3e290e75	0.16509421
162	0x3ccca420	0.024980605
163	0xbdcb823b	-0.09936949
164	0x3e01a501	0.126606
165	0x3e1d995b	0.15390532
166	0x3e00b763	0.12569956
167	0xbe40f1dc	-0.18842262
168	0x3e0fd0a5	0.14044435
169	0x3e1ca1af	0.15296052
170	0x3e1fbdc1	0.15599729
171	0x3dd4809e	0.10376094
172	0xbe40d54b	-0.18831365
173	0x3cb94800	0.02261734
174	0xbe1510a6	-0.14557132
175	0xbe3c20c8	-0.1837188
176	0xbd35c518	-0.044377416
177	0xbe12f8dc	-0.14352745
178	0xbe40d656	-0.18831763
179	0xbdfaf7a7	-0.12254267
180	0x3cf1b810	0.029506713
181	0x3c88beb0	0.01669249
182	0xbdaeb048	-0.08529717
183	0xbe53a755	-0.20669301
184	0x3d57e89c	0.052712068
185	0xbcfd0a58	-0.030888721
186	0x3d76bd2c	0.060239002
187	0x3d4d1d54	0.050076798
188	0xbe2bba02	-0.16770175
189	0xbd5c6730	-0.053809345
190	0xbe43f077	-0.19134699
191	0x3dd4ffea	0.10400374
192	0xbe45219d	-0.19251104
193	0xbd7aafc8	-0.061202794
194	0xbd8b3f62	-0.06799199
195	0x3e28f811	0.1650088
196	0x3e306a25	0.17227991
197	0xbd9e0028	-0.077148736
198	0x3db1cdb2	0.086818114
199	0xbdc9046f	-0.09815299
200	0x3ddbdfaa	0.1073602
201	0xbe3f1d78	-0.18663585
202	0xbd9c91c8	-0.07644993
203	0x392e4800	0.00016620755
204	0xbdbbf089	-0.09176738
205	0xbc8b9bf0	-0.01704213
206	0x3d4a454c	0.049382493
207	0xbe5885fa	-0.21144858
208	0xbd686414	-0.056736067
209	0xbe59473b	-0.21218579
210	0x3e40b903	0.18820576
211	0xbdf4044b	-0.11914881
212	0xbdc24b13	-0.094869755
213	0xbe18ce86	-0.14922532
214	0xbcc14c20	-0.02359587
215	0xbdfe79aa	-0.12425549
216	0x3cfd7568	0.030939773
217	0xbe06e23a	-0.13172236
218	0xbd781aa4	-0.06057228
219	0x3dc176c6	0.09446482
220	0xbdeb0121	-0.11474825
221	0xbc508200	-0.012726307
222	0xbe3f436e	-0.18678066
223	0xbe1e4c11	-0.15458705
224	0xbd9ce6ee	-0.07661234
225	0xbe564414	-0.20924407
226	0xbdeb0109	-0.11474807
227	0xbddb7e6a	-0.10717471
228	0x3e2b84f3	0.16749935
229	0x3d139e8c	0.036039874
230	0xbc911c60	-0.017713726
231	0x3e4662d7	0.19373642
232	0xbe15949d	-0.14607473
233	0xbdebb6bf	-0.115094654
234	0xbe3e079d	-0.18557592
235	0x3e172e4b	0.14763753
236	0x3da13e3e	0.078732
237	0xbe06ae7c	-0.13152498
238	0xbe1574a5	-0.14595278
239	0x3bf32ee0	0.0074213594
240	0xbe4a4966	-0.19754562
241	0xbd8474d6	-0.06467597
242	0x3e242e2f	0.16033243
243	0xbca6f308	-0.020379558
244	0x3e498c0d	0.19682331
245	0xbe28cd4b	-0.16484563
246	0xbe332a17	-0.17496525
247	0x3a215e00	0.00061556697
248	0x3da618b2	0.08110179
249	0x3e331503	0.17488484
250	0x3e37212f	0.17883752
251	0x3e2377ad	0.15963621
252	0xbe42f8bf	-0.19040202
253	0xbd0dfcac	-0.034664795
254	0xbe4b11f8	-0.19831073
255	0xbe0636b0	-0.13106799

conv2.bias f4 [128]
0	0x00000000	0.0
1	0x00000000	0.0
2	0x00000000	0.0
3	0x00000000	0.0
4	0x00000000	0.0
5	0x00000000	0.0
6	0x00000000	0.0
7	0x00000000	0.0
8	0x00000000	0.0
9	0x00000000	0.0
10	0x00000000	0.0
11	0x00000000	0.0
12	0x00000000	0.0
13	0x00000000	0.0
14	0x00000000	0.0
15	0x00000000	0.0
16	0x00000000	0.0
17	0x00000000	0.0
18	0x00000000	0.0
19	0x00000000	0.0
20	0x00000000	0.0
21	0x00000000	0.0
22	0x00000000	0.0
23	0x00000000	0.0
24	0x00000000	0.0
25	0x00000000	0.0
26	0x00000000	0.0
27	0x00000000	0.0
28	0x00000000	0.0
29	0x00000000	0.0
30	0x00000000	0.0
31	0x00000000	0.0
32	0x00000000	0.0
33	0x00000000	0.0
34	0x00000000	0.0
35	0x00000000	0.0
36	0x00000000	0.0
37	0x00000000	0.0
38	0x00000000	0.0
39	0x00000000	0.0
40	0x00000000	0.0
41	0x00000000	0.0
42	0x00000000	0.0
43	0x00000000	0.0
44	0x00000000	0.0
45	0x00000000	0.0
46	0x00000000	0.0
47	0x00000000	0.0
48	0x00000000	0.0
49	0x00000000	0.0
50	0x00000000	0.0
51	0x00000000	0.0
52	0x00000000	0.0
53	0x00000000	0.0
54	0x00000000	0.0
55	0x00000000	0.0
56	0x00000000	0.0
57	0x00000000	0.0
58	0x00000000	0.0
59	0x00000000	0.0
60	0x00000000	0.0
61	0x00000000	0.0
62	0x00000000	0.0
63	0x00000000	0.0
64	0x00000000	0.0
65	0x00000000	0.0
66	0x00000000	0.0
67	0x00000000	0.0
68	0x00000000	0.0
69	0x00000000	0.0
70	0x00000000	0.0
71	0x00000000	0.0
72	0x00000000	0.0
73	0x00000000	0.0
74	0x00000000	0.0
75	0x00000000	0.0
76	0x00000000	0.0
77	0x00000000	0.0
78	0x00000000	0.0
79	0x00000000	0.0
80	0x00000000	0.0
81	0x00000000	0.0
82	0x00000000	0.0
83	0x00000000	0.0
84	0x00000000	0.0
85	0x00000000	0.0
86	0x00000000	0.0
87	0x00000000	0.0
88	0x00000000	0.0
89	0x00000000	0.0
90	0x00000000	0.0
91	0x00000000	0.0
92	0x00000000	0.0
93	0x00000000	0.0
94	0x00000000	0.0
95	0x00000000	0.0
96	0x00000000	0.0
97	0x00000000	0.0
98	0x00000000	0.0
99	0x00000000	0.0
100	0x00000000	0.0
101	0x00000000	0.0
102	0x00000000	0.0
103	0x00000000	0.0
104	0x00000000	0.0
105	0x00000000	0.0
106	0x00000000	0.0
107	0x00000000	0.0
108	0x00000000	0.0
109	0x00000000	0.0
110	0x00000000	0.0
111	0x00000000	0.0
112	0x00000000	0.0
113	0x00000000	0.0
114	0x00000000	0.0
115	0x00000000	0.0
116	0x00000000	0.0
117	0x00000000	0.0
118	0x00000000	0.0
119	0x00000000	0.0
120	0x00000000	0.0
121	0x00000000	0.0
122	0x00000000	0.0
123	0x00000000	0.0
124	0x00000000	0.0
125	0x00000000	0.0
126	0x00000000	0.0
127	0x00000000	0.0

conv2.lin.weight f4 [128, 128]
0	0xbd984a8a	-0.07436092
1	0x3e018ccd	0.12651367
2	0xbdb9cf2e	-0.090727195
3	0xbd0d769e	-0.03453695
4	0x3b8ff9a0	0.0043937713
5	0xbdfdcb77	-0.123923235
6	0x3dadbc1a	0.08483143
7	0xbe17c120	-0.14819765
8	0x3cf40718	0.029788539
9	0x3d8ac020	0.06774926
10	0xbd99b302	-0.07504846
11	0x3d93622e	0.07196461
12	0xbdd2fc48	-0.10302025
13	0x3d81880c	0.06324777
14	0x3e093013	0.13397245
15	0xbe03357f	-0.12813376
16	0x3dfe467a	0.12415786
17	0xbdeabc14	-0.11461654
18	0xbcfae918	-0.030628726
19	0xbdb95252	-0.090489045
20	0xbc817740	-0.015803933
21	0x3d920246	0.0712934
22	0xbd1549fa	-0.036447503
23	0x3d3b3a64	0.045709983
24	0xbb9cdca0	-0.0047870427
25	0x3cf3ae20	0.029746115
26	0x3ce7a6f0	0.028277844
27	0x3d8847d8	0.06654328
28	0x3ce91798	0.028453633
29	0xbdff1355	-0.12454859
30	0xbdb4858a	-0.08814533
31	0x3d2b2a00	0.0417881
32	0xbe1b3a1e	-0.15158889
33	0xbdb2fcea	-0.08739646
34	0x3dc463b4	0.09589329
35	0x3db30d9c	0.0874283
36	0x3da6c094	0.081422
37	0x3d78c800	0.06073761
38	0x3e168da7	0.14702474
39	0x3de08ada	0.10963984
40	0x3d0b8d4c	0.034070298
41	0x3cb9e888	0.022693887
42	0x3e096219	0.13416328
43	0x3d1d47f8	0.038398713
44	0x3e0419bb	0.1290044
45	0xbd01fac0	-0.031733274
46	0xbd99b56d	-0.07505307
47	0x3caae448	0.020860806
48	0x3d77d1c0	0.060502768
49	0x3c6f26a0	0.014596611
50	0x3d9a11cc	0.07522926
51	0x3c786ca0	0.015162617
52	0x3e0483e3	0.12940936
53	0xbb097040	-0.0020971447
54	0x3d3fc83c	0.046821818
55	0x3de3a8e6	0.11116199
56	0xbd3e79ac	-0.046502754
57	0x3df4c19a	0.11950989
58	0xbdf42610	-0.11921322
59	0x3a0d0700	0.0005379766
60	0x3e036607	0.12831889
61	0x3c45caf0	0.01207231
62	0x3d004408	0.03131488
63	0xbdfc81dd	-0.12329457
64	0x3d2e01a8	0.04248205
65	0xbe0552ca	-0.13019863
66	0xbdfc6335	-0.1232361
67	0xb931e000	-0.00016963482
68	0x3e1b3737	0.15157782
69	0x3d8501d0	0.06494486
70	0xbd39328c	-0.04521422
71	0x3e1b9aef	0.15195821
72	0xbdb71a0d	-0.08940516
73	0x3ddcb5ae	0.1077684
74	0xbe1522ec	-0.14564103
75	0x3e138485	0.14406021
76	0xbd5f62ec	-0.0545377
77	0xbd6b5602	-0.05745507
78	0xbd687346	-0.05675056
79	0x3d6fafa4	0.058517113
80	0xbde1ecde	-0.11031507
81	0x3e0fbebf	0.14037608
82	0xbd1cda7c	-0.0382943
83	0xbc2388c0	-0.009981334
84	0xbd23c520	-0.039982915
85	0xbe11d6ad	-0.14242049
86	0x3d89d580	0.06730175
87	0x3d695c20	0.056972623
88	0xbcdcce28	-0.026953772
89	0xbccca0b8	-0.02497898
90	0xbdfb3e09	-0.12267692
91	0x3ca703b0	0.0203875
92	0xbdc06890	-0.09394944
93	0xbdbeca60	-0.09315944
94	0xbdd3aa9e	-0.10335277
95	0x3ddc4d6a	0.10756953
96	0x3d7911f8	0.060808152
97	0x3d93ef92	0.07223429
98	0xbd0e0104	-0.034668937
99	0xbddcbd6a	-0.10778315
100	0xbe166b1d	-0.14689298
101	0x3d1c9cc4	0.03823544
102	0x3e0e2635	0.13881762
103	0x3da0c7f4	0.07850638
104	0x3d7341b8	0.059388846
105	0x3ddcb36a	0.10776408
106	0xbc9988f8	-0.01874207
107	0x3ccc53c0	0.024942279
108	0xbdd83f55	-0.105589546
109	0xbde66358	-0.11249417
110	0x3e0f5da1	0.1400056
111	0xbdfb1dcc	-0.12261543
112	0xbdaea820	-0.08528161
113	0x3d3920b4	0.045197204
114	0x3d53b620	0.05168736
115	0xbcfe7564	-0.031061836
116	0xbc214300	-0.009842634
117	0xbdb6a39b	-0.08917924
118	0xbd8c1f3d	-0.06841896
119	0xbd0a391e	-0.033745877
120	0xbc97e500	-0.018541813
121	0x3d47fe50	0.048826516
122	0x3d77eb3c	0.06052707
123	0xbd50e728	-0.051001698
124	0xbcdc1cf8	-0.026869282
125	0x3dcab00e	0.09896861
126	0xbdaa5efc	-0.08318898
127	0xbde521be	-0.111880764
128	0xbdbad3ed	-0.09122453
129	0xbdc968ff	-0.098344795
130	0xbdfa21dd	-0.1221349
131	0xbc790630	-0.015199229
132	0x3cbafa50	0.022824436
133	0xbde51e7a	-0.111874536
134	0x3bcd5680	0.006266415
135	0x3d5cdbe4	0.05392064
136	0xbdcdda16	-0.10051362
137	0xbdf4fa02	-0.11961748
138	0xbe1c2fbb	-0.15252583
139	0xbe1c2934	-0.15250093
140	0x3dd2fe7e	0.10302447
141	0x3e044c0b	0.12919633
142	0xbdb2e4ea	-0.08735068
143	0xbdb86ff4	-0.09005728
144	0xbd2006e0	-0.039069057
145	0x3d387a4c	0.045038506
146	0xbd73206e	-0.0593571
147	0xbd957763	-0.07298162
148	0x3c584bf0	0.013201699
149	0xbdf4e173	-0.119570635
150	0xbd50b8b6	-0.050957404
151	0x3e04622d	0.12928076
152	0xbe062496	-0.13099894
153	0x3db04acc	0.08608016
154	0xbdfb74e6	-0.12278156
155	0xbc7019f0	-0.0146546215
156	0xbd891f33	-0.06695404
157	0xbc816738	-0.015796289
158	0x3db4804a	0.08813532
159	0x3ba007e0	0.0048837513
160	0x3d9a1df4	0.07525244
161	0xbda609e4	-0.08107355
162	0xbd2cfaa4	-0.042231217
163	0x3d8b8184	0.068118125
164	0xbbbfed40	-0.00585714
165	0xbde085e9	-0.10963041
166	0xbdb6a0b2	-0.08917369
167	0x3de2face	0.110829934
168	0x3df54636	0.11976282
169	0x3c307100	0.010769129
170	0xbd9481f0	-0.07251346
171	0xbddeb124	-0.10873631
172	0xbdcc2c24	-0.09969357
173	0x3de49862	0.11161877
174	0xbe09b59f	-0.13448189
175	0xbe133b96	-0.14378199
176	0x3e16a3ff	0.14710997
177	0xbd084eaa	-0.033278145
178	0xbd8fd896	-0.07023732
179	0xbd852cc4	-0.06502679
180	0xbad92680	-0.001656726
181	0xbd0cba6e	-0.03435748
182	0xbb89f3e0	-0.0042099804
183	0x3c41b080	0.011821866
184	0x3ddea53e	0.10871361
185	0x3e1253ab	0.1428973
186	0xbd4191ec	-0.047258303
187	0xbc141e50	-0.00904043
188	0x3dac6f3c	0.08419654
189	0xbe118539	-0.14210977
190	0x3d987170	0.074435115
191	0xbdc05560	-0.09391284
192	0xbe0c2e51	-0.13689543
193	0xbcf1ec84	-0.029531725
194	0x3de6bace	0.11266099
195	0x3d2e1140	0.04249692
196	0xbdf69c65	-0.12041549
197	0x3d8bbae6	0.068227574
198	0xbc764eb0	-0.015033409
199	0x3e147e05	0.14501198
200	0xbd462066	-0.04837074
201	0x3dd49b06	0.10381131
202	0x3e104fd1	0.14092948
203	0x3d34da14	0.044153288
204	0x3d40aba8	0.047038704
205	0xbda5d7b0	-0.0809778
206	0xbd2f6a18	-0.04282579
207	0x3d490a04	0.049081817
208	0x3e1813c3	0.14851288
209	0x3dde5dd6	0.108577415
210	0xbd61adce	-0.055097394
211	0x3d00b794	0.031425074
212	0x3e013731	0.1261871
213	0x3cc58350	0.024110466
214	0xbd368552	-0.044560738
215	0xbc4107c0	-0.011781633
216	0x3e0e9bd3	0.1392663
217	0xbbe01940	-0.0068389475
218	0x3dc0d53a	0.0941567
219	0xbd5d333a	-0.05400393
220	0xbdd8415a	-0.1055934
221	0x3d3d5174	0.046220258
222	0x3cc7fd78	0.024412856
223	0xbd35659e	-0.044286363
224	0xbc9d8880	-0.019230127
225	0x3e078063	0.1323257
226	0x3d9903dc	0.07471439
227	0xbd712562	-0.05887354
228	0xbdebb8be	-0.11509846
229	0xbdde818a	-0.10864551
230	0x3e0dabb9	0.13835038
231	0xbc620740	-0.013795674
232	0xbdb7990d	-0.08964739
233	0xbdb91f6b	-0.090391956
234	0x3d413438	0.04716894
235	0x3bfe6760	0.007763788
236	0x3d249164	0.040177718
237	0xbd444c6a	-0.047924437
238	0x3d3c3e40	0.045957804
239	0xbded22ec	-0.115789264
240	0xbd5ac1c0	-0.05340743
241	0xbd8ad930	-0.067797065
242	0xbdac702e	-0.08419834
243	0xbd50ea0c	-0.051004454
244	0x3dba3ffa	0.09094234
245	0x3e174fa5	0.14776476
246	0x3c8a44c0	0.016878486
247	0x3defebc6	0.11714892
248	0x3dbc3e6e	0.09191595
249	0x3d9cf9ac	0.07664809
250	0xbe176b39	-0.14786996
251	0xbd755b72	-0.059901662
252	0xbddc9750	-0.10771048
253	0xbc4caff0	-0.012493119
254	0xbdabc4ba	-0.08387132
255	0xbce7da50	-0.028302342
