agent_0_gcn.pth (torch, 147323 bytes, 18 tensors)

conv1.bias f4 [128]
000000 f3 f0 a8 3b 25 b3 6c bb 44 8f 23 bb 41 2d 35 ba
       0.0051556765 -0.003611752 -0.002495722 -0.00069113454
000010 fd 59 24 bb 54 53 2d 3b e9 ce 09 3b 27 a1 e3 39
       -0.0025078051 0.0026447373 0.002102787 0.00043416882
000020 b1 c6 dd ba 50 64 65 b6 e9 9f 11 bb 71 29 55 ba
       -0.0016920177 -3.4182049e-06 -0.0022220558 -0.00081314804
000030 c8 d7 ff 3a ca 8f 48 3b 8c cb 85 3a 1b ca 7c 3b
       0.0019519264 0.0030603283 0.0010207756 0.0038572613
000040 37 15 dc b9 4f 1d 85 bb e2 59 ca b8 54 e2 1a ba
       -0.00041977476 -0.0040623317 -9.6488526e-05 -0.00059083593
000050 99 c8 7c bb fe 7d e7 3a ed af a2 ba 24 47 d4 3a
       -0.0038571714 0.001766145 -0.0012412049 0.0016195518
000060 b2 53 67 ba 2a 0d 02 3b 79 43 8b bb 94 32 99 bb
       -0.0008824422 0.0019844272 -0.0042499867 -0.004675219
000070 8a 7d 0e bb 8a f4 da 37 a1 bd be 37 7c 56 7e bb
       -0.0021742308 2.6101497e-05 2.2738068e-05 -0.0038808873
000080 22 83 a1 ba bd 78 ac bb 89 2a 03 3b 90 f2 2e 3b
       -0.0012322406 -0.0052634166 0.0020014367 0.0026694871
000090 f8 3d b4 39 36 0d 7c bb 0e 6e 61 3a c5 9f b8 bb
       0.00034378446 -0.0038460023 0.0008599468 -0.0056342804
0000a0 8e 54 2d bb b2 71 de ba 1a 22 8b bb dd d2 df 3b
       -0.0026448104 -0.001697114 -0.0042460086 0.006830557
0000b0 6a b3 3d 3b d7 7d a5 b8 4e 11 93 3a fc 07 ae 37
       0.002894605 -7.8912526e-05 0.0011220367 2.0746134e-05
0000c0 3f 0c 13 bb 95 21 b7 3a a7 8c 20 3c a9 cf 60 3b
       -0.002243772 0.00139718 0.009799159 0.0034303463
0000d0 3f 48 d9 ba 99 e2 a2 3a 6a 5c 36 3b fb b6 e4 3a
       -0.0016577317 0.001242715 0.002782608 0.0017449552
0000e0 70 95 9e 3b f3 6f 2d bc 26 28 75 39 3e d4 22 bb
       0.0048395917 -0.010585773 0.00023379977 -0.0024845744
0000f0 8c 1b d0 ba 71 f9 3b bc 81 2d 13 3b c8 da a3 bb
       -0.001587735 -0.011473046 0.0022457542 -0.005000446
000100 d2 54 d1 3b 96 98 74 b7 0c 9c 90 bb 7b 85 96 ba
       0.006388285 -1.457906e-05 -0.0044131335 -0.0011483872
000110 37 e5 0e 3b 3b 6f 99 3b eb c1 95 bb 12 a4 dc 3b
       0.0021804103 0.004682449 -0.004570236 0.006733426
000120 d4 54 b1 ba c6 9a 93 3a f5 71 e3 ba c9 eb cd 3b
       -0.0013529309 0.0011261336 -0.0017352687 0.0062842113
000130 a4 0a 1c 3b 1d 82 de bb db 82 ef 3a 32 98 94 3b
       0.0023810053 -0.006790413 0.0018273251 0.0045347447
000140 a4 00 20 3b 75 20 7a bb 7c a4 51 3a 8e fa 7c 3b
       0.0024414444 -0.0038166319 0.00079972274 0.003860149
000150 16 51 a8 36 20 5c 7b bb b7 1e 31 3a e9 e3 72 bb
       5.01623e-06 -0.0038354471 0.0006756591 -0.0037062115
000160 d2 d4 08 3b 58 bb e1 3b 6e a5 11 3b e4 b5 2e ba
       0.0020878804 0.006888788 0.0022223848 -0.0006664677
000170 fc 77 02 3c 0d 0b 2a 3c 20 0b 7e 3b de 71 60 b9
       0.007963177 0.010378611 0.0038763955 -0.00021404724
000180 47 94 ad bb 9e e0 1f 3b 0a ac 0f 39 fa b8 14 3b
       -0.005297217 0.0024395357 0.00013701632 0.0022693262
000190 54 e1 00 bb 49 2d 96 ba a5 85 5e 3b 1e aa 5d 3a
       -0.0019665556 -0.0011457588 0.003395417 0.00084558304
0001a0 9d 18 e0 3b 15 6d a4 3b 53 f2 7b 3b 32 99 b6 3b
       0.0068388716 0.0050178864 0.0038443997 0.0055724615
0001b0 d7 41 61 bb 9f 1f f8 ba 0e ad a5 3b 74 44 88 ba
       -0.003437152 -0.0018930322 0.00505603 -0.0010396377
0001c0 f9 42 0f bb c3 6f cf 3a d2 7e 13 3b 08 b5 2e 3b
       -0.0021859987 0.0015826154 0.002250601 0.0026658196
0001d0 df cf 01 bb ec 78 12 3a e5 b5 ff 3a f0 43 c6 3b
       -0.0019807739 0.0005587477 0.0019509165 0.0060505792
0001e0 e8 a8 01 3a 05 60 0f bb 0d b2 2d bb 7e 0f 8d 38
       0.00049461285 -0.00218773 -0.0026503832 6.7262896e-05
0001f0 f4 9c 25 bc dd 62 f5 ba 88 3a c7 3a 9e c4 8d ba
       -0.010108221 -0.001872148 0.0015199939 -0.0010816043

conv1.lin.weight f4 [128, 3]
000000 2c 1c 41 be d5 47 37 be d2 69 0b be 1e 2f 26 3e
       -0.18858403 -0.17898495 -0.13614586 0.16228911
000010 36 9e 0f 3e 11 4d 8f bd 4c 4e 01 be f8 23 ad bd
       0.14025196 -0.06997121 -0.12627524 -0.08454126
000020 d3 13 30 3d 91 dd f5 bb 23 0f 02 3e 03 b9 1f 3e
       0.042987656 -0.0075032194 0.12701087 0.1559792
000030 fe db 95 bd 83 5a bd 3b 81 f7 96 3d 95 32 a1 bd
       -0.07317351 0.005778612 0.073714264 -0.07870976
000040 44 c8 c6 bc 74 bd 55 be 41 a7 a6 bc 3a 7b 0f bd
       -0.024265416 -0.20873052 -0.020343425 -0.035029627
000050 51 d8 81 39 5a 21 6e 3b 3c 63 02 3e 6a 5f 1e 3e
       0.00024765966 0.0036335797 0.12733167 0.15466085
000060 af ae 23 be c1 64 c5 bd a6 c5 f5 bb b2 14 03 3d
       -0.15984605 -0.09638358 -0.007500368 0.03200216
000070 e5 51 3f be 36 26 53 3d d0 14 eb 3c 43 8e fe 3d
       -0.18683584 0.051550113 0.028696448 0.12429478
000080 d9 a0 3a 3d b8 44 22 be a8 14 db 3c db 97 47 3e
       0.045563553 -0.15846527 0.026743248 0.19491522
000090 d0 53 e1 3d 56 a8 3a be 52 3b 3d bd e7 76 00 3e
       0.11002314 -0.18228278 -0.04619915 0.12545358
0000a0 32 ca 1c be 44 4a 29 be 79 1e 46 be 6b 46 04 be
       -0.15311506 -0.16532236 -0.19347562 -0.12917487
0000b0 15 62 09 3e 04 ae 8e bd 6e c7 3c be a3 f9 cb bd
       0.13416322 -0.069667846 -0.18435451 -0.09959724
0000c0 26 dd 12 be 0e 40 99 bd 3f 6a 56 be c9 1b 3a 3e
       -0.14342174 -0.074829206 -0.20938967 0.18174662
0000d0 01 56 4e 3e 56 88 12 3e 7a 60 53 be c3 5a 3a 3d
       0.20149995 0.1430982 -0.20642272 0.045496713
0000e0 66 a0 80 bd 48 f1 38 be 56 75 b5 bd 37 8b 5a 3e
       -0.062805936 -0.18060791 -0.08860271 0.21342169
0000f0 b0 72 d6 bd ae dd 22 bd 30 ec ef bd 05 18 ba 3d
       -0.10471094 -0.03976219 -0.11714971 0.090866126
000100 4d 22 47 bd 65 e9 c6 3d 3d 40 d7 bd fb 27 a6 bc
       -0.048616696 0.09712485 -0.10510299 -0.020282736
000110 2a d3 30 3e 7f c0 5a 3d 6a 13 98 bb bc e6 18 3e
       0.17268053 0.053406235 -0.004640986 0.14931768
000120 36 cf 02 3e 6d 13 43 be a4 64 11 be 14 f2 a4 3d
       0.12774357 -0.19050379 -0.14198548 0.08053985
000130 3f 6b db 3d 73 d2 bd bb b2 e7 cc 3d 17 43 5b 3e
       0.10713815 -0.00579291 0.1000513 0.21412311
000140 24 24 9b bc d3 05 f8 bd 30 21 69 bd be 75 b7 bd
       -0.018938132 -0.12110486 -0.056916416 -0.089580044
000150 cf 51 4a be 8d b4 f1 bd b8 1a 43 be 19 b6 2a 3d
       -0.1975777 -0.118020155 -0.19053161 0.041677568
000160 4b 63 4d be 94 d7 86 3d 8f 09 d1 bc 37 b1 9a bd
       -0.20057409 0.06584087 -0.025517253 -0.07553332
000170 0e 1c 08 bc 4e bf 26 3d fe 5e 56 3e 55 f6 8f bc
       -0.00830747 0.040709786 0.20934674 -0.017573515
000180 58 c5 3f bd 8c 0a cd 3d b6 b7 20 be a5 6a b3 bd
       -0.04681906 0.10011777 -0.1569508 -0.08760575
000190 21 65 35 be 43 74 0b bd c5 56 e5 3d 9f d8 36 be
       -0.17714359 -0.034046423 0.111981906 -0.17856072
0001a0 c5 62 39 3c fd 1b 2b be c4 6c 30 3d 15 2d 1f 3d
       0.011315052 -0.16709895 0.043072477 0.038861353
0001b0 45 3b 92 3d de aa 63 bd a8 d0 0b 3e f2 b0 22 3e
       0.07140211 -0.055582874 0.13653815 0.15887812
0001c0 06 cb b9 3d a7 1f 38 3e 62 32 07 be 3e 49 17 bd
       0.09071927 0.17980824 -0.13202813 -0.036935084
0001d0 71 4d 48 3e e9 ff 52 bd cf 64 4a 3e 17 b9 b8 3d
       0.19560792 -0.051513586 0.19765018 0.09019678
0001e0 bc 51 49 3e 95 0c 19 3d f8 1e 50 3e 30 02 1d 3e
       0.19660085 0.037365515 0.20324314 0.15332866
0001f0 b6 8a 33 be 89 ae d7 3d 08 8c 1e be 6a a4 09 bd
       -0.17533383 0.10531337 -0.15483105 -0.033604063
000200 4a 18 8a 3d cb de 3b 3a 60 98 37 be 16 d1 71 bd
       0.06742914 0.00071666826 -0.1792922 -0.05903729
000210 d3 e8 a5 3d 8c 3a 8c bd 98 27 de 3d 1c 21 48 3e
       0.08101048 -0.068471044 0.10847396 0.1954388
000220 ae e0 b1 bd 82 a3 12 be 6a ae fb bd 88 cf 72 bc
       -0.086854324 -0.14320186 -0.12289126 -0.014819987
000230 01 9f 31 3e 59 1a 73 3d d4 15 2a 3e 6d c2 a1 bd
       0.17345811 0.0593513 0.1660989 -0.07898412
000240 7d fe 04 3e 09 31 95 bd 7d 27 1d 3e bb 26 be bd
       0.12987705 -0.07284743 0.15347095 -0.09284731
000250 0c 89 be bd d7 a2 62 bd 8b ef 2f 3e aa 23 25 be
       -0.09303483 -0.055331077 0.17181222 -0.16126886
000260 44 54 ee 3c 05 3c c8 3d 46 ab b3 3d 58 49 3d be
       0.029092915 0.09777073 0.08772902 -0.1848501
000270 12 fe d7 bd 6d 0c 0b 3e d5 24 82 3d a4 21 2d 3e
       -0.10546507 0.13578959 0.063546814 0.16907364
000280 91 05 43 be 69 94 10 3e 5f 72 4a be 67 9b 0b bd
       -0.19045092 0.14119114 -0.19770192 -0.03408375
000290 c2 81 8a bc dd 64 49 bc 66 67 ce bd 65 8b fb bd
       -0.016907576 -0.012292114 -0.100783154 -0.12282447
0002a0 a0 32 e6 3d 87 b0 28 bd ac ee 96 3d a6 8a 2f 3e
       0.11240125 -0.041183975 0.07369742 0.17142734
0002b0 89 9d 86 3d e9 48 62 bd 71 bd ec bc 47 47 88 bd
       0.06573016 -0.055245314 -0.028898926 -0.0665422
0002c0 44 a5 dd bb d9 6e 35 be f0 02 3e 3d 06 41 0c 3c
       -0.006764086 -0.17718066 0.04638952 0.008560425
0002d0 7e 9d 49 be ce cc 10 be 9e a7 d0 bd fd da cc bd
       -0.19688985 -0.14140627 -0.101882204 -0.10002706
0002e0 96 4d 6b bd 3a 87 b3 bd c5 f2 37 be 94 ed 03 3e
       -0.05744704 -0.08766027 -0.17963703 0.12883598
0002f0 e2 f8 3e bd 48 a9 48 be 97 e0 1d 3e 89 bb 28 3e
       -0.046624072 -0.19595826 0.15417705 0.16477789
000300 6a 3b 5a bb 04 56 3c be 5a 58 35 3c 41 42 90 3d
       -0.0033299574 -0.18392187 0.011068428 0.07043887
000310 c5 ec 5a 3e 49 bc 11 3e 43 1e df 3d e8 27 b3 bd
       0.21379383 0.14231981 0.10894444 -0.08747846
000320 5a 42 01 bc 2d 0c 0f be 37 f4 93 3c 65 c8 15 bc
       -0.007889355 -0.13969488 0.018060787 -0.009142016
000330 56 ce 7e 3d a8 d5 1d be 25 af 55 be 5c 43 00 3e
       0.062208496 -0.15413535 -0.20867594 0.12525696
000340 c5 da cc bd ae 2f cc bd b0 36 34 3e 02 bc dc 3d
       -0.100026645 -0.09970032 0.17598987 0.10778047
000350 33 cd 26 3e 3a 8a 1b be 5e ff 3d be 4b 81 8f bd
       0.16289215 -0.15189448 -0.18554446 -0.070070826
000360 12 ac 3e be 34 85 49 3e 08 01 a3 bd bf bc d5 bd
       -0.18620327 0.19679719 -0.07959181 -0.10436391
000370 60 88 d2 bc a3 63 55 3e 20 b3 3b bd 1d 04 1b be
       -0.025699794 0.2083879 -0.045825124 -0.15138288
000380 5d 63 06 be 55 07 fa bd d5 57 13 bd 75 83 6a bd
       -0.13123842 -0.1220843 -0.035972435 -0.057254273
000390 63 46 3f 3e 50 f2 5d 3e 6d 0a 20 3e 6b 1a e6 3d
       0.18679194 0.21674466 0.15628977 0.112355076
0003a0 07 46 ee 3c 67 a9 2a bd 25 4c 8a bd 8f 8e 3b 3e
       0.029086126 -0.04166546 -0.06752805 0.183161
0003b0 79 43 55 be b5 f4 9b 3d a7 5e 53 3e fb 5f ef 3c
       -0.2082652 0.076150335 0.20641576 0.029220572
0003c0 8c 42 44 be 5b 57 17 bd 30 eb cf bd e7 63 71 bd
       -0.1916601 -0.036948543 -0.1015228 -0.058933165
0003d0 76 23 0c 3c ca fc 40 3c f1 60 9a bd c6 9d b6 bd
       0.008553376 0.01177902 -0.07538021 -0.08916812
0003e0 3d 52 30 be 7d fb bb bd d7 9e 7d bd 62 ec 8e 3d
       -0.17218871 -0.09178827 -0.06191906 0.0697868
0003f0 fd 4c 14 be 56 28 02 be 5d 54 e2 3d 7d 96 01 3c
       -0.14482494 -0.127107 0.11051247 0.007909414

batch_norm1.weight f4 [128]
000000 b9 87 7b 3f 7e b4 7e 3f 68 e5 80 3f 81 90 7f 3f
       0.9825397 0.9949416 1.0070009 0.9982987
000010 55 0b 80 3f 38 64 7e 3f 66 a9 7d 3f a5 70 7e 3f
       1.0003458 0.9937167 0.99086607 0.9939063
000020 da 92 7b 3f 49 f0 81 3f fe b3 80 3f 20 15 82 3f
       0.9827095 1.0151454 1.0054929 1.0162697
000030 de 8a 80 3f d3 89 81 3f d3 d1 7f 3f 53 f3 7b 3f
       1.0042379 1.0120186 0.9992954 0.9841816
000040 56 74 7e 3f 5a c8 80 3f 2a 89 7e 3f 9d ef 80 3f
       0.99396265 1.0061142 0.99428046 1.0073124
000050 71 cf 7b 3f fb 06 80 3f 3a 75 7d 3f e7 c9 7c 3f
       0.98363405 1.000213 0.99007 0.9874558
000060 f2 4d 81 3f fc 59 80 3f fc 60 82 3f bc 67 80 3f
       1.0101912 1.0027461 1.0185847 1.0031657
000070 fe 65 7f 3f ff 09 7f 3f 6e 0b 7e 3f bb 66 81 3f
       0.99765 0.9962463 0.9923619 1.0109476
000080 10 d7 7d 3f 5d 10 7f 3f 04 69 80 3f b3 5d 82 3f
       0.99156284 0.99634343 1.0032048 1.0184845
000090 ef 5c 7f 3f ef a3 81 3f b7 0c 7d 3f 4c 2e 80 3f
       0.9975118 1.0128154 0.98847526 1.0014129
0000a0 07 ca 80 3f a9 24 7d 3f b4 2b 81 3f 95 14 80 3f
       1.0061654 0.98884064 1.0091462 1.0006281
0000b0 bb a1 7e 3f 78 39 80 3f 5e ec 80 3f 33 ee 7d 3f
       0.9946553 1.0017538 1.0072134 0.9919159
0000c0 b1 8d 7e 3f 20 c5 7f 3f 58 49 7f 3f 4e 26 80 3f
       0.99434954 0.99910164 0.9972129 1.001169
0000d0 a9 24 81 3f 83 ee 80 3f b0 58 81 3f e9 03 7f 3f
       1.0089313 1.0072788 1.010519 0.9961534
0000e0 e7 de 7f 3f c4 de 7e 3f d3 ca 80 3f c4 8d 7f 3f
       0.99949497 0.99558663 1.0061897 0.9982569
0000f0 f7 6f 7e 3f 53 42 81 3f a7 aa 7d 3f f5 1e 80 3f
       0.99389595 1.0098366 0.9908852 1.0009447
000100 6e a4 81 3f fa d7 7c 3f dd 5e 81 3f 4c 02 7f 3f
       1.0128305 0.98767054 1.0107075 0.9961288
000110 41 ff 81 3f 37 04 83 3f ce e3 7c 3f 7a 7b 80 3f
       1.0156022 1.0235661 0.987851 1.0037682
000120 92 e2 7f 3f 6b e8 7f 3f 88 d8 7f 3f 42 b9 7f 3f
       0.99955094 0.99964017 0.99939775 0.99892056
000130 29 9e 7c 3f 0c 74 7d 3f f3 09 7e 3f 51 7b 80 3f
       0.98678833 0.990052 0.9923393 1.0037633
000140 a7 1c 7f 3f e8 9f 7f 3f f4 a2 7d 3f a4 ba 81 3f
       0.99653095 0.9985337 0.9907677 1.0135083
000150 b0 cf 81 3f 6e 22 7f 3f 53 80 7c 3f d6 3a 81 3f
       1.0141506 0.9966191 0.9863331 1.009608
000160 ef ef 80 3f 25 2f 7f 3f db ab 82 3f a7 46 7d 3f
       1.0073222 0.9968131 1.0208696 0.9893593
000170 d6 95 81 3f 9b 51 7d 3f 64 3d 7c 3f 36 1d 82 3f
       1.0123851 0.98952645 0.98531175 1.0165164
000180 f6 54 80 3f cf 83 81 3f 5c f5 7e 3f 8c 85 80 3f
       1.0025928 1.011835 0.9959314 1.0040755
000190 a6 ba 80 3f da 1b 7d 3f a4 74 81 3f 80 71 7c 3f
       1.005696 0.98870623 1.0113721 0.9861069
0001a0 28 be 7f 3f 25 42 7f 3f aa 7d 80 3f 24 05 7f 3f
       0.9989953 0.99710304 1.003835 0.9961722
0001b0 8b 36 80 3f d2 ec 80 3f a8 ed 82 3f 25 ab 80 3f
       1.0016645 1.0072272 1.0228777 1.0052229
0001c0 fd aa 81 3f b9 66 7f 3f c3 09 82 3f e4 79 7e 3f
       1.0130306 0.9976612 1.0159229 0.9940474
0001d0 7f 21 7d 3f 71 e4 7d 3f cc b4 80 3f 0e ec 80 3f
       0.98879236 0.991767 1.0055175 1.0072038
0001e0 4b 46 80 3f 4d 26 7d 3f 87 9a 7c 3f c1 6f 80 3f
       1.0021452 0.9888657 0.9867329 1.0034105
0001f0 00 5f 82 3f 6e 72 80 3f 78 86 80 3f 2b 7e 7e 3f
       1.0185242 1.0034921 1.0041037 0.9941127

batch_norm1.bias f4 [128]
000000 ab f2 94 bc 4f 12 24 bc d7 db 3b 3b 86 b2 1a 3a
       -0.01818212 -0.010014131 0.002866497 0.0005901236
000010 dc 3f 6a 3b bf 00 42 bb cc 0a 8b bc 36 07 fc bb
       0.003574363 -0.0029602495 -0.016972922 -0.0076912893
000020 7d 05 2c bc 4b da a1 3c 91 68 89 3a 0b bc 9a 3c
       -0.010499355 0.01975741 0.0010483434 0.018888494
000030 64 95 04 bb 99 23 80 3c f4 23 13 bb ae f0 95 bc
       -0.0020230645 0.015641974 -0.002245185 -0.018303242
000040 11 c6 5e bb 94 dc 09 3c 96 e7 d6 bb c0 70 fa 3b
       -0.0033992568 0.008414406 -0.006558369 0.0076428354
000050 c8 11 95 bb 7e b6 bf bb 38 e7 e9 bb 0f f5 2d bc
       -0.004549239 -0.005850612 -0.007138159 -0.010617509
000060 20 3f 88 3c bb e9 02 3c 97 80 c7 3c f6 ce 55 ba
       0.016631663 0.007990296 0.024353309 -0.0008156145
000070 86 a5 9b 3b 1b 0f a4 bb 5c bd 17 bb 51 3a a7 3c
       0.0047499565 -0.0050066835 -0.0023153638 0.02041355
000080 5a b0 9a bc 79 3c cc bb 4e 0d 22 bb 74 e3 95 3c
       -0.01888292 -0.006232795 -0.0024727168 0.018296935
000090 54 08 8e 3a e5 40 15 3c db ac 36 bc 84 b8 a9 ba
       0.0010836222 0.00910971 -0.01114961 -0.0012948667
0000a0 0b f8 b6 bb 55 18 86 bc 6a a5 6d 3c e6 5b 93 3b
       -0.0055837682 -0.016369024 0.01450477 0.004497039
0000b0 66 4d 2d bc de d3 86 3a 7b 8b 24 3b 30 7c c7 bb
       -0.010577535 0.001028653 0.002510755 -0.0060878024
0000c0 51 54 d0 bb b8 03 78 3a 04 1e 66 3b 4d db 0e bc
       -0.0063577075 0.00094610034 0.0035113106 -0.008719278
0000d0 cc 5f 14 3c 86 65 9c b9 f6 e6 46 3c 15 06 00 bb
       0.009056043 -0.0002983028 0.012140026 -0.0019534875
0000e0 3b f5 b9 3a 79 72 9a bb 25 b3 1d ba a6 47 fc ba
       0.0014187464 -0.0047133532 -0.00060157693 -0.0019247427
0000f0 e9 e9 f0 bb 41 83 f5 3b 68 ad 2f 3b 50 e0 39 39
       -0.007352103 0.0074924533 0.002680624 0.00017726538
000100 0e 56 95 3c 62 4b f0 ba ff e9 46 3c 6b b3 97 bb
       0.01822951 -0.0018333013 0.01214075 -0.0046295426
000110 cb 04 2d 3c 57 c8 7c 3c 56 c8 0d bc a8 fd 38 3a
       0.010560225 0.015428624 -0.008653721 0.00070568407
000120 49 db 28 3b 37 9b 99 bb 4f 32 e6 bb ff c0 06 bb
       0.002576547 -0.0046876925 -0.00702504 -0.0020561812
000130 18 0d 6c bc 66 5c 62 bc 89 7d 86 bc be ec e2 39
       -0.014407419 -0.013815975 -0.016417282 0.00043282466
000140 27 2d 50 bb 48 85 2e ba 63 50 30 bb da 20 1b 3c
       -0.0031765194 -0.00066574337 -0.0026903383 0.009468282
000150 3c fe 5d 3c a3 85 77 bb da 2a f3 bb 08 d0 a2 3b
       0.013549384 -0.0037768863 -0.00742088 0.004968647
000160 66 18 42 3c fd b2 80 bb d4 88 d4 3c 0d 23 37 bc
       0.011846637 -0.003927587 0.025944151 -0.01117779
000170 8c a9 ad 3b 20 a5 fa bb eb 07 83 bc c7 70 8b 3c
       0.0052997526 -0.007649079 -0.015994987 0.01702155
000180 5c da 3a 3b 61 c7 8d 3c 9a d0 50 bc 3c c6 4b 3b
       0.00285115 0.017306985 -0.012745047 0.0031093499
000190 ba 20 3d 3b 02 33 aa bb da 4f 5c 3c b6 bc 1b bc
       0.0028858618 -0.005194069 0.0134467725 -0.009505441
0001a0 35 53 b4 bb db a7 12 bc a5 f0 17 3b 21 6c 8a bb
       -0.005503083 -0.008951153 0.0023184207 -0.0042243158
0001b0 11 99 e4 bb bc 32 b6 39 2a 51 99 3c 70 91 05 bb
       -0.0069762548 0.00034751545 0.01871546 -0.0020380877
0001c0 11 6f 09 3c 37 6a b8 bb a2 af 56 3c d0 91 e4 bb
       0.008388297 -0.005627896 0.013103398 -0.00697539
0001d0 dd cf 89 bc 6f 92 bd bb 00 cd c1 3b c7 f9 ec 3a
       -0.01682275 -0.0057852785 0.0059143305 0.001807981
0001e0 5a 19 9d 3b ed 11 90 b9 c6 5f 83 bc b5 12 16 3c
       0.004794282 -0.00027479176 -0.01603688 0.009159734
0001f0 b7 f4 7f 3c 17 ef eb 3b 9c 8d d1 3b 65 0a dd bb
       0.015622309 0.0072001326 0.006395055 -0.006745624

batch_norm1.running_mean f4 [128]
000000 93 de 73 be 71 5a 28 3e ad 01 06 be 3c 33 48 3d
       -0.23815374 0.1644075 -0.13086577 0.048876986
000010 97 a7 66 bd 1c a2 f7 bd 77 54 c5 bc 80 c6 76 3d
       -0.05631217 -0.12091467 -0.024088128 0.060247898
000020 3b 2e 33 be bf fb c2 3b 8a 3c 6f 3d 94 16 db bd
       -0.17498104 0.0059504206 0.058407344 -0.10697666
000030 a6 8b 81 3d c5 a7 75 3d 03 c9 39 be a7 32 f3 bd
       0.06325464 0.05997445 -0.18143086 -0.118748955
000040 bd a2 48 be 8e 2b 74 3e 4b 85 4f be c7 b0 15 be
       -0.1959333 0.2384474 -0.20265691 -0.14618216
000050 18 a9 0b be cc f2 cc 3d 4c 70 8f bd 36 55 aa 3d
       -0.13638723 0.10007247 -0.07003841 0.08317034
000060 00 d8 64 3d d0 df c9 3d 5a cf 03 3e 35 00 1a be
       0.055870056 0.09857142 0.12872067 -0.15039141
000070 84 0b 82 be 93 18 7f 3c e8 ef 25 bd d0 72 92 3d
       -0.2539941 0.015569824 -0.040511996 0.07150805
000080 26 c9 74 bd da 0c 05 be 35 87 9f 3d e8 d0 10 be
       -0.059762143 -0.12993184 0.077894606 -0.14142191
000090 3d 7d b1 3d a8 3f 50 3e 37 e6 bc bd 80 f3 ad 3a
       0.086664654 0.20336783 -0.092235975 0.0013271421
0000a0 6c 04 71 3e c0 53 09 3e 04 b7 14 be 78 4f 1f bd
       0.23536843 0.13410854 -0.1452294 -0.038894147
0000b0 69 e0 b8 3d 91 86 10 3e ef 52 ab bd 1c a8 93 3d
       0.09027178 0.14113833 -0.08365428 0.07209799
0000c0 50 08 10 3e 58 22 ef bd e5 d7 19 3e ec ab 9a 3d
       0.14065671 -0.116764724 0.15023763 0.07552323
0000d0 58 8c 82 bd 42 b9 20 3e f3 c9 49 be a1 9d 60 bd
       -0.06374425 0.1569567 -0.19705944 -0.054837827
0000e0 6b 30 f6 3d 5c d4 1e 3e 3a d4 29 bd 72 ce 25 be
       0.12020954 0.15510696 -0.04146216 -0.16192034
0000f0 4c 76 74 be 11 11 0c be 66 33 1f be df 97 04 be
       -0.23873252 -0.13678385 -0.1554695 -0.12948559
000100 0d ac f2 bc a2 3a 0d 3e f8 f0 a7 3d 50 ec 08 be
       -0.029623056 0.13791898 0.08200258 -0.13371396
000110 28 53 2f bc c0 4a ae 3d 4c c8 5f 3e 51 6a 41 be
       -0.010700978 0.08510351 0.21853751 -0.18888213
000120 b1 49 23 be 32 1a 78 bd e4 a5 d0 bd b2 d6 04 be
       -0.1594608 -0.060571857 -0.10187891 -0.12972525
000130 4f c1 82 3e 4f e0 c8 3d ce 54 92 bd 39 59 fb 3d
       0.25538108 0.098084085 -0.071450815 0.12272877
000140 25 9d 56 be 0e 78 66 bd 3f 93 fe bd 40 e7 a6 bd
       -0.20958383 -0.056266837 -0.12430429 -0.08149576
000150 04 92 0f be f0 63 6e 3d 23 84 13 3e b6 c7 32 3e
       -0.14020544 0.058200777 0.14405875 0.17458996
000160 44 5d 07 3d db b4 0e bb c4 a1 c9 3d f0 b8 b9 3d
       0.03304793 -0.0021775279 0.098453075 0.09068477
000170 fb e9 a9 3d 1c a6 b6 bd a3 57 e9 bd 9d cc 43 bd
       0.08296581 -0.089184016 -0.113936685 -0.047802556
000180 71 e0 3f be 4b 57 e0 3d 94 fc f0 bd 0a 71 0a 3d
       -0.18737961 0.1095415 -0.117669255 0.03379921
000190 e4 81 cb bc 0a fc 21 3e 93 b4 46 3d 74 aa 5f bd
       -0.02484221 0.15818802 0.048512053 -0.054605916
0001a0 f0 7a 8c 3d c1 44 04 be 20 e3 c1 3c ca bf 47 3e
       0.06859386 -0.12916853 0.023667872 0.19506755
0001b0 50 23 2b be a8 ec 11 be e3 bc 06 3d 71 da 36 be
       -0.1671269 -0.14250433 0.03289498 -0.17856766
0001c0 96 23 f0 3c 07 fb 35 3d 4a c9 c2 3d b2 b3 66 3e
       0.029313844 0.04442885 0.09511049 0.22529486
0001d0 e3 6b 93 3d 09 14 2a 3d 54 e6 7d 3c 1d ef 6e bd
       0.07198312 0.041523013 0.015496809 -0.058333505
0001e0 bc 88 a8 3d fe 04 86 3d e7 7f 8d 3c fc bc 24 3e
       0.08229205 0.06543921 0.017272903 0.16087717
0001f0 e6 03 b0 3c 0f 69 2e bd 58 cc 86 3b 16 88 7a 3b
       0.021486234 -0.04258066 0.004113715 0.0038228086

batch_norm1.running_var f4 [128]
000000 92 a3 49 3b c4 3c f9 3a c2 59 8d 3a de c4 c1 3b
       0.0030767662 0.0019015302 0.0010784196 0.005913361
000010 f2 e1 d8 3a c6 22 58 3b c1 7e 2b 38 33 d3 b5 3b
       0.0016546829 0.003297971 4.0887626e-05 0.0055488585
000020 f6 e7 70 3a b5 f0 8c 3a 06 4f ac 3a 60 b3 29 3c
       0.00091898383 0.0010752889 0.0013146109 0.010357708
000030 9a 7f b2 3b a7 55 41 3c 54 63 97 3b a9 42 65 3b
       0.00544734 0.011800206 0.004619995 0.003498236
000040 67 51 5c 3b 8a 93 7d 3b 2f 5c c7 3a b3 16 10 3c
       0.0033617856 0.0038692676 0.0015209968 0.008794474
000050 6b be 5e 3a 3c c0 11 39 d1 51 b6 3b 8b 36 b6 3a
       0.00084970024 0.0001389989 0.0055639525 0.0013901753
000060 54 04 43 3c 22 68 d1 39 96 75 ad 3a 24 0e 23 3a
       0.011902887 0.0003994117 0.0013233896 0.00062200637
000070 bf ee 4a 3b 5c 75 93 3a 77 f2 86 39 53 b3 ba 3a
       0.0030965058 0.0011250186 0.00025739122 0.0014244117
000080 b8 ca 2a 3a 9d 0f c4 3a eb b5 4c 3b c5 e3 5a 3b
       0.0006515193 0.0014958266 0.0031236361 0.0033399921
000090 76 71 f1 39 5d 46 2a 3b a6 48 ed 3b f6 b3 cd 3b
       0.00046051637 0.0025981881 0.0072413264 0.0062775565
0000a0 af 5b f7 3a af 2f b6 3a fe 5c 2f 3b fb 23 53 3b
       0.0018871928 0.0013899709 0.0026758309 0.003221749
0000b0 63 94 21 39 69 1b 32 3c 2d 92 d0 3b 02 11 2a 3a
       0.00015409435 0.010870793 0.0063650818 0.000648752
0000c0 14 ab ba 39 0b 0e 2e 3a c9 97 69 3b 5d 5b 8f 3b
       0.00035604148 0.0006639666 0.003564345 0.004374905
0000d0 96 81 9b 3b 1e e6 9c 3a 42 a6 cc 3a c1 75 57 3b
       0.0047456725 0.0011970436 0.0015613514 0.0032876583
0000e0 97 c4 6f 39 9b ea 18 3b ec 50 42 39 43 ea 2e 3b
       0.00022866052 0.0023333195 0.00018531427 0.0026689924
0000f0 41 9b e0 3a 44 30 2b 3a 40 8a 25 3b 21 71 7a 3c
       0.0017136113 0.00065303245 0.0025259405 0.015285761
000100 c7 45 b9 3a ef 81 c6 3b af cc f0 3a 31 8b 92 3a
       0.0014135175 0.0060579698 0.0018371547 0.0011180398
000110 b5 57 45 3c 2e 05 c5 3b 88 82 1a 3b 9a ef 01 3b
       0.012044837 0.0060125804 0.0023576338 0.0019826652
000120 d6 fe 46 3b 31 08 ec 3b 7f 06 8a 3b 8c b1 af 39
       0.0030364296 0.007203125 0.0042122 0.00033510884
000130 a9 a8 98 3b 56 b5 9e 3a 2d 03 58 3a b4 39 03 3b
       0.0046587777 0.0012108486 0.00082402193 0.0020023407
000140 0d 5e 44 3a aa 01 b8 39 03 30 69 3b 8d ba 96 3a
       0.00074908213 0.00035096455 0.0035581596 0.0011499688
000150 ee fa 26 3b 64 d1 90 3b 0d 72 76 3a c9 05 08 3b
       0.0025479156 0.0044194926 0.000940115 0.0020755401
000160 5a a1 35 3c 70 f9 31 3b 17 66 cb 3a 57 d5 66 3a
       0.0110858325 0.0027156733 0.0015518096 0.0008805594
000170 d4 ec 6c 3a f5 52 e8 39 04 7c 82 3b 06 9a 6c 3b
       0.00090379757 0.00044312296 0.003982069 0.0036102547
000180 92 a3 e2 3a d6 2b b5 3a d6 4d 0d 3a b6 c8 d7 3b
       0.0017291179 0.0013822268 0.00053903216 0.006585206
000190 8f af 32 39 cf a2 19 3b 42 7f 54 3a 9d 92 80 3a
       0.00017040804 0.0023442989 0.0008106121 0.0009809319
0001a0 09 8b d2 3b 39 b0 29 3a 56 cc cf 38 b1 ed 3e 3b
       0.0064252657 0.00064730976 9.90859e-05 0.0029133374
0001b0 b1 e2 3b 3b 53 45 fb 3a 6a 75 5e 39 55 d8 08 3b
       0.0028669054 0.001917044 0.0002121531 0.0020880897
0001c0 93 9a b5 38 07 92 6d 3b 37 ae 88 3a 3c 6d 7f 3b
       8.659544e-05 0.003625037 0.0010427897 0.003897502
0001d0 03 c8 9a 3a 9c 44 25 3b 21 72 f3 39 a3 de 86 3a
       0.0011808876 0.0025217896 0.00046433604 0.001028974
0001e0 48 34 1f 39 3b 7a 65 3c 0b 4b a9 39 0f 84 a2 3b
       0.00015182898 0.014006193 0.00032290103 0.0049595903
0001f0 d9 02 e3 39 4d 50 3e 3b 5e 07 e7 3a f4 1f 88 3a
       0.00043298936 0.0029039562 0.0017626097 0.0010385499

conv2.bias f4 [128]
000000 27 88 0b 3a d3 74 f5 37 49 b0 2d 38 0a d9 85 3a
       0.00053227175 2.9260676e-05 4.1410593e-05 0.0010211777
000010 e2 f1 41 b9 72 2a 7f 38 1f a8 bd b8 72 fa 96 39
       -0.00018496023 6.0836268e-05 -9.043537e-05 0.00028796826
000020 23 aa 9c b9 3b b8 dc 38 8f 03 c8 39 b3 f3 6e b8
       -0.000298814 0.00010524733 0.00038149624 -5.6970584e-05
000030 26 ea 81 b8 25 b0 c6 b7 fc 3c 72 b8 bd 3c 97 38
       -6.194813e-05 -2.3685463e-05 -5.7754092e-05 7.2115545e-05
000040 7a 7e 76 b9 23 83 c8 38 11 14 1c 38 54 ce 27 b7
       -0.00023507504 9.561169e-05 3.7211987e-05 -1.0002015e-05
000050 4b 1f 50 ba 17 fa 0e 3a 03 3b 49 38 c2 23 ab 37
       -0.00079392333 0.00054541364 4.7977093e-05 2.040144e-05
000060 a1 a2 16 b9 dd ad 35 38 de a2 1d b8 d3 fd 37 b6
       -0.00014365699 4.3315686e-05 -3.75834e-05 -2.741687e-06
000070 1f 04 66 b8 87 45 b9 38 be da ce b9 a3 5a 08 3a
       -5.484011e-05 8.834438e-05 -0.00039454357 0.0005201494
000080 95 6c 46 b8 9a 9c 85 b4 cd a1 78 38 85 86 2c b9
       -4.7308004e-05 -2.4887123e-07 5.9278496e-05 -0.0001645331
000090 e6 e6 37 39 59 76 0f b9 f6 9e 73 38 eb b5 02 38
       0.00017538256 -0.0001368163 5.808376e-05 3.116384e-05
0000a0 d3 db 59 38 09 a9 8d 37 9f 59 46 b8 90 c4 e9 b8
       5.194156e-05 1.6887223e-05 -4.7290345e-05 -0.000111469184
0000b0 3c 8b 17 ba 6e bf 30 39 4a 28 60 ba ec 07 0c b9
       -0.00057809404 0.00016855981 -0.00085509254 -0.00013354392
0000c0 2d 39 a1 b8 ce 23 c2 b8 2e 2d 91 b9 42 bf ae b9
       -7.687728e-05 -9.25731e-05 -0.00027690217 -0.00033330364
0000d0 4d 4a 27 39 d3 e0 ce b8 2d 4f 26 39 74 b4 29 39
       0.0001595404 -9.864722e-05 0.00015860489 0.0001618432
0000e0 fa d9 e7 39 bd 3a 22 ba 65 96 96 38 b2 be bb b8
       0.0004422216 -0.0006188562 7.1805705e-05 -8.9523746e-05
0000f0 39 5c 36 39 1b 69 8b b8 ae 59 f0 b3 67 77 15 ba
       0.00017391228 -6.647614e-05 -1.11921835e-07 -0.0005701691
000100 cf 98 72 b9 c4 08 d0 37 94 e4 04 b9 9c d0 0b 39
       -0.00023135844 2.4799614e-05 -0.00012673653 0.00013333786
000110 d3 a6 e7 38 6f 53 a6 39 66 c8 66 b9 91 ee ae 38
       0.00011046012 0.0003172415 -0.00022009164 8.341403e-05
000120 7d 63 2e b9 db 14 93 39 fb 03 69 b9 87 a6 4e b9
       -0.00016630995 0.00028053563 -0.00022222094 -0.00019707727
000130 c3 34 7c 39 7e 27 ec 38 6f a3 ec 37 7d 73 3f 38
       0.00024052248 0.00011260713 2.8209497e-05 4.5645505e-05
000140 03 5e 8a 39 78 e4 75 b8 49 d3 62 b6 2f e2 8c 38
       0.00026391455 -5.862533e-05 -3.3799608e-06 6.71785e-05
000150 19 06 be 38 ad 1b d4 b8 80 3f ab 39 ba 89 9b 3a
       9.061042e-05 -0.00010114103 0.00032662973 0.0011866607
000160 49 4b 80 b6 10 d0 77 b9 83 8d 9e 38 fd bf 0d ba
       -3.8234616e-06 -0.00023633265 7.560386e-05 -0.00054073316
000170 51 8b 19 b9 6c eb 22 b9 d0 83 2f 39 77 01 de b9
       -0.00014643116 -0.00015537225 0.00016738405 -0.0004234423
000180 79 77 fd b7 18 37 16 b8 86 b9 42 b9 26 fc ad b8
       -3.0215584e-05 -3.5814097e-05 -0.00018570395 -8.296249e-05
000190 fa db 5a b8 36 90 a6 39 38 7b 93 39 48 84 8d 39
       -5.218012e-05 0.00031769433 0.0002812983 0.00026992173
0001a0 d0 ee 22 39 7d 49 95 38 50 24 51 b9 41 f9 0c b9
       0.00015538489 7.118562e-05 -0.0001994532 -0.00013444295
0001b0 45 20 57 39 9c 87 6b 38 db 42 d2 b7 c7 f9 89 b9
       0.00020516019 5.6154662e-05 -2.5065083e-05 -0.00026316775
0001c0 33 39 20 39 84 dd 5b b9 b3 59 18 b9 61 00 d6 39
       0.00015280097 -0.00020967989 -0.00014529265 0.00040817543
0001d0 5b 72 df 38 e7 e7 d9 38 c9 4b 6d 39 7e 43 9a b9
       0.00010654769 0.000103905615 0.00022630313 -0.00029423455
0001e0 3f a6 4e b7 ea c9 19 b9 99 db e1 37 f0 00 8d 37
       -1.2317264e-05 -0.00014666436 2.6924348e-05 1.6808946e-05
0001f0 82 93 98 39 b0 8a 3f 38 20 42 21 39 ba 09 51 39
       0.000291016 4.566711e-05 0.0001537879 0.00019935417

conv2.lin.weight f4 [128, 128]
000000 d9 c6 54 bd 27 cb 9b 3b 39 b4 e8 3d 63 e0 09 bd
       -0.05194745 0.0047544423 0.113625 -0.033661257
000010 51 bf cd 3c 00 41 e2 3d c1 0d 08 bd b8 c8 ce bd
       0.02511564 0.11047554 -0.03321624 -0.10096878
000020 9c 83 1a be 5c f5 0f be cf f4 19 bd a9 dc f4 3d
       -0.15089267 -0.14058441 -0.037586983 0.1195615
000030 db 5a be bd 55 2a 06 3e fe 03 13 bc 0c c3 f4 3d
       -0.09294673 0.13102086 -0.00897312 0.11951265
000040 35 12 5c bd 77 d3 b7 3c ad a2 0f be d9 83 b6 3d
       -0.0537283 0.022439701 -0.140269 0.08911867
000050 cc 40 10 3e d7 6e 08 3e 3f 8b c2 bd dc fd e3 bd
       0.14087218 0.13323532 -0.09499215 -0.11132404
000060 57 8b cd bd 13 1d d6 3d 7f 52 4f 3d d1 80 62 3d
       -0.100363426 0.10454764 0.050615784 0.05529863
000070 39 4e 9b 3d 29 05 28 bd 80 39 ea 3d a7 27 3b 3d
       0.07583279 -0.041020546 0.114367485 0.045692112
000080 02 16 cf 3d 60 80 26 bd fd 84 93 3c 40 0e ae bd
       0.101116195 -0.04064977 0.01800775 -0.08498812
000090 75 66 1b 3d 69 01 ec bd ed 35 0b 3d 35 fa 50 bd
       0.037939508 -0.115237065 0.033986975 -0.051019866
0000a0 fb ec 97 3c 99 91 03 3e 16 80 ac bd 08 63 06 be
       0.018545618 0.1284851 -0.08422868 -0.13123715
0000b0 40 ef 53 3d f1 b1 0e bd b5 32 de 3d 34 22 90 3c
       0.05174184 -0.034837667 0.10849515 0.017594434
0000c0 23 c1 bb bd f4 75 e7 bd 83 b4 08 bd 8c 6c d8 bd
       -0.09167697 -0.11301795 -0.033375274 -0.10567579
0000d0 6d 5f 00 bd 2f ee 2d 3b df 6a 1e 3c 09 bd c0 bc
       -0.031341005 0.0026539674 0.009669035 -0.023527639
0000e0 5b cd 10 bd c2 0e 73 3b 56 86 e9 bd 3c 1d 10 be
       -0.035352092 0.0037087654 -0.11402576 -0.14073652
0000f0 16 ff 87 3d 4b c7 11 be cd f4 34 bd 66 b6 1a be
       0.06640451 -0.1423618 -0.044178773 -0.15108642
000100 8b 8c c8 bd 42 73 e8 3d d6 e1 08 be 53 50 01 3e
       -0.097924314 0.11350109 -0.133674 0.12628298
000110 8d ec f9 3c 06 f4 06 3b b8 82 11 3e 24 8f a9 bd
       0.030508304 0.0020592227 0.14210021 -0.08279255
000120 0c 47 aa bc ec f3 da 3c 52 1a c8 3d 2f e1 8a bc
       -0.02078583 0.02672764 0.09770645 -0.016953079
000130 d7 be 6d bd a4 7c 9c 3c 3c 60 1f be 04 8a d6 3d
       -0.058043327 0.019102402 -0.15564054 0.10475543
000140 cf ca 0f be cd 7f f2 3d 5e cc a8 bd df e3 b6 bc
       -0.14042209 0.11840782 -0.08242105 -0.022325454
000150 81 8b 5e bd 20 95 b3 bd f9 22 21 bd b8 26 69 3d
       -0.05433226 -0.08768678 -0.039339993 0.05692169
000160 ba 76 83 bb 66 30 8f 3d 67 b7 d2 3c 79 72 88 bc
       -0.004011956 0.06991653 0.025722219 -0.016656147
000170 98 de 84 3d 4c 30 15 be ca 1b 0a 3e c2 2c 24 bd
       0.06487769 -0.14569205 0.13487163 -0.040081747
000180 40 88 69 bd 3b 93 04 be 7f 79 ed bc 4e 62 70 3d
       -0.057014704 -0.12946789 -0.028988598 0.0586875
000190 1f 2d 3a 3d 36 c0 7c 3d eb 0c c4 3d e9 55 31 bd
       0.045453187 0.061706744 0.095727764 -0.04329482
0001a0 04 5a ad 3c 3d 7a 9e 3d 83 d1 e1 bd 97 3c 09 bd
       0.021161087 0.07738159 -0.11026289 -0.03350505
0001b0 d8 f8 81 bd ac 53 1c 3d b2 8c 39 3d 5f 43 47 bc
       -0.06346291 0.038165733 0.045300193 -0.012162059
0001c0 fb 6f 78 3d 46 a3 b9 3d 0c d5 04 3d e7 ef 17 bd
       0.060653668 0.09064345 0.03242974 -0.037094023
0001d0 67 0b b6 bd 3d e3 22 3d d4 ca 89 3d f3 2c 06 3e
       -0.088888936 0.039767493 0.067281395 0.13103084
0001e0 ae 31 d6 bd dc 32 87 bc d4 b9 fe bd a7 52 ea bd
       -0.104586944 -0.016503744 -0.12437788 -0.11441546
0001f0 85 b1 65 bc dc 79 0f bc be f2 ab bc 98 40 c0 3d
       -0.014019375 -0.008757081 -0.020989772 0.0938732
000200 f8 ce e4 bd cd b5 ed 3a 7f 49 02 3e bd 44 09 be
       -0.11172289 0.0018135846 0.12723349 -0.13405128
000210 91 28 7a bd 83 93 a4 3c 1a b9 bf 3d 1c bc b2 3d
       -0.061073843 0.02008987 0.09361477 0.08727285
000220 7e 5d 3b bd 2c a3 75 bd 58 f3 fc 3c 04 20 f6 3d
       -0.045743458 -0.059970066 0.030877754 0.12017825
000230 f2 3b 94 3b ee 75 5b 3d 10 20 51 3b 04 03 5c 3c
       0.0045237476 0.053579263 0.003190998 0.013428453
000240 aa 63 0f 3e 8e f8 f0 3d b9 95 24 bd 7c bb aa bd
       0.14002863 0.11766158 -0.04018185 -0.08336541
000250 30 2a 16 3e ff 0c d1 bd 5d f7 c3 3d 8a b7 d4 bd
       0.14664531 -0.10207557 0.09568665 -0.1038657
000260 82 f9 94 3c bb 8c 1d be 4a 56 6e bd a8 34 f8 bc
       0.01818538 -0.15385716 -0.05818776 -0.030298546
000270 3e 18 04 3e cb 69 c1 bd 3f ba 05 3e 8a dc 6a 3b
       0.12899873 -0.094440065 0.13059328 0.0035837018
000280 29 a6 fa 3c be e4 e4 bc 6a 6d f2 3d ff 21 25 bd
       0.03059681 -0.027941104 0.11837275 -0.040315624
000290 3a f5 a2 3b da cd 01 be 56 2f b9 3d 7c bf f8 ba
       0.004973081 -0.12676182 0.09042232 -0.0018977965
0002a0 8a 63 ab 3d cc d1 b8 bd 4b c0 7a bd 68 9a 58 bd
       0.08368595 -0.090243906 -0.06121854 -0.05288163
0002b0 29 b6 bb bd 27 1a c7 3d b2 8e a4 bc d7 49 92 bc
       -0.09165604 0.09721785 -0.020087574 -0.017857475
0002c0 82 9e 0a 3c 33 b4 10 3d 94 26 28 3c 15 9d 7a 3b
       0.008460643 0.0353281 0.010263104 0.00382406
0002d0 d4 82 17 3d 33 b6 b8 bd 8d 7d ed bb ec a1 a2 bd
       0.03699 -0.09019127 -0.007247633 -0.079410404
0002e0 15 ec 0a be e4 d9 0a 3e e4 1a 02 be 90 48 7a bd
       -0.1356662 0.13559681 -0.1270557 -0.061104357
0002f0 65 b1 0a bd fc 86 f3 3d 50 29 82 bc 90 ff 09 be
       -0.033860583 0.118909806 -0.01588884 -0.13476396
000300 d1 66 cf bd 9c 41 bd 3d 3e 42 83 3d 7e 0f 46 3c
       -0.101270325 0.092410296 0.06409119 0.012088655
000310 9a 19 d5 3d 8c c0 8f bd 4e ec dc 3d 74 c5 2a bd
       0.10405274 -0.07019147 0.10787259 -0.041692212
000320 3b f3 02 be 63 46 b1 bd 5b 1d 92 3d 85 68 d4 bd
       -0.12788098 -0.08656003 0.07134505 -0.10371498
000330 da b4 d0 bd 4b 2c 04 3e 2a 3a 95 bd c7 ba 13 be
       -0.10190745 0.12907521 -0.072864845 -0.14426719
000340 4e e7 0e 3e c6 da ce 3d d1 dd f3 3d 86 31 1b 3d
       0.13955423 0.101003215 0.119075425 0.037889026
000350 d1 f6 19 be 40 74 89 bd 70 39 f6 bd 50 98 01 3d
       -0.15035559 -0.06711626 -0.12022674 0.031639397
000360 75 5c c9 bd 4e fb 0d be dd 30 f9 bd 77 e1 14 3c
       -0.09832088 -0.13865396 -0.12167523 0.009086958
000370 cd 5b cf bd ed dd f1 bd 54 97 10 3e c5 ac 17 be
       -0.101249315 -0.11809907 0.14120227 -0.14812
000380 59 74 17 3d 08 52 11 3e 47 df b4 3d ed 93 0b 3c
       0.036976192 0.14191449 0.08831649 0.008519155
000390 54 8c 6f 3d 1e e5 81 3d 72 79 00 3e d2 2f df 3a
       0.058483437 0.06342529 0.12546328 0.0017027801
0003a0 5f 5a d5 bd 6f 0d 01 3e 4e 57 b7 bd 50 be 1d bd
       -0.104176275 0.12602781 -0.08952199 -0.038511574
0003b0 ea c6 10 be 75 3b d5 3d 4a d0 ae bc ba 62 66 bd
       -0.1413838 0.10411731 -0.021339554 -0.056246497
0003c0 4a cc d9 ba 4d a4 59 bd 47 41 e9 3d eb 93 22 be
       -0.0016616669 -0.053135205 0.11389404 -0.15876739
0003d0 30 b4 0b be 78 24 fd bd c5 4f bf bc 8e 2a c2 bd
       -0.13642955 -0.123604715 -0.023353467 -0.09480773
0003e0 71 97 9d bd 60 5e bf 3d ff a1 bb 3d 95 f2 29 3d
       -0.07694901 0.093441725 0.09161758 0.04149111
0003f0 d3 98 fc 3c 8f 75 84 3d 53 f5 24 3d 29 25 48 3d
       0.030834591 0.06467735 0.040273022 0.048863564

batch_norm2.weight f4 [128]
000000 9e c7 7e 3f 87 cf 7f 3f 95 c0 7c 3f 58 68 80 3f
       0.9952334 0.99926037 0.98731357 1.0031843
000010 5a 18 80 3f 3b 00 7d 3f 0d b7 7f 3f d2 bb 7e 3f
       1.0007432 0.98828477 0.9988869 0.9950534
000020 3b 84 80 3f 04 da 80 3f 7f f3 7e 3f 87 49 7f 3f
       1.0040354 1.0066533 0.99590296 0.9972157
000030 df 49 80 3f 29 12 7d 3f d8 f5 80 3f 53 91 7d 3f
       1.0022544 0.98855835 1.0075026 0.9904987
000040 53 61 80 3f 6d 2c 81 3f cf f0 7d 3f 58 2a 81 3f
       1.0029701 1.0091683 0.9919557 1.0091047
000050 bd 56 7e 3f 6a e4 7f 3f 84 6a 81 3f a2 13 80 3f
       0.993511 0.9995791 1.0110631 1.0005991
000060 8e c2 81 3f ff a1 7b 3f 3c 96 80 3f 75 f0 7d 3f
       1.0137498 0.9829406 1.0045848 0.99195033
000070 ed 1c 80 3f 19 e2 7d 3f 7f 9f 80 3f d5 73 81 3f
       1.0008827 0.9917312 1.0048674 1.0113474
000080 af 32 82 3f 1d f2 7f 3f 20 93 7f 3f 7c 1f 81 3f
       1.0171717 0.9997881 0.9983387 1.0087733
000090 16 b8 7f 3f d2 7d 81 3f bd 7f 80 3f 1c 9b 7d 3f
       0.9989027 1.0116522 1.0038983 0.99064803
0000a0 6f 24 81 3f 19 00 7e 3f e3 3b 80 3f 0e e2 7f 3f
       1.0089244 0.992189 1.0018276 0.9995431
0000b0 1a f9 80 3f 63 32 7e 3f 27 92 80 3f 47 1d 7f 3f
       1.007602 0.99295634 1.0044602 0.9965405
0000c0 8e b9 7e 3f df 06 81 3f 6d 81 7c 3f 09 cb 7c 3f
       0.99501884 1.0080222 0.9863499 0.9874731
0000d0 60 3f 80 3f 3b cd 80 3f 46 e5 7c 3f 79 61 7b 3f
       1.001934 1.0062631 0.98787344 0.98195606
0000e0 5c ca 7f 3f 0e ba 80 3f d0 e0 81 3f eb 5f 7b 3f
       0.9991815 1.0056779 1.0146732 0.98193234
0000f0 1c 44 7e 3f 21 28 80 3f ef 19 80 3f e1 37 7c 3f
       0.99322677 1.0012246 1.0007914 0.98522764
000100 da 2f 81 3f 34 5a 7d 3f 0c ea 81 3f d4 d0 81 3f
       1.0092728 0.98965764 1.014955 1.0141854
000110 d5 b8 7d 3f cc 4c 81 3f d8 f7 7c 3f bb 19 80 3f
       0.99110156 1.0101562 0.9881568 1.0007852
000120 ab 82 80 3f 54 ba 7c 3f 3a ef 7d 3f 85 63 80 3f
       1.0039877 0.98721814 0.99193156 1.0030371
000130 38 f1 7e 3f 4e 01 7d 3f 5b b2 7a 3f d1 7c 80 3f
       0.9958682 0.98830116 0.979284 1.0038091
000140 2b 48 81 3f af ce 7f 3f 68 23 7e 3f 8a ed 7e 3f
       1.0100149 0.9992475 0.99272776 0.99581206
000150 0c 7f 7d 3f 28 2c 80 3f c6 6b 7f 3f 73 4f 80 3f
       0.99021983 1.0013475 0.99773824 1.0024246
000160 b2 b5 81 3f f7 f0 7c 3f ff a7 7d 3f da 58 80 3f
       1.0133574 0.98805183 0.99084467 1.0027115
000170 20 37 81 3f 3a 7e 81 3f 30 f8 80 3f 39 64 7f 3f
       1.0094948 1.0116646 1.0075741 0.997623
000180 ec 98 80 3f d5 3c 80 3f a9 2c 82 3f de cd 7d 3f
       1.0046668 1.0018564 1.0169879 0.99142253
000190 31 aa 80 3f fc 20 7d 3f b2 77 80 3f 05 84 7d 3f
       1.0051938 0.98878455 1.0036528 0.9902957
0001a0 f3 76 7d 3f 32 5a 7f 3f 42 2b 81 3f 51 b9 80 3f
       0.9900963 0.99747 1.0091326 1.0056554
0001b0 09 cf 7f 3f 7b fe 7f 3f ca 88 81 3f fc e4 7b 3f
       0.99925286 0.9999768 1.011987 0.9839628
0001c0 31 af 7d 3f b9 97 7a 3f d8 55 80 3f 61 af 7c 3f
       0.99095446 0.9788776 1.0026197 0.98705107
0001d0 8d ad 80 3f 57 3c 80 3f 59 5d 7f 3f ec 5d 7f 3f
       1.0052963 1.0018414 0.9975181 0.9975269
0001e0 ab 5f 81 3f b1 d2 7b 3f 14 91 80 3f 74 16 82 3f
       1.010732 0.98368365 1.0044274 1.0163102
0001f0 43 b3 7d 3f 77 36 7e 3f 7a 3f 81 3f 0b d5 7b 3f
       0.99101657 0.99301857 1.0097497 0.9837195

batch_norm2.bias f4 [128]
000000 47 85 49 bb ea 54 6a bb 99 ef 28 bc ec da 25 bb
       -0.0030749606 -0.003575618 -0.010311031 -0.002530749
000010 0d 3f 34 ba 9f 8e fb bb 90 89 d0 ba e3 a2 16 bb
       -0.00068758504 -0.007676914 -0.0015910137 -0.0022985272
000020 94 df 48 bb df 3c eb 3a 8c 58 0b 3b fa 00 db 3a
       -0.003065084 0.0017947218 0.0021262495 0.0016708665
000030 7e 05 c7 3b ea 07 51 bc c8 4f c0 3b 61 63 0d bc
       0.0060736528 -0.0127582345 0.0058688857 -0.008629651
000040 30 ff bb bb a5 17 79 3b a8 12 19 bc fe 21 e6 3a
       -0.005737208 0.0038008478 -0.009342827 0.0017557738
000050 d7 33 1f bb 54 31 82 3a 8f 9d 4b 3c e7 5b 24 bb
       -0.0024292374 0.0009932914 0.012427702 -0.0025079192
000060 14 f7 4a 3c 2d c5 92 bc 56 79 78 ba a7 5c 38 bc
       0.01238801 -0.017916286 -0.00094785297 -0.011252559
000070 ef 4f d8 3b b2 dc 37 bc c7 1d 8b 3b c9 cb 4e 3c
       0.0066013257 -0.011222051 0.004245493 0.012621828
000080 3f 4c 04 bb 64 4f 32 bc a8 8b 4d ba 1a c6 d0 b9
       -0.0020187048 -0.010883186 -0.000784094 -0.0003982045
000090 00 db 35 35 9e 89 59 3c 18 2a 7c 3b c0 02 27 bc
       6.774644e-07 0.013277439 0.0038477238 -0.010193527
0000a0 60 3b 8f 3b d4 da 11 bc b9 47 b5 bb 4d 79 f7 ba
       0.0043710917 -0.00890227 -0.0055322316 -0.0018880755
0000b0 1d 5a 18 3a a6 3d 38 bb db 46 ed 3b 80 ae 40 b9
       0.0005811768 -0.0028112917 0.0072411126 -0.00018375553
0000c0 09 fe a6 bb 6a 34 4c 3c 6f 53 11 bc 68 02 90 bc
       -0.0050962013 0.012463668 -0.00886999 -0.017579272
0000d0 15 f2 e3 bb c3 b6 04 3c 95 4a 6a bc 62 e8 1b bc
       -0.0069563487 0.008100214 -0.014300008 -0.009515854
0000e0 1c 6b 25 bc 17 02 00 bc 1b 4f 81 3c 7a 59 a4 bc
       -0.010096338 -0.007812998 0.01578479 -0.020062197
0000f0 2f 32 58 bb 28 a3 d2 39 d8 30 04 bb 71 59 72 bc
       -0.0032988896 0.00040175882 -0.0020170715 -0.014791832
000100 12 29 91 3b ad ad 52 bc 5d b3 a2 3c ca 69 2c 3c
       0.004429945 -0.01285879 0.019860918 0.010523269
000110 69 f1 5f bc ee 5c 76 3c 48 72 4c bc 16 5a c7 3b
       -0.0136683965 0.015036805 -0.012478419 0.006083737
000120 20 8e 97 3b 1a 75 8b bc 5b 94 a7 bb 9f fe 6a bb
       0.004625097 -0.017023612 -0.005114121 -0.0035857332
000130 62 84 f4 bb 08 ed 68 bc a5 66 8d bc ca 63 ba ba
       -0.0074620703 -0.014216669 -0.017260859 -0.0014220413
000140 ac 99 37 3b 17 09 1e ba ff 29 64 bb b6 58 e4 bb
       0.002801518 -0.0006028576 -0.003481507 -0.006968583
000150 3c 3a 61 bc 06 78 1c ba eb 6b 63 bb 93 77 b1 bb
       -0.013746794 -0.00059688126 -0.0034701775 -0.0054158657
000160 fc 5b 8c 3b 30 1b 1b bc 76 6c 08 bc b8 ba 11 3a
       0.0042834263 -0.009466931 -0.00832664 0.00055591343
000170 7f 67 10 3c 15 6e 31 3c ab 89 41 3b 08 15 80 3a
       0.008813738 0.010829468 0.002953152 0.0009771893
000180 de a5 8d 3a 73 ad 9e 3a 86 9a 8f 3c 5b 96 f2 bb
       0.0010806879 0.0012106135 0.017529737 -0.0074031777
000190 fd b6 c4 3b e2 cb 3b bc 14 a7 a9 3b fa e0 aa bb
       0.006003259 -0.011462184 0.005177388 -0.0052148076
0001a0 c6 84 c1 bb e7 44 89 bb 06 57 4a 3c 89 07 d4 3b
       -0.0059057204 -0.004189122 0.01234985 0.006470625
0001b0 9e f0 6c ba 12 de ef ba 58 1a 44 3c 4c cc 5e bc
       -0.00090385403 -0.0018300435 0.011969171 -0.013598513
0001c0 fe 90 c3 bb e5 7c 2f bc 5d ea 36 3c aa 10 85 bc
       -0.005968212 -0.0107109295 0.011164275 -0.016243298
0001d0 71 5e 3b 3b 5d 55 2e 3a b0 f8 a6 3b 4f e6 80 bb
       0.0028590227 0.00066502934 0.005095564 -0.003933705
0001e0 0f 74 af 3b ad 13 c3 bc 51 c9 3b 3a 43 c1 5e 3c
       0.0053544114 -0.023813093 0.00071634824 0.013595882
0001f0 eb 4e 49 bc f5 f7 04 bc ad dd 48 3c 76 9c 83 bc
       -0.012286882 -0.008115758 0.012259883 -0.016065817

batch_norm2.running_mean f4 [128]
000000 03 b2 b9 be de 00 8a be 0a 06 e8 be f7 ac cd 3e
       -0.36268625 -0.26953787 -0.45317107 0.40171024
000010 cc 21 12 bf d1 1f 45 be ef da c8 bc a6 0d 42 bf
       -0.5708282 -0.19250418 -0.024518458 -0.75802076
000020 5f 67 77 3f ce 88 ae 3e 71 13 a2 be 8d 5c 68 be
       0.96642107 0.3408875 -0.31655458 -0.22691555
000030 61 76 5a 3f ab a4 1b bf 30 5c 0b bf f4 a2 97 3e
       0.8533688 -0.6079814 -0.5443754 0.2961651
000040 20 cd 1a bf 42 a6 89 3e b2 99 13 bf 21 4d 18 3e
       -0.60469246 0.26884657 -0.57656395 0.14873172
000050 9d 81 c8 be 7a 47 2a 3f fd 0b ed 3e 74 fd 4e bd
       -0.39161387 0.66515315 0.4629821 -0.05053468
000060 04 03 9d bd 42 b9 2c 3e 22 aa 01 bc dc 22 a8 bc
       -0.07666591 0.16867545 -0.007914098 -0.020524435
000070 74 ca 2e 3e eb cc e0 3e a1 73 d6 be d4 0c cb 3e
       0.17069417 0.4390634 -0.41885093 0.39658225
000080 bc 97 f6 bb 46 1b 07 3e df 71 a2 bd 6b 23 c4 be
       -0.0075254124 0.13193998 -0.079318754 -0.38308272
000090 b8 f3 03 3f 03 49 63 bd 28 c7 ca be 3e 14 ce be
       0.5154376 -0.05548955 -0.3960507 -0.4024982
0000a0 0a d0 19 bd be ce 74 3e 50 ff 64 be d2 53 b7 3e
       -0.037551917 0.23906991 -0.22363019 0.35806137
0000b0 f3 9a 72 be 76 c6 13 bf b3 42 52 bf bb 40 97 be
       -0.23691921 -0.577247 -0.82133025 -0.29541573
0000c0 a5 ef ed be 31 60 99 3d 54 96 a2 3e a7 43 36 bf
       -0.46471897 0.0748905 0.31755316 -0.7119698
0000d0 98 55 f0 bd a2 b8 ab 3d 93 0a 68 3e d4 68 cd 3e
       -0.11735076 0.08384825 0.22660284 0.4011904
0000e0 40 86 66 be 83 d1 ef 3d da b4 09 bf 48 59 d8 3e
       -0.2251215 0.11709883 -0.5379158 0.42255616
0000f0 ca cb e4 3d 98 71 1a 3f 1b f8 8b bc 82 2c 86 bd
       0.11171682 0.6032958 -0.01708608 -0.06551458
000100 b2 9b 39 3d 10 a6 e5 be ca 74 0b 3e f0 20 93 bd
       0.0453145 -0.44853258 0.1361877 -0.07184017
000110 b3 3d 06 bf df 62 19 3f 10 8f fa 3c 66 11 fe 3e
       -0.52437896 0.5991649 0.030585796 0.4962265
000120 c4 a5 10 3f 8f ed 9b bd 2c 37 9c 3d 3c 66 33 bf
       0.5650294 -0.0761367 0.07627711 -0.7007787
000130 81 9c 2c 3e 9f 55 5b bd 7e 68 14 3f f2 f6 c5 be
       0.16856577 -0.05354845 0.5797194 -0.38664967
000140 89 85 9b be 29 62 5c be a4 3b ba 3e c6 1d 5f bf
       -0.30375317 -0.2152182 0.36373627 -0.87154806
000150 5e bf 8c bd 92 fe 6d 3f 58 cd 36 bc cb f9 6d 3f
       -0.06872438 0.9296657 -0.011157356 0.9295928
000160 d9 22 d5 3e ed cd 85 bd 16 1d 9e be 6d 19 ac bc
       0.4162815 -0.06533418 -0.30881566 -0.021008218
000170 9e 41 51 3e d7 ac c8 3e 0f c7 56 bf c7 60 00 be
       0.20435187 0.39194366 -0.8389749 -0.12536918
000180 75 23 47 3f 21 2e 2f 3e 08 c2 0a 3f df 6b b3 3e
       0.7778848 0.1710744 0.5420232 0.35043237
000190 fa 50 9b bd e4 c9 2b be 3f 71 a1 3e 55 be 76 3e
       -0.075838044 -0.16776234 0.31531712 0.24096043
0001a0 5f 6f 59 3f 86 06 ca bd b8 40 60 3b 06 96 22 3f
       0.84935564 -0.098645255 0.0034218263 0.6351017
0001b0 eb 3a 41 3e 9d 9f 3c 3e c3 c5 96 bf 58 a4 52 bd
       0.18870132 0.18420263 -1.1779102 -0.05142626
0001c0 f8 86 4c 3d e0 f9 06 3e 41 82 38 3e dc 85 2e be
       0.049933404 0.13181257 0.18018438 -0.17043251
0001d0 cd 3a 50 3d 18 a5 79 3e 9c 6b ca 3d 82 3d f5 bd
       0.050837327 0.24379385 0.09883806 -0.11974622
0001e0 f4 4c e1 bd 60 43 6e 3f cc 92 7f 3e 2b ec 6f 3f
       -0.11001006 0.93071556 0.24958342 0.9371974
0001f0 e6 d2 d0 3e 93 c7 4f 3e e3 4d bc be 7d 7a 34 3e
       0.40785903 0.20290975 -0.36778173 0.1762485

batch_norm2.running_var f4 [128]
000000 11 17 30 3e 42 64 c8 3e 28 94 25 3e 13 dc b3 3d
       0.17196299 0.3913899 0.16169798 0.0878221
000010 9b bd 21 3e 71 f6 3c 3d 18 01 0f 3e 88 14 cf 3d
       0.15794985 0.046133462 0.13965261 0.10111338
000020 f8 b7 6e 3e 3c 4c 12 3f 66 2b 87 3e 65 8f 80 3e
       0.23312366 0.57147574 0.26400298 0.251094
000030 54 22 2a 3e 51 7b 4f 3d 29 47 e0 3e 8f 0c 27 3e
       0.16614658 0.050654713 0.4380429 0.16313384
000040 c6 d7 aa 3e b7 9e 13 3f 8d c6 80 3e 0a ab 89 3e
       0.33367747 0.57664055 0.25151482 0.26888305
000050 8d 8b 9c 3e e2 e9 e1 3d 94 1c df 3d 57 d4 8a 3e
       0.3057522 0.11030938 0.10894123 0.27115127
000060 f3 86 fe 3c 98 d0 57 3e c8 5c b8 3d 54 6e f3 3d
       0.031070208 0.21075666 0.090020716 0.11886278
000070 01 b8 3b 3e d1 37 ab 3d eb 97 6a 3e 3f 23 4d 3e
       0.1833191 0.083602555 0.22909515 0.20032977
000080 ea 7d e8 3d 0e 80 46 3e 82 25 74 3e 8b a6 fa 3e
       0.11352141 0.19384786 0.23842433 0.48955187
000090 6f 7f 37 3e 95 3e 6b 3f 72 bb 32 3d 19 1c 83 3e
       0.17919706 0.9189237 0.043635793 0.25607374
0000a0 91 9a c8 3e 33 a7 d0 3d f4 38 b9 3c 9d f2 b3 3e
       0.39180425 0.10188141 0.022610165 0.35146037
0000b0 ab 42 ef 3d 4b 07 29 3f af 78 7c 3d 2a 1b 86 3d
       0.11682638 0.66026753 0.06163853 0.0654815
0000c0 14 2f d4 3e c3 6f dc 3d 5d 48 65 3d 95 dd 07 3f
       0.41442168 0.10763504 0.055977214 0.5307248
0000d0 5e b4 34 3e 6c be 1a 3f 8e 46 81 3e 59 55 ec 3e
       0.1764693 0.6044681 0.2524914 0.46158865
0000e0 40 ec d0 3c 1e 5e aa 3e eb 7e 92 3e 75 0d 87 3d
       0.025503278 0.3327493 0.28612456 0.065943636
0000f0 2c cf c7 3e 3f 33 00 3e b9 a5 83 3e 5c be 17 3e
       0.39025247 0.12519549 0.25712374 0.1481871
000100 de 3f 60 3f af a2 88 3e ec d4 46 3d 8e cc 85 3e
       0.87597454 0.26686618 0.048542902 0.26132625
000110 93 0a ae 3e ac 18 75 3d 7d 4d b2 3d 30 e7 72 3d
       0.33992442 0.059837982 0.08706186 0.05930251
000120 64 3c 1c 3e 0f 68 1c 3d 97 fd 7b 3d 90 62 40 3d
       0.15257412 0.038185176 0.06152114 0.046968997
000130 bf 58 87 3d c6 67 31 3e 1f ce 4b 3d 29 93 3f 3e
       0.06608724 0.17324743 0.04975712 0.18708481
000140 88 bf 6a 3e 84 fd f3 3d db 70 c8 3d 54 d4 9b 3d
       0.22924626 0.11913589 0.097871505 0.07608858
000150 f1 25 1d 3f dd 51 cc 3e 45 7a 80 3d 15 75 2c 3e
       0.6138602 0.39906207 0.06273321 0.16841538
000160 57 59 76 3e 27 bf 5c 3e c8 fd 0b 3e 0d 6f d8 3e
       0.24057518 0.21557294 0.13671029 0.42272225
000170 5b ea 31 3e 7d b8 ab 3d 9b 30 25 3e 6d 63 25 3e
       0.17374556 0.08384798 0.16131823 0.16151209
000180 04 34 78 3e 3b 56 8f 3d 25 e3 6a 3d fd f6 1c 3f
       0.24238592 0.06998869 0.05734553 0.61314374
000190 06 af 91 3e 43 8b af 3d 93 da 4a 3f 87 bf f0 3e
       0.28453845 0.08571484 0.7923977 0.47021124
0001a0 04 ac b9 3d 77 51 90 3e a7 58 a2 3d 3b cb 90 3e
       0.090660125 0.28187153 0.07927065 0.28280053
0001b0 42 2c 86 3e a8 c6 7b 3f 86 e9 aa 3f e7 c5 2f 3d
       0.2620564 0.9835 1.3352516 0.042913344
0001c0 68 ac ef 3d 1c 7c 85 3d f9 08 02 3e cb f2 8b 3e
       0.11702806 0.065178126 0.12698735 0.27333674
0001d0 96 51 a1 3e 91 c6 9c 3d f0 81 f5 3e 35 a0 9b 3d
       0.31507558 0.07655061 0.47950697 0.075989164
0001e0 a6 e9 82 3e ed 68 a5 3d cf 3d 48 3e 3a 60 da 3e
       0.25568885 0.08076654 0.19554828 0.4265154
0001f0 44 a8 13 3f a1 02 d3 3e 69 dc 1c 3d 46 cb 12 3e
       0.5767863 0.41212943 0.038296137 0.14335355
