agent_0_gcn.pth (torch, 147323 bytes, 18 tensors)

conv1.bias f4 [128]
0.00031218526 -0.0026253478 0.0033887792 0.0015128015 -0.0043290546 -0.0031911773 -0.012068197 -0.002585161
-0.0007232637 0.0019724641 -0.00078789477 -0.005415118 -0.004473353 -0.012090713 -0.0068965238 -0.0002627656
0.0013486375 0.0071992516 -0.0020062262 0.0046518315 0.004479073 0.00035040942 0.01028548 0.0021703609
0.014096589 -1.3138156e-06 0.011273426 -0.0017085932 0.0011409683 0.0011175834 -0.012123352 0.0028878297
-0.015917342 -0.0009867873 -0.002624545 0.0020917056 -0.00599446 0.0007570056 0.004582783 0.009180374
-0.000957544 -0.003148226 0.0014497304 0.0029761181 0.0007131314 0.0028723928 0.003186872 0.00447514
0.0110889245 0.0076090256 0.007735462 -0.0068391166 0.0024911785 0.00081469683 -0.0015082151 0.0017304844
-0.00034273986 -0.0066762944 0.0073042237 -0.002856541 -0.0029063479 -0.0014262134 0.0111414995 0.005346714
0.010516847 0.0010090424 0.0013830916 -0.0028712424 -0.0036883035 -0.0010337407 0.002612834 0.0017663129
-0.0018053192 0.0075637572 0.0063559012 0.00073974836 -0.0033658806 -0.005085246 -0.0049441247 0.00018391591
0.0043928856 0.00669802 0.0047240276 0.004180099 0.0026127906 0.012040526 0.0065997615 -0.001168993
0.01366731 -0.003000232 0.00066636736 0.00061041553 0.0007943168 0.0088886265 -0.00516797 -6.423482e-05
0.0015032447 0.0035427182 0.011024966 -0.010579753 -0.0025041136 0.0011362035 -0.0075368555 -0.0050471476
0.0037953944 0.0019234908 -7.19376e-05 -0.0008878929 0.0027406884 0.006615675 -0.0024153946 -0.014650036
0.0038606895 0.002999253 -0.003060046 -0.014291375 0.003717434 -0.0019058825 0.004082311 0.002541936
-0.0007411386 0.0017144908 0.0049060625 0.00038240867 0.0010245106 -0.0039023492 -0.00019824957 0.004771347
00000000: ccac a339 070e 2cbb 4816 5e3b 3249 c63a
00000010: beda 8dbb 1223 51bb b0b9 45bc ce6b 29bb
00000020: 6899 3dba 7544 013b b98a 4eba 4d71 b1bb
00000030: 3495 92bb 2018 46bc 3cfc e1bb cdc3 89b9
00000040: c4c4 b03a b3e7 eb3b e47a 03bb 646e 983b
00000050: 30c5 923b 28b7 b739 6e84 283c 9d3c 0e3b
00000060: 61f5 663c 5c56 b0b5 2db4 383c e0f2 dfba
00000070: 8b8c 953a e07b 923a 06a1 46bc be41 3d3b
00000080: 1665 82bc 1657 81ba 8f00 2cbb ff14 093b
00000090: 2d6d c4bb c971 463a 2c2b 963b 4869 163c
000000a0: b103 7bba 7852 4ebb e104 be3a fa0a 433b
000000b0: 70f1 3a3a c13e 3c3b d7da 503b 32a4 923b
000000c0: 52ae 353c 2255 f93b c279 fd3b ab1a e0bb
000000d0: 0a43 233b 6191 553a 4daf c5ba 6cd1 e23a
000000e0: c4b1 b3b9 d1c4 dabb 4558 ef3b ce34 3bbb
000000f0: 6d78 3ebb c8ef baba d68a 363c 7d33 af3b
00000100: da4e 2c3c d841 843a da48 b53a 742b 3cbb
00000110: 77b7 71bb 957e 87ba 153c 2b3b a083 e73a
00000120: 76a0 ecba 65d9 f73b 2a45 d03b aceb 413a
00000130: 1b96 5cbb 23a2 a6bb 5302 a2bb 8dd9 4039
00000140: 32f2 8f3b 107b db3b 04cc 9a3b 36f9 883b
00000150: 5a3b 2b3b a045 453c d042 d83b e538 99ba
00000160: daec 5f3c 8a9f 44bb 28af 2e3a 4b04 203a
00000170: b339 503a 9aa1 113c 1358 a9bb ceb5 86b8
00000180: 8608 c53a f32c 683b 0fa2 343c b356 2dbc
00000190: 0e1c 24bb aaec 943a baf7 f6bb 8b62 a5bb
000001a0: 27bc 783b a41d fc3a 34dd 96b8 7cc1 68ba
000001b0: 1f9d 333b 4ec8 d83b 994b 1ebb b406 70bc
000001c0: 9f03 7d3b 1e8f 443b 0d8b 48bb 5f26 6abc
000001d0: 31a0 733b cece f9ba e8c4 853b 9c96 263b
000001e0: f848 42ba c4b8 e03a 09c3 a03b 067e c839
000001f0: df48 863a 8ebe 7fbb 37e1 4fb9 f658 9c3b

conv1.lin.weight f4 [128, 3]
-0.067525916 -0.10797051 0.06320996 0.032397177 -0.062958986 -0.028982783 -0.21883112 -0.059647977
0.17456153 -0.06314228 0.21637943 -0.13918762 -0.1971474 -0.20709914 -0.08388247 -0.011382371
0.17923102 0.02596821 -0.10875321 -0.15458022 0.036467616 -0.051483385 -0.20451526 0.17835821
-0.18667187 -0.104011774 0.10473683 -0.027554577 0.09456281 -0.22093289 0.06157534 0.06326061
0.051779844 0.1850446 -0.0063297334 0.19485283 -0.075848565 0.1271845 0.18055409 -0.12334768
0.19940944 -0.13459986 -0.1439963 -0.00051443337 -0.03517041 0.18325868 -0.015050112 0.19665074
0.11471043 -0.24636427 0.06771702 -0.005042236 0.23198526 0.015444724 0.0055996203 0.19161876
-0.090644255 0.15022624 0.10856236 -0.041428637 -0.16325653 -0.07087233 -0.074125335 0.1669219
0.04832772 -0.19860056 0.16884667 -0.113909066 -0.012858859 0.12936148 0.17354438 0.04149823
-0.14303717 0.10102425 -0.099252425 -0.07511779 0.15904595 0.10069499 -0.006089727 0.15702249
0.01805834 -0.20713669 -0.19755413 0.0024822513 0.18766609 0.21771564 -0.108326785 0.19167727
-0.08877179 0.17344426 -0.18762144 -0.1625755 -0.19208851 -0.0812082 0.036055993 -0.081135504
0.017247228 0.26720327 0.020980366 -0.008016633 0.27563867 0.017486747 0.072734475 -0.030568626
-0.205131 0.19597967 0.053818364 -0.08686392 -0.044701647 -0.035591956 -0.1998363 0.019241156
0.0036185482 0.035926767 0.13369203 -2.6544572e-05 -0.022501806 -0.061387073 0.21020971 -0.012541916
-0.18634526 -0.107047506 0.059095714 -0.04235882 -0.21757402 0.08053005 -0.226209 -0.14149117
0.061207622 0.043240465 0.09383979 -0.10124322 0.1693884 0.07989927 0.14226086 -0.0997005
-0.1909032 -0.04710606 0.2056933 0.21439573 0.05430002 0.20416135 -0.15092471 -0.110749036
-0.11104761 -0.12021461 -0.11350417 -0.2143431 0.08791845 -0.030230481 0.17554131 0.08747927
0.05212138 -0.13795236 -0.10273966 0.030998947 -0.031787615 -0.059632406 -0.033480316 -0.10502162
0.19049613 0.10735841 0.086340696 0.23609553 0.13546552 -0.07952216 -0.094841786 -0.09456033
0.035703458 -0.25114042 0.019431742 0.022359835 -0.0062064324 0.20517455 -0.13607553 -0.013882788
-0.0004919865 0.21527621 0.2077846 -0.1477553 -0.16974401 0.17551911 0.110913984 -0.04427677
-0.22464952 0.092642754 -0.16600454 -0.1704451 -0.16205579 0.13716832 -0.00064455287 -0.15778738
0.08549967 -0.016104901 -0.037202332 -0.11237749 0.06938196 0.0129431095 -0.026569445 -0.09978403
0.0855484 0.21081722 -0.045931373 -0.20860218 -0.061636847 -0.026529487 -0.19456486 -0.06284147
-0.064435266 0.10449402 -0.19190016 -0.061235007 -0.085458934 0.09834961 -0.07924004 -0.16831918
-0.03102435 -0.19737332 0.12458921 0.043163687 -0.28331095 0.12236275 0.08462677 -0.19199945
-0.18384826 0.07668445 -0.14410773 -0.093132 0.08890347 -0.01398367 -0.116144516 -0.004020347
0.37521815 0.0038055952 0.09176367 -0.15917195 -0.17056683 0.0046186703 -0.08398603 -0.15334888
0.19634648 0.16132322 -0.13700008 0.119716264 0.302799 0.18198106 0.16029136 -0.0898872
0.039161935 0.13490255 0.02271562 -0.119626135 -0.09725651 0.18071525 0.18449698 -0.013959978
00000000: 074b 8abd a51f ddbd 3974 813d e7b2 043d
00000010: a4f0 80bd 4d6d edbc 4415 60be 7051 74bd
00000020: 42c0 323e bd50 81bd 9292 5d3e 3387 0ebe
00000030: 02e1 49be cc11 54be 93ca abbd 207d 3abc
00000040: 5688 373e 49bb d43c 01ba debd 474a 1ebe
00000050: 115f 153d 3ee0 52bd 736c 51be 89a3 363e
00000060: e926 3fbe 2004 d5bd 4380 d63d 23ba e1bc
00000070: 26aa c13d 3b3c 62be 6c36 7c3d c78e 813d
00000080: 1a17 543d 557c 3d3e a769 cfbb 8087 473e
00000090: 7e56 9bbd a73c 023e 2ce3 383e b59d fcbd
000000a0: fd31 4c3e 8cd4 09be c473 13be 0adb 06ba
000000b0: d90e 10bd 2aa8 3b3e bf94 76bc d05e 493e
000000c0: 4ded ea3d ea46 7cbe 39af 8a3d 5739 a5bb
000000d0: 8b8d 6d3e de0b 7d3c 057d b73b b537 443e
000000e0: b2a3 b9bd e8d4 193e f155 de3d 13b1 29bd
000000f0: b82c 27be 8325 91bd 06cf 97bd 93ed 2a3e
00000100: 4af3 453d f25d 4bbe 24e6 2c3e 2849 e9bd
00000110: f7ad 52bc 5677 043e 9eb5 313e 0cfa 293d
00000120: 5678 12be cde5 ce3d db44 cbbd 5bd7 99bd
00000130: f1dc 223e 2d39 ce3d 558c c7bb 81ca 203e
00000140: 15ef 933c a41b 54be a14b 4abe 44ad 223b
00000150: 8a2b 403e d9f0 5e3e 6fda ddbd 0c47 443e
00000160: fccd b5bd 5f9b 313e d61f 40be 317a 26be
00000170: dab2 44be 7c50 a6bd 73af 133d 5f2a a6bd
00000180: 0f4a 8d3c dece 883e 04df ab3c 3258 03bc
00000190: 8320 8d3e 5e40 8f3c d0f5 943d 0e6b fabc
000001a0: dc0d 52be e5ae 483e a570 5c3d b6e5 b1bd
000001b0: 1319 37bd dfc8 11bd e3a1 4cbe a19f 9d3c
000001c0: 2a25 6d3b f227 133d 90e6 083e 09ac deb7
000001d0: b555 b8bc 0371 7bbd 3741 573e 9c7c 4dbc
000001e0: 4bd1 3ebe b93b dbbd 590e 723d 7180 2dbd
000001f0: b9cb 5ebe f0ec a43d 55a3 67be 10e3 10be
00000200: d8b4 7a3d ea1c 313d 132f c03d 9b58 cfbd
00000210: 2774 2d3e 3aa2 a33d d5ac 113e c72f ccbd
00000220: 217c 43be 49f2 40bd 44a1 523e 8e8a 5b3e
00000230: b369 5e3d ac0f 513e 028c 1abe 64d0 e2bd
00000240: ee6c e3bd 1433 f6bd e074 e8bd c27c 5bbe
00000250: 970e b43d eaa5 f7bc 1ac1 333e 5528 b33d
00000260: 3a7d 553d 6243 0dbe 2c69 d2bd 81f1 fd3c
00000270: bb33 02bd 1c41 74bd a822 09bd 9315 d7bd
00000280: 6b11 433e bade db3d 64d3 b03d 07c3 713e
00000290: 79b7 0a3e 84dc a2bd 693c c2bd d9a8 c1bd
000002a0: ca3d 123d 7a95 80be 512f 9f3c f92b b73c
000002b0: 545f cbbb 4719 523e 6257 0bbe a274 63bc
000002c0: a8f8 00ba 5e71 5c3e 7cc5 543e 2a4d 17be
000002d0: 60d1 2dbe 48bb 333e df26 e33d 8f5b 35bd
000002e0: 860a 66be 7cbb bd3d 18fd 29be 2989 2ebe
000002f0: f4f1 25be da75 0c3e 36f7 28ba 0493 21be
00000300: 731a af3d 6dee 83bc 7961 18bd 2b26 e6bd
00000310: 2118 8e3d 560f 543c 2aa8 d9bc 925b ccbd
00000320: 0034 af3d 78e0 573e 8922 3cbd cf9b 55be
00000330: eb76 7cbd 5e54 d9bc 033c 47be 07b3 80bd
00000340: a3f6 83bd f600 d63d 7a81 44be 8fd1 7abd
00000350: 1805 afbd 856b c93d 9a48 a2bd dd5b 2cbe
00000360: c726 febc 3b1c 4abe a128 ff3d 68cc 303d
00000370: 220e 91be 5299 fa3d cd50 ad3d 819b 44be
00000380: b842 3cbe bd0c 9d3d fa90 13be fdbb bebd
00000390: 0613 b63d c31b 65bc 2ddd edbd 1dbd 83bb
000003a0: 981c c03e 4b67 793b 97ee bb3d f9fd 22be
000003b0: 12a9 2ebe 3758 973b de00 acbd 7d07 1dbe
000003c0: 0d0f 493e ea31 253e c049 0cbe cd2d f53d
000003d0: 7808 9b3e 3e59 3a3e 6b23 243e c816 b8bd
000003e0: 4468 203d e523 0a3e 1c16 ba3c 8cfe f4bd
000003f0: 6c2e c7bd 6b0d 393e c7ec 3c3e 64b8 64bc

batch_norm1.weight f4 [128]
0.98146427 0.9942021 0.99069077 0.9886703 0.997148 1.005032 1.0310763 0.9823814
1.0091882 0.9970224 0.9737391 1.0052742 1.0077624 0.9796193 0.95469654 1.0104002
0.9974015 1.0569167 1.0098865 0.99569535 0.98356915 1.0145516 0.978351 0.98105925
0.9995319 1.0003872 0.992532 0.9763437 1.0204343 1.0062684 0.9935941 0.99560016
1.0634166 1.0091923 0.974081 0.98671955 1.0019869 0.98827493 1.0072582 1.0082486
1.0121638 1.028448 1.0002599 1.0137317 0.999105 1.0004514 0.99326813 1.0059054
0.99326557 1.0139992 0.9675448 1.01309 1.002022 1.0196159 0.981926 0.981509
1.0934657 0.99114364 0.9792787 0.9955391 1.0056982 1.0086721 1.0050573 0.9892464
0.999069 0.9720755 0.98109174 0.9929277 0.9921673 0.9726589 0.9925014 1.0123774
1.0151263 1.015126 1.0113094 1.0046726 1.010235 1.0915306 1.0189029 0.9936382
1.0128919 0.9879712 1.0248753 1.0102534 0.9736675 1.0012401 1.0113196 1.0046209
1.0004915 0.99370855 0.9947985 1.0192709 0.9924627 0.99494606 1.0033767 1.0153754
0.98398584 1.0238067 0.9661991 0.9952969 0.9950009 0.9974067 0.9746039 0.99915576
0.986714 0.9938773 1.0155084 0.97915465 0.98213273 0.9900945 1.0008712 1.022949
1.0088936 1.0029415 1.0362169 1.0134606 1.0040176 0.9744918 0.9898479 1.007477
0.955614 1.0326905 1.028537 0.99492735 0.98435575 1.0054599 0.9917696 0.9694235
00000000: 3e41 7b3f 0784 7e3f e99d 7d3f 7f19 7d3f
00000010: 1745 7f3f e3a4 803f 4ffa 833f 597d 7b3f
00000020: 142d 813f dc3c 7f3f f746 793f d3ac 803f
00000030: 5cfe 803f 55c8 7a3f fe66 743f cb54 813f
00000040: b455 7f3f 0c49 873f f643 813f e4e5 7e3f
00000050: 30cb 7b3f d4dc 813f 3675 7a3f b326 7b3f
00000060: 53e1 7f3f b00c 803f 9416 7e3f a9f1 793f
00000070: 979d 823f 67cd 803f 2f5c 7e3f a7df 7e3f
00000080: 091e 883f 372d 813f 5f5d 793f a799 7c3f
00000090: 1b41 803f 96ff 7c3f d6ed 803f 4a0e 813f
000000a0: 958e 813f 2fa4 833f 8408 803f f6c1 813f
000000b0: 58c5 7f3f cb0e 803f d246 7e3f 82c1 803f
000000c0: a746 7e3f baca 813f 04b1 773f efac 813f
000000d0: 4242 803f c682 823f 815f 7b3f 2c44 7b3f
000000e0: aff6 8b3f 97bb 7d3f 02b2 7a3f a7db 7e3f
000000f0: b8ba 803f 2b1c 813f b8a5 803f 413f 7d3f
00000100: fcc2 7f3f f1d9 783f d428 7b3f 8230 7e3f
00000110: adfe 7d3f 2c00 793f 9214 7e3f 9595 813f
00000120: a9ef 813f a6ef 813f 9672 813f 1d99 803f
00000130: 614f 813f 46b7 8b3f 696b 823f 135f 7e3f
00000140: 71a6 813f aeeb 7c3f 1d2f 833f fc4f 813f
00000150: 4642 793f a328 803f ec72 813f 6b97 803f
00000160: 1b10 803f af63 7e3f 1dab 7e3f 7877 823f
00000170: 0912 7e3f c9b4 7e3f a66e 803f d2f7 813f
00000180: 7fe6 7b3f 190c 833f d358 773f c7cb 7e3f
00000190: 61b8 7e3f 0c56 7f3f a47f 793f acc8 7f3f
000001a0: 4a99 7c3f be6e 7e3f 2efc 813f e1a9 7a3f
000001b0: 0d6d 7b3f d576 7d3f 8c1c 803f feef 823f
000001c0: 6d23 813f 6360 803f c1a2 843f 14b9 813f
000001d0: a683 803f 4b78 793f ac66 7d3f 02f5 803f
000001e0: 1ea3 743f 342f 843f 1aa7 833f 8fb3 7e3f
000001f0: bdfe 7b3f e9b2 803f 9de4 7d3f 232c 783f

batch_norm1.bias f4 [128]
-0.0011881022 0.01246223 -0.0057226 -0.00897595 -0.0009998671 0.001594855 -0.001693326 -0.028359141
-0.013027769 -0.0097090285 -0.019697962 0.015492375 -0.009736746 -0.023652416 -0.013149254 -0.0013750044
-0.014873929 0.030083003 -0.002706977 -0.005591734 0.0064272154 0.021067278 -0.019934477 -0.0016257534
-0.0007484636 0.008032184 -0.029206024 -0.033722226 0.009378315 -0.0066976273 -0.0044376547 -0.020276288
-0.0013417687 -0.01426292 -0.03818283 -0.018510224 -0.013429416 -0.004033639 -0.0050008763 0.027779145
0.013684761 0.021203335 -0.0016217806 0.015508469 -0.0054133437 0.019260595 0.0046854974 0.0052310643
-7.872475e-05 -0.0075740092 -0.015161057 -0.0063301465 0.009570824 0.020594543 -0.01831468 -0.0047457977
0.010402845 -0.0101174945 -0.032037437 -0.02121908 0.01804476 -0.004701975 -0.012705764 -0.021572374
-0.001165769 -0.010605999 -0.03771823 -0.015073068 0.00023143423 -0.02651858 -0.00450308 0.012752185
0.01173303 -0.02856382 0.0036753658 0.0016067412 -0.0048565976 0.053052463 0.022920394 0.0011782452
0.015695535 -0.019881304 0.027335871 0.004252506 -0.022223018 0.0022320945 0.0134519255 0.010181044
0.011700159 -0.01340248 -0.0067832367 0.035022672 -0.011073359 -0.018412052 -0.004063849 0.011033719
-0.025718592 0.015220581 -0.019513505 0.008774774 -0.010261516 0.0063858195 -0.013942495 -0.008084604
-0.012955744 -0.00797841 0.0140684 -0.026752373 -0.007624164 0.0003156305 -0.015569885 -0.006263165
-0.014471284 0.0075142654 -0.0035594222 -0.03676829 -0.0014387864 -0.026465835 -0.005746738 -0.00018839748
-0.039869934 0.026123978 0.026736725 -0.033450942 -0.003959077 0.012870456 -0.017635366 -0.020544803
00000000: 18ba 9bba 622e 4c3c a684 bbbb dd0f 13bc
00000010: f90d 83ba 740a d13a 98f2 ddba 6e51 e8bc
00000020: 6c72 55bc 9e12 1fbc 9f5d a1bc bbd3 7d3c
00000030: df86 1fbc b6c2 c1bc f86f 57bc 7e39 b4ba
00000040: c8b1 73bc a170 f63c 8a67 31bb dd3a b7bb
00000050: 649b d23b 4995 ac3c a14d a3bc 3b17 d5ba
00000060: 8b34 44ba 6c99 033c 7941 efbc 5120 0abd
00000070: 81a7 193c c577 dbbb bf69 91bb 751a a6bc
00000080: 49de afba 06af 69bc 9965 1cbd c1a2 97bc
00000090: 0e07 5cbc 9e2c 84bb 64de a3bb 1791 e33c
000000a0: 0c36 603c 9eb2 ad3c ed91 d4ba 3c17 7e3c
000000b0: 6b62 b1bb 65c8 9d3c cd88 993b 5969 ab3b
000000c0: 0719 a5b8 652f f8bb 1566 78bc 1e6d cfbb
000000d0: f2ce 1c3c e3b5 a83c ab08 96bc a382 9bbb
000000e0: b270 2a3c d9c3 25bc b039 03bd a3d3 adbc
000000f0: 9bd2 933c 0613 9abb d62b 50bc 8cb8 b0bc
00000100: b7cc 98ba c9c4 2dbc 6e7e 1abd 08f5 76bc
00000110: 27ad 7239 7e3d d9bc 938e 93bb 8aee 503c
00000120: e53b 403c acfe e9bc 68de 703b 4a99 d23a
00000130: 1824 9fbb 8a4d 593d 8dc3 bb3c 596f 9a3a
00000140: ec93 803c 1ede a2bc 7aef df3c 9b58 8b3b
00000150: 0c0d b6bc 5548 123b 7765 5c3c 65ce 263c
00000160: 06b2 3f3c 1396 5bbc ea45 debb ef73 0f3d
00000170: 096d 35bc dfd4 96bc 092a 85bb c6c6 343c
00000180: ccaf d2bc be5f 793c c9da 9fbc 12c4 0f3c
00000190: eb1f 28bc 2340 d13b 106f 64bc 4975 04bc
000001a0: 5444 54bc e1b7 02bc 257f 663c cb27 dbbc
000001b0: 20d4 f9bb 357b a539 d518 7fbc 3c3b cdbb
000001c0: f718 6dbc 3a3a f63b 3245 69bb 599a 16bd
000001d0: a995 bcba e1ce d8bc 224f bcbb 908c 45b9
000001e0: a84e 23bd f401 d63c fa06 db3c db03 09bd
000001f0: 25bb 81bb 9bde 523c 0b78 90bc 934d a8bc

batch_norm1.running_mean f4 [128]
-0.03213883 0.007283207 -0.09957517 -0.099731505 -0.2127323 0.009037843 -0.09239663 0.02379682
-0.11101446 -0.11348238 0.075602084 0.23086809 0.021439947 -0.16102715 -0.13925077 0.23489805
0.11094355 0.022727603 -0.027291225 0.11384615 -0.16467465 0.049844183 0.13514428 0.13496293
-0.14046814 -0.0073300223 0.023042062 -0.1792589 0.11693585 0.22869603 -0.25850263 -0.09705254
0.021981463 0.015394124 -0.03658415 0.12524556 -0.13306831 0.032515354 0.10288764 -0.03463657
-0.13153325 -0.013479275 -0.16233976 -0.0018822708 0.20561433 -0.10931707 0.2057535 0.11247304
-0.1360145 -0.17472786 0.17795275 -0.11044727 -0.04140332 -0.026080474 0.14163873 -0.10997753
0.023510482 0.1023526 -0.10392863 0.11723529 -0.08160972 -0.008359858 -0.20481752 0.046348125
0.062390976 -0.08051447 0.012380906 0.07263808 -0.14162506 -0.00890782 -0.19427508 0.0022710967
0.017612396 0.08146688 -0.017341176 0.013523016 0.016395783 0.013872223 -0.015214202 -0.06885315
0.11129267 0.20120835 0.14711307 0.061512936 0.015757997 -0.024374273 -0.014246812 -0.11312871
0.09281018 0.08695453 0.13616154 -0.11436261 0.11549564 0.07488767 -0.095940925 0.06413373
0.100917555 0.030212065 -0.033964843 0.036691647 -0.038371105 0.2575309 -0.15151094 0.050787542
0.009147418 -0.010177721 -0.032221574 -0.079131775 0.04632805 0.05851866 -0.018831141 -0.115185715
0.16817573 0.110874645 0.016649716 0.07247277 -0.05466703 -0.1678601 0.04028643 -0.0033689898
-0.08179693 -0.09293059 -0.20866859 0.11409612 -0.051939916 -0.04271506 0.03579091 0.25612777
00000000: 01a4 03bd f8a7 ee3b 11ee cbbd 0840 ccbd
00000010: 7fd6 59be 7613 143c 723a bdbd 8cf1 c23c
00000020: 8d5b e3bd 7369 e8bd 44d5 9a3d af68 6c3e
00000030: d4a2 af3c 4de4 24be c197 0ebe 1d89 703e
00000040: 5f36 e33d 3d2f ba3c d991 dfbc 2c28 e93d
00000050: 79a0 28be 6a29 4c3d 4363 0a3e b933 0a3e
00000060: e1d6 0fbe af30 f0bb b5c2 bc3c a58f 37be
00000070: 107c ef3d 4b2f 6a3e 755a 84be 7bc3 c6bd
00000080: 7812 b43c a337 7c3c 43d9 15bd 5f40 003e
00000090: 0f43 08be d22e 053d c1b6 d23d 13df 0dbd
000000a0: a7b0 06be 2dd8 5cbc 653c 26be 87b6 f6ba
000000b0: 908c 523e a1e1 dfbd 0cb1 523e 4458 e63d
000000c0: 6347 0bbe dceb 32be 3f39 363e 2e32 e2bd
000000d0: 8796 29bd b8a6 d5bc be09 113e e63b e1bd
000000e0: 0e99 c03c 3d9e d13d 89d8 d4bd 0e19 f03d
000000f0: ff22 a7bd c9f7 08bc afbb 51be 88d7 3d3d
00000100: ae8d 7f3d c5e4 a4bd 49d9 4a3c 46c3 943d
00000110: 2906 11be 1bf2 11bc 0cf0 46be aed6 143b
00000120: df47 903c 1cd8 a63d 150f 8ebc a48f 5d3c
00000130: 7350 863c 5248 633c fd44 79bc e102 8dbd
00000140: 69ed e33d 9009 4e3e cfa4 163e fdf4 7b3d
00000150: ea16 813c 8eac c7bc 766b 69bc 06b0 e7bd
00000160: 4313 be3d 3715 b23d ee6d 0b3e f236 eabd
00000170: fa88 ec3d b55e 993d ad7c c4bd 8c58 833d
00000180: ddad ce3d 4b7f f73c b81e 0bbd fb49 163d
00000190: 052b 1dbd 17db 833e af25 1bbe 9906 503d
000001a0: 0ddf 153c 75c0 26bc c5fa 03bd d70f a2bd
000001b0: 7bc2 3d3d 43b1 6f3d c443 9abc 7de6 ebbd
000001c0: 4236 2c3e 3f12 e33d fc64 883c 9b6c 943d
000001d0: 89ea 5fbd 85e3 2bbe 6203 253d 45ca 5cbb
000001e0: 2685 a7bd 6552 bebd 38ad 55be 3aab e93d
000001f0: f3be 54bd fdf5 2ebd 7d99 123d 2e23 833e

batch_norm1.running_var f4 [128]
0.0015497335 0.00030945617 0.013596995 0.0012279634 0.0033770103 0.00011976556 0.0021667727 0.0048180725
0.0078087808 0.004160552 0.00032068192 0.0030621307 0.005559829 0.0012947648 0.0018636599 0.0030489778
0.00082392094 6.0970255e-05 0.0009484753 0.0037221718 0.0021476601 0.011482008 0.003444419 0.0015982116
0.0014204986 0.0025296053 5.6861187e-05 0.005370007 0.00824585 0.0028360304 0.0032818988 0.0005476919
0.00011104618 8.6609754e-05 0.006678537 0.0074701128 0.0030399521 8.204628e-05 0.00250134 0.0002865882
0.0059504765 0.0014259235 0.008344031 0.0018506562 0.002303606 0.0009233023 0.0040973364 0.008691554
0.0011686507 0.004421929 0.002764976 0.002967733 0.000104629384 0.0037051295 0.0013190121 0.00069757306
7.997306e-05 0.0036461588 0.0021428363 0.012049181 0.0067318003 0.0017561665 0.0025141733 0.007430204
0.0013797913 0.0016033613 0.0011425955 0.015024211 0.0026510104 0.002431183 0.0029493321 0.005981066
0.0022662804 0.00104289 0.006024278 0.0023655107 0.0035690942 9.5812255e-05 0.0057332246 0.002405874
0.010083826 0.0023881102 0.0022077418 0.0056291735 0.0066098496 0.00019170786 3.4985656e-05 0.003094263
0.00069566106 0.0012595634 0.0009999626 0.0037244812 0.009433452 0.00030090896 0.0041696355 0.012937067
0.0049357563 0.002286746 0.00012300881 0.00037600202 0.0070416695 0.003785872 0.0014286006 0.00017082616
0.0056726774 0.0010901077 0.004942591 0.00034789275 0.011937474 0.0070754024 0.0066560293 0.0017432873
0.001544237 0.008773813 0.0010544825 0.0005867335 0.01191708 0.0024014064 0.001844242 0.0013604364
0.011085128 0.0032780953 0.0024863032 0.009401083 0.0012304417 0.0017276692 0.007525545 0.0034610068
00000000: 6d20 cb3a 813e a239 eec5 5e3c 9df3 a03a
00000010: d550 5d3b a52a fb38 6a00 0e3b ece0 9d3b
00000020: cde0 ff3b 3d55 883b 3321 a839 07ae 483b
00000030: 3a2f b63b 19b5 a93a 0d46 f43a 5cd1 473b
00000040: 66fc 573a 50ba 7f38 1aa3 783a aeef 733b
00000050: c2bf 0c3b 081f 3c3c c3bb 613b 157b d13a
00000060: 0630 ba3a bcc7 253b 3c7e 6e38 e2f6 af3b
00000070: 9a19 073c b2dc 393b 2015 573b fb92 0f3a
00000080: 77e1 e838 42a2 b538 a1d7 da3b d9c7 f43b
00000090: ef39 473b 4310 ac38 85ed 233b 3841 9639
000000a0: 37fc c23b 0ee6 ba3a 67b5 083c b891 f23a
000000b0: 18f8 163b c509 723a f342 863b 0567 0e3c
000000c0: 692d 993a d4e5 903b 9934 353b 4c7e 423b
000000d0: 796c db38 c2d1 723b b4e2 ac3a 56dd 363a
000000e0: 36b7 a738 65f4 6e3b d46e 0c3b ee69 453c
000000f0: 6f96 dc3b 2b2f e63a d4c4 243b 1279 f33b
00000100: 1dda b43a e127 d23a 25c3 953a 1c28 763c
00000110: 93bc 2d3b 7b54 1f3b 9549 413b d1fc c33b
00000120: e085 143b 95b1 883a 4e67 c53b af06 1b3b
00000130: 77e7 693b d0ee c838 c6dd bb3b deab 1d3b
00000140: a236 253c d781 1c3b c3af 103b ee74 b83b
00000150: 7097 d83b 3005 4939 90bd 1238 1ec9 4a3b
00000160: 065d 363a ef17 a53a 2d11 833a 6d16 743b
00000170: c48e 1a3c 51c3 9d39 70a1 883b fef5 533c
00000180: 20bc a13b 3bdd 153b edfb 0039 2322 c539
00000190: cebd e63b 641c 783b e23f bb3a cc1f 3339
000001a0: dee1 b93b f2e1 8e3a 75f5 a13b 6065 b639
000001b0: 6595 433c c7d8 e73b d21a da3b 047f e43a
000001c0: ff67 ca3a 0ac0 0f3c 9036 8a3a 05cf 193a
000001d0: db3f 433c ea60 1d3b 7eba f13a ac50 b23a
000001e0: 669e 353c 50d5 563b 3ff1 223b 0007 1a3c
000001f0: c646 a13a f572 e23a d998 f63b 0fd2 623b

conv2.bias f4 [128]
-0.00012678663 -0.00016669964 0.00054288714 -0.00020326713 0.00014900134 -0.00037147137 0.0007113771 -0.00012919836
0.00015307331 0.00017908207 -2.3105928e-05 0.00024805398 0.0002685785 0.0013912963 -7.7831006e-05 -3.7734495e-05
3.2720756e-05 -0.0011818066 7.2373856e-05 0.0007042992 1.6174114e-05 0.00026999955 4.5766727e-05 -0.0009221032
5.141615e-05 0.00013669935 -0.00023714743 0.0005072274 3.320811e-05 -0.0015459701 0.0001557902 0.0002164892
0.00041541804 -0.0002567268 -0.0001313892 -0.00052456814 0.00011140231 0.00014459832 -0.00042547568 0.0016893551
8.248138e-05 8.293655e-05 -0.000189867 4.011963e-05 -0.000728294 -0.00029841452 5.555611e-05 0.0009188094
-0.0003778058 -0.00027519168 -0.0008727676 -2.896849e-05 0.0001172775 0.00035948926 -0.00017970442 1.06148655e-05
-0.00041124545 -0.00010315051 -0.00010466652 0.0021166936 -0.0004765676 9.753329e-05 -0.0007828245 0.0013448398
6.168133e-05 1.7685572e-05 -7.710076e-06 0.00029908636 -3.750443e-05 0.00020654025 4.7997048e-05 4.071461e-05
0.000100485166 0.00081516505 -1.0031399e-05 -0.0012952546 0.0002761019 0.00033155933 -1.886842e-05 -0.0011959405
6.1439416e-05 0.0012328002 -0.00018650338 9.908991e-05 0.00026354397 0.0003045781 -3.506693e-05 0.00028999723
0.0010112074 -0.0001699312 3.448202e-05 2.4132873e-05 -6.552055e-05 -0.0015914041 9.4370254e-05 3.400742e-05
0.00013363123 -0.00012925178 -0.00018228526 -0.0017145195 -0.00013120017 2.2580922e-05 -0.00049108337 0.000491333
-0.00014151052 -0.00014703655 0.0009675469 -5.930116e-05 0.00089150015 0.000108188855 -0.00019145849 0.0001893226
9.748004e-05 4.404892e-05 -0.00028176355 6.814026e-06 -0.000303058 0.0004644599 3.9497278e-05 -0.00027219055
-0.000446942 -9.892509e-06 -5.3857162e-05 0.00029010026 0.00035940888 0.0001349231 -0.00012992216 -2.773395e-05
00000000: 07f2 04b9 18cc 2eb9 8a50 0e3a 1b24 55b9
00000010: 3e3d 1c39 0bc2 c2b9 b67b 3a3a 6c79 07b9
00000020: 4e82 2039 fac7 3b39 9ad3 c1b7 3e0d 8239
00000030: ffcf 8c39 285c b63a 3439 a3b8 1b45 1eb8
00000040: a53d 0938 d9e6 9aba 6bc7 9738 b8a0 383a
00000050: a5ad 8737 ba8e 8d39 a6f5 3f38 4cb9 71ba
00000060: aca7 5738 f456 0f39 c7aa 78b9 74f7 043a
00000070: f048 0b38 26a2 caba 9d5b 2339 6101 6339
00000080: 77cc d939 4a99 86b9 85c5 09b9 2c83 09ba
00000090: a9a0 e938 519f 1739 6112 dfb9 5a6d dd3a
000000a0: dbf9 ac38 39ee ad38 0917 47b9 2046 2838
000000b0: fcea 3eba 8574 9cb9 eb04 6938 41dc 703a
000000c0: 3c14 c6b9 9a47 90b9 71ca 64ba 5c01 f3b7
000000d0: e1f2 f538 d579 bc39 0a6f 3cb9 8016 3237
000000e0: 6e9c d7b9 8252 d8b8 6980 dbb8 3ab8 0a3b
000000f0: d2db f9b9 c98a cc38 7736 4dba 5645 b03a
00000100: e95a 8138 7a5b 9437 865a 01b7 b1ce 9c39
00000110: 134e 1db8 ba92 5839 7050 4938 fbc4 2a38
00000120: 90bb d238 cdb0 553a 884c 28b7 88c5 a9ba
00000130: c5c1 9039 24d5 ad39 a047 9eb7 1bc1 9cba
00000140: 09d9 8038 e995 a13a 1f90 43b9 7ece cf38
00000150: 462c 8a39 c8af 9f39 d414 13b8 c50a 9839
00000160: 7d8a 843a 8f2f 32b9 c9a0 1038 f370 ca37
00000170: 1468 89b8 a996 d0ba a5e8 c538 30a3 0e38
00000180: 5c1f 0c39 c387 07b9 d423 3fb9 bab9 e0ba
00000190: c792 09b9 296c bd37 0cbc 00ba cdcc 003a
000001a0: 7162 14b9 d32d 1ab9 f9a2 7d3a 23ba 78b8
000001b0: 90b3 693a 73e3 e238 3fc2 48b9 e684 4639
000001c0: 336e cc38 2bc1 3838 aab9 93b9 0aa4 e436
000001d0: c2e3 9eb9 c182 f339 e1a9 2538 ccb4 8eb9
000001e0: 8a53 eab9 01f8 25b7 b0e4 61b8 9918 9839
000001f0: 0b6f bc39 257a 0d39 b73b 08b9 34a6 e8b7

conv2.lin.weight f4 [128, 128]
0.12347925 0.12552042 -0.035675056 0.046032872 -0.07053753 0.17066084 0.03886602 -0.1666913
0.06399408 0.16308282 -0.016491946 -0.09784547 0.06318847 0.08360121 -0.09089513 -0.104710445
0.13679646 0.056034207 0.020163015 0.032871414 0.086975686 -0.015942637 -0.15480542 0.07837849
0.06724056 -0.0348074 0.011616885 -0.016493997 0.119034715 0.13361956 0.13070925 -0.008929323
-0.023963494 -0.00064643344 0.051357064 -0.10980168 0.027180515 -0.029284878 -0.0032974833 -0.05991471
0.020040864 0.13211355 0.09341759 -0.12566859 0.036342803 -0.1120826 0.045452632 0.044112217
0.08874631 -0.04031019 -0.15698642 0.080337815 0.13567537 -0.13690268 0.00731315 -0.015732337
0.025075145 -0.13909458 0.014373787 0.13571185 -0.15082644 -0.044416938 0.0028044092 0.11248866
0.0013308558 -0.091007404 0.07827839 -0.07655528 0.08339778 0.049235176 -0.022422848 -0.14032248
-0.13907586 0.0594685 0.070327155 -0.022674752 -0.03253088 -0.08361417 0.06365648 -0.09380584
0.04405676 0.039031345 -0.14096329 0.025739959 -0.09332205 0.06888375 0.11921444 0.004733932
-0.08365682 -0.1740963 -0.0517207 -0.012272234 0.036328264 -0.06912675 0.08552584 0.020352228
0.043607015 0.026141915 0.082387395 0.09021591 0.12182567 -0.15221143 0.038075916 0.040104017
0.02972151 0.08304595 0.066039465 0.04782578 0.15285048 0.12722826 0.12924512 -0.021996865
0.07075831 -0.0902484 -0.072095 -0.044184297 -0.14145654 0.041286435 0.10134736 -0.1409111
-0.11511982 0.0949433 0.04684685 0.06946565 0.025061961 0.013183853 0.07690678 0.09497189
0.1394357 0.06379729 -0.12689988 -0.0659491 0.1528571 -0.049240753 0.1549478 -0.14161228
0.07143364 0.11186827 -0.020244837 -0.05098916 -0.060032133 -0.016937612 -0.11707894 -0.11499923
-0.11600026 0.0018826171 -0.1835829 0.027466454 0.07701889 -0.051147565 0.037196275 -0.03083039
0.09259695 0.09428406 0.0028884823 0.051242765 -0.13027984 0.039493024 -0.14627239 0.06255792
0.050562467 -0.0446995 -0.17033958 -0.12816769 -0.029228797 -0.14304574 -0.07923341 0.108782664
-0.012214563 -0.10838143 -0.115558594 0.08537842 0.02695235 -0.11671459 0.13566133 -0.095337205
-0.12820807 0.034411434 0.08051477 -0.055087574 -0.030654648 -0.052091382 0.061898317 -0.12727185
0.06188506 0.14924538 0.01627384 -0.15048781 0.01831485 -0.07603245 0.035440464 -0.0075693554
0.07711747 -0.112718575 -0.03572844 -0.17796274 -0.0101922415 -0.080664836 -0.08878442 -0.038331665
0.065574944 0.107031174 0.035352997 -0.16345741 -0.1785033 -0.0048136804 0.016483597 0.07814798
-0.08022542 -0.05890855 -0.08899987 -0.12804307 0.08059276 -0.048887607 0.028802037 0.05679509
0.0845862 -0.15101849 0.041285407 -0.10676283 0.05604651 -0.02605693 0.12400607 -0.16219504
-0.1027289 -0.04384633 0.1680108 -0.008531472 0.14667684 0.0046098307 0.04896691 0.123349085
0.08890805 0.014007489 -0.09501077 0.056094922 0.12260164 0.005590301 -0.1683026 -0.07743086
0.032149587 0.03150282 0.07722479 0.0468338 -0.013968182 -0.0057089985 0.0031240075 0.098928556
-0.043529864 -0.040600143 0.027939482 -0.013081667 -0.06800488 0.052842475 0.07795031 -0.08820985
00000000: b0e2 fc3d 6d88 003e 0220 12bd f78c 3c3d
00000010: fb75 90bd b7c1 2e3e fa31 1f3d 20b1 2abe
00000020: 540f 833d 2fff 263e 1e1a 87bc 3563 c8bd
00000030: f568 813d 1c37 ab3d 3a27 babd 6e72 d6bd
00000040: 5f14 0c3e 2084 653d e82c a53c 2da4 063d
00000050: 4f20 b23d 229a 82bc 5085 1ebe e784 a03d
00000060: 6bb5 893d 3492 0ebd bf54 3e3c 6b1e 87bc
00000070: 79c8 f33d 91d3 083e a5d8 053e 4c4c 12bc
00000080: 174f c4bc 6a75 29ba c95b 523d b4df e0bd
00000090: aca9 de3c d7e6 efbc 971a 58bb 2069 75bd
000000a0: bd2c a43c c648 073e b951 bf3d 44af 00be
000000b0: 31dc 143d 908b e5bd 8a2c 3a3d 03af 343d
000000c0: a0c0 b53d 4c1c 25bd 0cc1 20be 2788 a43d
000000d0: 7cee 0a3e 3730 0cbe 26a3 ef3b 1ae1 80bc
000000e0: 646a cd3c cf6e 0ebe 0880 6b3c 0cf8 0a3e
000000f0: 3f72 1abe 89ee 35bd 2eca 373b 7460 e63d
00000100: 1c70 ae3a 1762 babd 6c50 a03d 04c9 9cbd
00000110: 75cc aa3d d3aa 493d 1fb0 b7bc b2b0 0fbe
00000120: e769 0ebe 3e95 733d af07 903d 67c0 b9bc
00000130: 1a3f 05bd e83d abbd 545e 823d 471d c0bd
00000140: dc74 343d 55df 1f3d ae58 10be 9bdc d23c
00000150: a21f bfbd ec12 8d3d b326 f43d 1a1f 9b3b
00000160: 4454 abbd 4d46 32be 16d9 53bd 7b11 49bc
00000170: f2cc 143d 5392 8dbd 2c28 af3d b7b9 a63c
00000180: 459d 323d 9227 d63c b9ba a83d 1ec3 b83d
00000190: bd7f f93d 50dd 1bbe 7ef5 1b3d 1c44 243d
000001a0: 867a f33c ff13 aa3d b33f 873d f7e4 433d
000001b0: d684 1c3e 2048 023e d558 043e c532 b4bc
000001c0: bce9 903d 27d4 b8bd 8ba6 93bd 98fa 34bd
000001d0: fcd9 10be f71b 293d 348f cf3d 004b 10be
000001e0: f1c3 ebbd a271 c23d 7ce2 3f3d 0244 8e3d
000001f0: be4e cd3c 1601 583c 4d81 9d3d 9f80 c23d
00000200: 3bc8 0e3e 27a8 823d 0bf2 01be 5210 87bd
00000210: 9286 1c3e acb0 49bd a3aa 1e3e cf02 11be
00000220: cd4b 923d 311b e53d 80d8 a5bc 02da 50bd
00000230: 41e4 75bd bfc0 8abc 15c7 efbd b784 ebbd
00000240: 8b91 edbd 26c2 f63a 28fd 3bbe 5401 e13c
00000250: 14bc 9d3d 1c80 51bd 1f5b 183d 0490 fcbc
00000260: 78a3 bd3d 0018 c13d b14c 3d3b efe3 513d
00000270: 1468 05be 70c3 213d 6ec8 15be 5e1e 803d
00000280: 971a 4f3d d316 37bd 806d 2ebe 643e 03be
00000290: 3b71 efbc 957a 12be 2045 a2bd 72c9 de3d
000002a0: 971f 48bc 15f7 ddbd fca9 ecbd e2da ae3d
000002b0: 2dcb dc3c 0f08 efbd ceea 0a3e 2740 c3bd
000002c0: fa48 03be 01f3 0c3d ede4 a43d 82a3 61bd
000002d0: 751f fbbc c65d 55bd 1789 7d3d 8d53 02be
000002e0: 307b 7d3d c8d3 183e b750 853c 7a19 1abe
000002f0: 0609 963c e7b6 9bbd 052a 113d 5b08 f8bb
00000300: c4ef 9d3d ffd8 e6bd fc57 12bd dd3b 36be
00000310: 5cfd 26bc 9b33 a5bd 9bd4 b5bd aa01 1dbd
00000320: 284c 863d 2933 db3d 4ece 103d 6161 27be
00000330: 92c9 36be 14bc 9dbb 9c08 873c 0c0c a03d
00000340: 3a4d a4bd 174a 71bd 9045 b6bd b91d 03be
00000350: d10d a53d 5f3e 48bd 40f2 eb3c f8a1 683d
00000360: 883b ad3d 97a4 1abe e31a 293d 78a6 dabd
00000370: 0691 653d 5875 d5bc e5f6 fd3d 7516 26be
00000380: 8863 d2bd 3698 33bd 060b 2c3e 96c7 0bbc
00000390: 7432 163e 100e 973b 8791 483d 729e fc3d
000003a0: 6c15 b63d ab7f 653c 0295 c2bd cac3 653d
000003b0: 9216 fb3d d82e b73b 8457 2cbe 1294 9ebd
000003c0: 49af 033d 1a09 013d 0828 9e3d ccd4 3f3d
000003d0: cdda 64bc 8d12 bbbb 26bc 4c3b 0e9b ca3d
000003e0: 5f4c 32bd 564c 26bd 57e1 e43c 7d54 56bc
000003f0: 2446 8bbd 5a71 583d 6aa4 9f3d 5ea7 b4bd

batch_norm2.weight f4 [128]
0.9924225 0.98622924 1.0148683 0.97144985 0.9923615 0.98157614 1.0105069 1.0109099
0.9984634 0.9689849 0.98496693 1.0185101 1.0042287 0.9905362 0.9813352 0.98185617
0.9790714 1.0222737 0.95821697 1.0127441 0.96343225 1.0227276 0.9930108 1.0102847
0.98735595 0.99671113 0.990711 1.0048449 0.9994881 0.9953692 1.0189604 0.9784105
1.0141606 1.030396 0.9914956 1.0059958 1.0179702 1.0064697 0.99721885 0.9880084
0.9969981 1.0337944 0.99862957 0.99675477 0.9784943 1.001567 0.9684734 0.9824433
1.0269852 1.0512054 1.0001297 0.9741971 1.0044893 1.0118028 0.99101937 0.9614195
1.0015789 1.0436068 0.9982461 0.98678607 0.989154 1.0258667 0.9927933 0.9976627
0.98132986 0.98316306 0.9824811 0.9610873 0.98609143 1.0097561 0.9978753 0.9381849
1.0103825 0.9886895 0.9621892 0.9911077 1.0256193 0.99040955 0.9824909 0.98431975
0.99168843 1.014345 0.9967226 0.9862249 1.0108933 1.0151851 1.0157198 0.9977986
1.0071033 1.006423 1.0150238 1.0043848 0.967253 1.0082235 1.0094695 1.0015152
0.99333435 0.99604136 1.00894 1.0104332 1.0070608 0.98876107 0.9969733 1.0198587
0.979721 0.9587137 1.0454135 0.991085 0.99584305 0.99130636 0.969234 0.9805121
1.01379 1.005649 1.0034586 0.991089 0.99920875 0.9957421 1.01359 1.0242339
1.0253302 1.0174218 1.0230489 0.9957334 0.98390913 1.0114325 1.005853 0.99535096
00000000: 670f 7e3f 8579 7c3f 34e7 813f f0b0 783f
00000010: 670b 7e3f 9348 7b3f 4a58 813f 7f65 813f
00000020: 4c9b 7f3f 650f 783f cb26 7c3f 8a5e 823f
00000030: 918a 803f c893 7d3f c938 7b3f ed5a 7b3f
00000040: 6ca4 7a3f ddd9 823f b54d 753f 99a1 813f
00000050: 7fa3 763f bde8 823f f535 7e3f 0251 813f
00000060: 5cc3 7c3f 7628 7f3f 3c9f 7d3f c29e 803f
00000070: 74de 7f3f 84d0 7e3f 4b6d 823f 1c79 7a3f
00000080: 04d0 813f 04e4 833f a8d2 7d3f 78c4 803f
00000090: d94c 823f 00d4 803f bc49 7f3f 1eee 7c3f
000000a0: 443b 7f3f 6053 843f 30a6 7f3f 522b 7f3f
000000b0: 9a7e 7a3f 5933 803f dfed 773f 6781 7b3f
000000c0: 4074 833f e68d 863f 4004 803f fb64 793f
000000d0: 1b93 803f c182 813f 72b3 7d3f 971f 763f
000000e0: bd33 803f e894 853f 0e8d 7f3f 039e 7c3f
000000f0: 3239 7d3f 9a4f 833f b427 7e3f d366 7f3f
00000100: 6f38 7b3f 93b0 7b3f e283 7b3f d109 763f
00000110: 7d70 7c3f b03f 813f c174 7f3f e32c 703f
00000120: 3754 813f c11a 7d3f 0852 763f 3cb9 7d3f
00000130: 7e47 833f 7b8b 7d3f 8684 7b3f 61fc 7b3f
00000140: 4bdf 7d3f 0fd6 813f 3629 7f3f 3c79 7c3f
00000150: f464 813f 96f1 813f 1b03 823f bb6f 7f3f
00000160: c3e8 803f 78d2 803f 4dec 813f ae8f 803f
00000170: e59d 773f 780d 813f 4c36 813f a631 803f
00000180: 294b 7e3f 91fc 7e3f f224 813f e055 813f
00000190: 5ee7 803f 721f 7d3f a439 7f3f bb8a 823f
000001a0: ffce 7a3f 436e 753f 1cd0 853f bfb7 7d3f
000001b0: 92ef 7e3f 41c6 7d3f b81f 783f d702 7b3f
000001c0: dfc3 813f 1bb9 803f 5571 803f 02b8 7d3f
000001d0: 25cc 7f3f f4e8 7e3f 51bd 813f 191a 833f
000001e0: 053e 833f e13a 823f 44f3 823f 62e8 7e3f
000001f0: 78e1 7b3f 9f76 813f cbbf 803f 52cf 7e3f

batch_norm2.bias f4 [128]
0.0015453642 0.004336335 0.01764529 -0.028034832 -0.00829773 -0.026318925 0.015572859 -0.00092992256
0.003923213 -0.026917053 -0.029053157 0.003924994 -0.010417278 -0.008978523 -0.009108004 0.0027142633
-0.01561406 0.009371915 -0.03976808 0.0039747166 -0.02563014 0.02459828 -0.0105712265 -0.009514558
-0.019688562 -0.023110207 -0.02899946 -0.0063741202 0.0004386996 0.0076563656 0.021044256 -0.008689509
0.0067339432 0.02686404 -0.011620058 -0.014330409 0.0049015433 0.0034121324 0.0019131717 -0.017679647
-0.0030799326 0.008662419 -0.021948108 -0.0076252585 -0.021410888 0.01673606 -0.03545676 -0.018502189
0.017633885 0.036487766 -0.009052189 -0.02315879 -0.0005808525 -0.0037208956 -0.012175969 -0.017669355
-0.0032008218 0.03526375 -0.0138753615 -0.041728027 0.002826685 0.021084722 -0.011848729 -0.011910988
-0.019157536 -0.039818358 -0.024421906 -0.027758904 -0.007442067 0.011745618 -0.013651028 -0.0443058
0.003990798 -0.025285603 -0.021510854 -0.0161084 0.021828948 -0.0059068403 -0.01837424 -0.006054018
-0.028048325 0.008384546 -0.018817402 -0.011766073 0.010712331 -0.0043943464 0.015869359 -0.005007688
0.0050243167 0.008106055 0.014787625 -0.004234338 -0.03548904 -0.009902321 -0.021654358 0.013079564
-0.008696545 -0.009234518 0.011201514 -0.0021497642 0.00216715 -0.018235825 0.0043976204 0.01821621
-0.014757915 -0.035400074 0.021805707 -0.013612691 -0.0052649505 -0.014451438 -0.033187293 -0.027365806
-0.0026712765 0.01192302 -0.013067346 -0.011570164 -0.0030467203 -0.008192408 0.0036386596 0.029767347
0.034344587 0.026396459 0.006339843 0.004074114 -0.0093225045 -0.000968843 -0.005480108 -0.0015734383
00000000: d18d ca3a d117 8e3b db8c 903c 4ea9 e5bc
00000010: 34f3 07bc c99a d7bc 4e25 7f3c 0cc6 73ba
00000020: 4c8e 803b 2781 dcbc e300 eebc 3c9d 803b
00000030: 3bad 2abc a81a 13bc bd39 15bc c8e1 313b
00000040: 1dd2 7fbc a98c 193c dbe3 22bd 573e 823b
00000050: 4df6 d1bc 5582 c93c f032 2dbc f3e2 1bbc
00000060: e849 a1bc 9e51 bdbc 4790 edbc ffdd d0bb
00000070: 4301 e639 40e2 fa3b 0165 ac3c 715e 0ebc
00000080: 69a8 dc3b fa11 dc3c 0e62 3ebc 17ca 6abc
00000090: 209d a03b 159e 5f3b 64c3 fa3a e8d4 90bc
000000a0: b2d8 49bb d2ec 0d3c 85cc b3bc 4edd f9bb
000000b0: e365 afbc 101a 893c 1c3b 11bd e791 97bc
000000c0: f074 903c 3274 153d a24f 14bc 81b7 bdbc
000000d0: 5a44 18ba 45da 73bb b77d 47bc 53bf 90bc
000000e0: e1c4 51bb b970 103d 7c55 63bc 02eb 2abd
000000f0: e83f 393b deb9 ac3c 2c21 42bc 4e26 43bc
00000100: 44f0 9cbc 9318 23bd 7310 c8bc a466 e3bc
00000110: 95dc f3bb b170 403c 90a8 5fbc 007a 35bd
00000120: 3dc5 823b c123 cfbc 8837 b0bc c3f5 83bc
00000130: 9fd2 b23c 2b8e c1bb 9385 96bc c960 c6bb
00000140: 9ac5 e5bc 565f 093c f426 9abc 7dc6 40bc
00000150: c682 2f3c 73fe 8fbb 7500 823c 8817 a4bb
00000160: 06a3 a43b 42cf 043c cb47 723c 34c0 8abb
00000170: f55c 11bd 583d 22bc 7b64 b1bc ab4b 563c
00000180: f47b 0ebc 604c 17bc 8e86 373c 0fe3 0cbb
00000190: be06 0e3b 4c63 95bc ea19 903b 293a 953c
000001a0: 2fcb 71bc abff 10bd e2a1 b23c c407 5fbc
000001b0: 9b85 acbb b9c5 6cbc 66ef 07bd 412e e0bc
000001c0: 9510 2fbb c558 433c 6c18 56bc c990 3dbc
000001d0: 7cab 47bb 7339 06bc 9476 6e3b a7da f33c
000001e0: e9ac 0c3d 633d d83c 75be cf3b 2580 853b
000001f0: 6bbd 18bc f4f9 7dba 7a92 b3bb d43b ceba

batch_norm2.running_mean f4 [128]
0.8655801 -0.9449063 0.33322406 1.5646704 -0.017361024 0.34466106 -0.59608185 -0.3557008
-0.22538681 0.039678376 -0.046281807 -0.803732 0.001099446 -0.5223827 0.22327188 -0.22804926
-0.40663183 -0.5043255 -0.599824 -0.46384397 0.5281428 0.81915843 -0.46050245 -0.48667857
-0.67094076 -0.52327794 -0.26909125 0.48577586 -0.6480704 0.84949315 1.0763271 -1.0353168
-0.740268 0.032574814 -0.18792966 -0.604297 0.015694063 0.45648423 0.05044994 0.5076509
-0.2287813 -0.56680423 -1.078497 0.29667544 0.8958724 -0.8003847 0.83356863 -0.8608348
-0.010698799 0.26127508 -0.27911285 0.4217486 -0.33996516 0.608123 -0.1767796 -1.186685
0.84779257 -0.53788084 0.46107754 -0.54615235 0.7428371 -0.744312 0.5153658 -0.41800672
0.38371813 0.07640107 -0.84223247 0.38030323 -0.3843919 0.23934367 -0.81055367 -0.97475505
-0.18761578 -0.8581154 -0.67684174 -0.44084448 0.4221994 -0.03861071 0.4428416 -0.19621354
0.461039 -0.16812019 0.83586687 1.0934565 0.37707844 0.44101205 -0.7079446 -0.11705599
-0.39116913 0.115832366 0.22586282 -0.38709077 -0.22857933 -0.8275176 -0.6240743 0.23735331
0.33709326 -1.0392059 0.18736732 -0.5233994 -0.3872973 0.42222834 0.18310975 -0.49301723
-0.077396564 0.9779938 0.89702004 -0.6969152 0.5276471 0.79892665 0.028314076 0.46133718
0.3365304 -0.14190863 -0.49772602 -1.153404 0.47626925 -0.132668 -0.28877977 0.34308648
0.4534694 -0.4182107 -0.66935295 0.51368135 -0.24570617 0.18910357 0.17920475 0.4674306
00000000: a896 5d3f 61e5 71bf 589c aa3e 1f47 c83f
00000010: b538 8ebc 6a77 b03e d298 18bf 6a1e b6be
00000020: cdcb 66be cb85 223d fe91 3dbd 61c1 4dbf
00000030: 491b 903a dfba 05bf 62a1 643e bf85 69be
00000040: 0c32 d0be 7a1b 01bf 118e 19bf f57c edbe
00000050: 5e34 073f 5eb4 513f fac6 ebbe ef2d f9be
00000060: c6c2 2bbf 8bf5 05bf 54c6 89be 9db7 f83e
00000070: f1e7 25bf 6278 593f 16c5 893f 4385 84bf
00000080: 3482 3dbf 2b6d 053d a270 40be 35b3 1abf
00000090: d690 803c 4db8 e93e 99a4 4e3d 69f5 013f
000000a0: a545 6abe 151a 11bf 310c 8abf d8e5 973e
000000b0: e557 653f 03e6 4cbf c164 553f ab5f 5cbf
000000c0: 044a 2fbc d9c5 853e e1e7 8ebe 6fef d73e
000000d0: ea0f aebe f3ad 1b3f b605 35be 4be5 97bf
000000e0: ef08 593f 8fb2 09bf 5b12 ec3e a4d0 0bbf
000000f0: 922a 3e3f 3b8b 3ebf 03ef 033f fa04 d6be
00000100: b476 c43e 2a78 9c3d 8c9c 57bf 1bb7 c23e
00000110: 04cf c4be 8216 753e 7280 4fbf 8c89 79bf
00000120: 5a1e 40be 73ad 5bbf 8045 2dbf 5eb6 e1be
00000130: 852a d83e 4426 1ebd 22bc e23e 34ec 48be
00000140: 4e0d ec3e b327 2cbe 5ffb 553f 62f6 8b3f
00000150: 6d10 c13e 55cc e13e db3b 35bf 0dbb efbd
00000160: 5247 c8be 8539 ed3d 9548 673e c330 c6be
00000170: b310 6abe 32d8 53bf 55c3 1fbf bf0c 733e
00000180: 7d97 ac3e b304 85bf 38dd 3f3e 81fd 05bf
00000190: d54b c6be 502e d83e 1f81 3b3e c16c fcbe
000001a0: 1782 9ebd cd5d 7a3f 1ba3 653f 0969 32bf
000001b0: e113 073f 7586 4c3f ecf2 e73c 6334 ec3e
000001c0: b64d ac3e 7f50 11be f2d5 febe bea2 93bf
000001d0: 90d9 f33e 1fda 07be f1da 93be 08a9 af3e
000001e0: 242d e83e b61f d6be b75a 2bbf 9f80 033f
000001f0: 669a 7bbe 5ea4 413e 7381 373e 1053 ef3e

batch_norm2.running_var f4 [128]
0.83388764 0.5226181 0.39914426 1.173973 0.18611619 0.13702637 0.3176588 0.6034961
0.9510645 0.5809267 0.4045287 0.18815586 0.14448102 0.13920683 0.33332068 0.50257784
1.1181263 0.07444289 0.9180351 0.090377495 0.58107525 0.15197769 0.66934836 0.07019609
1.2916007 0.5991394 0.13867433 0.06007389 0.5900379 0.17215069 0.43414015 1.2326173
0.56314766 0.56706655 0.2818709 0.4504268 0.14599438 0.35552153 0.47671592 0.21906225
0.48346686 1.0568464 0.70156825 1.5022634 0.19059342 0.30853882 0.71975046 0.30601102
0.09543137 0.07083401 0.21170631 0.60277146 0.048052948 0.121075496 0.2593097 0.9790751
0.359716 0.2983938 0.6531509 0.14745383 0.3820059 0.13502045 0.12073712 0.09091991
0.2114966 0.7461568 1.568339 0.3971596 0.6234457 0.38603693 0.9581326 1.5169787
0.89503294 0.46568224 0.8326173 0.24907397 0.38723162 0.43006474 0.9115581 0.07626018
0.4849048 0.08510001 0.64244306 1.173469 0.3305567 0.4541233 1.0797194 0.15302546
0.093469016 0.11328196 0.15993083 1.1027179 0.4289897 0.080676995 0.82619786 0.79980975
0.45584503 1.1238805 0.329313 0.32682532 0.086649574 0.18989494 0.40332064 0.1481744
0.3407126 0.39528924 0.37808913 0.1069619 0.41340736 0.3201616 1.0869253 1.039447
1.565205 0.070336275 1.0033295 0.8855527 0.25545773 0.121795245 1.047261 0.30853948
0.43577555 1.3599391 0.36772197 1.3156075 0.60949373 0.1496691 0.22159037 0.47322124
00000000: a979 553f 4dca 053f a35c cc3e bf44 963f
00000010: 3e95 3e3e a450 0c3e 2da4 a23e b87e 1a3f
00000020: f778 733f 9db7 143f 631e cf3e eeab 403e
00000030: d5f2 133e 3c8c 0e3e 02a9 aa3e f1a8 003f
00000040: c31e 8f3f 8475 983d 5904 6b3f d617 b93d
00000050: 59c1 143f 0aa0 1b3e 6a5a 2b3f f8c2 8f3d
00000060: 2c53 a53f 3361 193f a500 0e3e 0a10 763d
00000070: b90c 173f 4548 303e 9e47 de3e 67c6 9d3f
00000080: 722a 103f 462b 113f 6251 903e 579e e63e
00000090: 8d7f 153e eb06 b63e 1c14 f43e db51 603e
000000a0: f888 f73e be46 873f fa99 333f 2b4a c03f
000000b0: ec2a 433e cdf8 9d3e 9141 383f 7aad 9c3e
000000c0: 8671 c33d 6c11 913d 8ac9 583e 3b4f 1a3f
000000d0: 2bd3 443d 6ef6 f73d 3ec4 843e aaa4 7a3f
000000e0: b22c b83e 12c7 983e e634 273f 23fe 163e
000000f0: 4796 c33e cd42 0a3e 0645 f73d 3834 ba3d
00000100: 9192 583e 2204 3f3f 55bf c83f 8158 cb3e
00000110: 239a 1f3f a2a6 c53e 2e48 753f 5c2c c23f
00000120: e120 653f e76d ee3e 6826 553f 3f0d 7f3e
00000130: 3943 c63e 7231 dc3e df5b 693f 4c2e 9c3d
00000140: 7145 f83e ea48 ae3d 2677 243f 3b34 963f
00000150: ba3e a93e d982 e83e 3f34 8a3f b5b2 1c3e
00000160: af6c bf3d 5f00 e83d e8c4 233e dc25 8d3f
00000170: 8aa4 db3e fb39 a53d b481 533f 55c0 4c3f
00000180: 8564 e93e 51db 8f3f b79b a83e a655 a73e
00000190: 5575 b13d d273 423e 0b80 ce3e 08bb 173e
000001a0: e271 ae3e 5a63 ca3e e694 c13e d70e db3d
000001b0: 21aa d33e 39ec a33e 5e20 8b3f 990c 853f
000001c0: a358 c83f 770c 903d 1a6d 803f 95b3 623f
000001d0: 5bcb 823e c96f f93d a60c 863f e3f8 9d3e
000001e0: f91d df3e 7c12 ae3f 0e46 bc3e d465 a83f
000001f0: c807 1c3f db42 193e 96e8 623e 0e4a f23e

conv3.bias f4 [128]
-0.00018621235 0.000111779824 0.0003551788 0.00061931583 -0.00037347 -0.0002912169 -0.0001060842 0.00061603804
-0.00031828386 -3.530388e-05 0.00027820078 0.00014614995 -0.0005106584 -0.0002557013 -4.814945e-05 0.00020670184
-5.2386553e-05 0.00014044727 -0.00012962634 -0.0003234001 -0.0006959239 -4.1993386e-05 0.00025135835 -0.00060862966
-0.00018919428 0.0001602071 0.00063706946 8.6471235e-05 -0.00022079653 9.944071e-05 0.00043485317 -0.000118578864
5.612968e-05 -0.0003422418 0.00027142666 -0.00018105678 -0.0002411161 0.00034347485 3.453909e-05 1.2357661e-05
-0.0013897 -0.00018398714 4.500386e-06 -0.00085798156 0.00044060382 0.0007389143 -0.00028861576 -0.00011726049
-0.00015712109 -0.00019477967 0.00011507256 -0.0018679216 0.001563024 -6.64998e-05 6.642851e-05 -0.0003483143
-0.00041440615 -2.5028308e-05 0.00031577432 -0.00038603367 -0.0009292546 0.00018194983 -0.00024123854 0.0003681445
0.0011606555 6.387034e-05 -3.9779326e-05 0.00017673946 -0.00016017107 0.00015731994 -0.00044775303 -1.241593e-05
0.00018071628 -0.0003665746 -0.00010318727 -0.00039033877 0.00021215927 -1.8896473e-05 -0.0002661649 0.00047181686
0.0013669748 -0.00022308363 -0.00016366306 0.00022981851 -0.00064985297 0.00013803506 1.8301303e-05 -0.00017175333
-0.00013187091 0.00038244456 7.130589e-06 -0.0004523225 -5.7836627e-05 -0.0004701585 0.0003181851 0.0007358922
0.0002605531 -8.023136e-05 -0.00038408552 0.00022559766 -9.210506e-06 6.602988e-05 -5.7383342e-05 -2.0724245e-05
0.0008754623 -1.9712595e-06 0.00029506627 -0.00078394293 -0.00020126638 0.00030455313 -5.0011924e-05 0.00024086796
0.00020592254 -0.00014699463 -0.00052584603 2.7062348e-05 -0.0004954225 -1.3162125e-06 7.289154e-05 -0.0010267689
-0.0008579155 4.975878e-05 -0.0002734859 -3.1239168e-05 -6.514113e-05 -0.0006291084 -0.000772495 0.00011620194
00000000: ff41 43b9 566b ea38 4b37 ba39 9559 223a
00000010: 4bce c3b9 78ae 98b9 8579 deb8 9d7d 213a
00000020: 56df a6b9 4113 14b8 7adb 9139 d43f 1939
00000030: b5dd 05ba a60f 86b9 14f4 49b8 1abe 5839
00000040: a2b9 5bb8 0745 1339 4eec 07b9 078e a9b9
00000050: aa6e 36ba 0e22 30b8 bfc8 8339 728c 1fba
00000060: 7462 46b9 44fd 2739 0201 273a e457 b538
00000070: 9e85 67b9 d38a d038 01fd e339 8bad f8b8
00000080: c96c 6b38 eb6e b3b9 454e 8e39 0fda 3db9
00000090: 1cd4 7cb9 6a14 b439 11de 1038 c053 4f37
000000a0: 9826 b6ba acec 40b9 0502 9736 2bea 60ba
000000b0: d800 e739 b3b3 413a 5a51 97b9 bfe9 f5b8
000000c0: dfc0 24b9 c53d 4cb9 1c53 f138 0cd5 f4ba
000000d0: 62de cc3a cf75 8bb8 894f 8b38 f49d b6b9
000000e0: a744 d9b9 e2f3 d1b7 838e a539 9064 cab9
000000f0: 3899 73ba c9c9 3e39 faf4 7cb9 8503 c139
00000100: 2321 983a 21f2 8538 bad8 26b8 2353 3939
00000110: 98f3 27b9 40f6 2439 65c0 eab9 034e 50b7
00000120: a87e 3d39 cf30 c0b9 3e66 d8b8 62a6 ccb9
00000130: 1277 5e39 de83 9eb7 0c8c 8bb9 305e f739
00000140: 102c b33a 8eeb 69b9 f89c 2bb9 70fb 7039
00000150: e55a 2aba 81bd 1039 c085 9937 af18 34b9
00000160: d446 0ab9 d782 c839 4b43 ef36 b325 edb9
00000170: 9b95 72b8 9b7f f6b9 15d2 a639 e4e8 403a
00000180: d89a 8839 e241 a8b8 165f c9b9 698e 6c39
00000190: d286 1ab7 8679 8a38 e5ae 70b8 fad8 adb7
000001a0: 487f 653a fb49 04b6 20b3 9a39 8581 4dba
000001b0: 080b 53b9 6eac 9f39 e5c3 51b8 8091 7c39
000001c0: e9ec 5739 9222 1ab9 eed8 09ba f303 e337
000001d0: 3edf 01ba b8a8 b0b5 59dd 9838 a694 86ba
000001e0: bce5 60ba 15b4 5038 a862 8fb9 cd06 03b8
000001f0: 619c 88b8 c0ea 24ba 4381 4aba 71b1 f338
