agent_0_gcn.pth (torch, 147323 bytes, 18 tensors)

conv1.bias f4 [128]
00000000: 9595 9d3a 33db 063a a535 623a 3f05 5238
00000010: f5d4 c2b9 cc73 bbb8 f717 e2ba ff7a 4838
00000020: b9a5 efb9 2f27 a6ba f5bd 6f39 3ae6 e1ba
00000030: 423e 0cba d49e a839 754a 6fba 9707 edb9
00000040: b585 9b3a 3010 6aba 9538 e539 e1ce f53a
00000050: f7aa c939 d51b a1ba 679a ebb9 4f82 2339
00000060: 8af9 32b9 3064 8f3a 709f 91ba 3c65 11ba
00000070: 730b 5ab9 df7e 02ba 4154 523b 121e 72b9
00000080: 0278 d6ba e8d6 b639 eca6 233a 3f57 2939
00000090: 1a07 c53a de73 0bba 72c2 8b39 bb8d 9539
000000a0: 92e9 303b 9273 593a d3a4 28b9 f391 9fb9
000000b0: 0913 9d3a 4c37 903a 5a68 adb9 e675 993a
000000c0: a190 03b9 f672 cc39 c674 8b3a 3b09 c6ba
000000d0: fdc2 2cba 74ab c639 60ba 643a a9d9 17ba
000000e0: e310 143b b8ae 1eba 4912 733a d09a acb8
000000f0: 7f1b 6739 2093 23ba d6c6 80b9 388c 77ba
00000100: a26b 22ba 8e56 08b7 e625 a23a 410e 943a
00000110: 10f5 ef3a ef03 8938 bb34 9cba dfd1 fcb9
00000120: f7cf 2639 7048 293a e6b0 a33a d7f8 383a
00000130: 3a08 cb3a 8552 2239 8218 dd39 dcc0 92ba
00000140: e0a8 63b9 fcb6 a4b8 164a a53a 7c40 b23a
00000150: 01e5 4dba e983 e7b8 564f 36ba d177 85b9
00000160: 190f f5b8 1ce5 51ba 8c6c 073a bada 9dba
00000170: d76f 8939 5c9d f0b9 9cb5 e1b9 73c6 003a
00000180: b70e a639 5e04 5bb9 8b66 233a 52e1 973a
00000190: 61b9 a23a a698 c53a 1e04 a23a f6e3 5fba
000001a0: d3a3 333b 2d63 043a df75 60ba 8c0d acba
000001b0: f36d c13a fb15 2dba fcbd 543a 7d89 94b9
000001c0: 35b2 11bb 1907 3a39 a7c2 1039 ef0f 3039
000001d0: 968f b43a 22ef 2839 ee1e d9ba 725a 0639
000001e0: 871b 07ba 7698 e439 3ec4 423b ceaa 293a
000001f0: b905 78ba 6036 94ba 9d4d a6ba a216 b9ba
0.0012022728 0.00051443576 0.00086292095 5.0072787e-05 -0.0003716123 -8.938424e-05 -0.0017249574 4.7798265e-05
-0.00045709105 -0.0012676473 0.0002286358 -0.001723475 -0.00053498533 0.00032161793 -0.00091282214 -0.00045209817
0.0011865409 -0.0008928804 0.0004372044 0.0018753671 0.00038465086 -0.001229162 -0.00044937732 0.00015593435
-0.00017068363 0.0010939892 -0.0011110138 -0.0005546396 -0.00020794365 -0.0004978012 0.0032093676 -0.0002309012
-0.0016362669 0.00034873863 0.000624283 0.00016149598 0.0015032024 -0.0005319695 0.0002665702 0.00028525092
0.0026994688 0.00082951144 -0.0001608313 -0.00030435584 0.0011983822 0.0011002808 -0.0003307488 0.001170811
-0.00012547012 0.00038995565 0.001063966 -0.0015108952 -0.0006590335 0.00037893245 0.0008725282 -0.0005792627
0.0022593073 -0.0006053257 0.0009272439 -8.230435e-05 0.0002204012 -0.000623988 -0.00024562207 -0.00094431965
-0.0006195848 -8.126384e-06 0.0012370914 0.0011295752 0.0018307287 6.533402e-05 -0.001191757 -0.00048221552
0.00015908467 0.00064576324 0.0012488633 0.0007056123 0.0015490123 0.00015480265 0.00042170665 -0.0011196393
-0.00021711318 -7.854213e-05 0.001261058 0.001359954 -0.00078542536 -0.000110395085 -0.0006954571 -0.00025457007
-0.000116853225 -0.0008006857 0.0005166016 -0.0012043335 0.00026214003 -0.0004589361 -0.00043050654 0.0004912384
0.0003167295 -0.00020887094 0.00062332366 0.0011587536 0.0012414866 0.00150754 0.0012360846 -0.0008540744
0.002741088 0.0005050179 -0.0008562486 -0.0013126596 0.0014757499 -0.00066027016 0.0008115468 -0.00028331197
-0.0022231464 0.00017740986 0.00013805424 0.00016790604 0.0013775702 0.00016110812 -0.0016565004 0.0001281293
-0.0005153943 0.0004360114 0.002971902 0.000647229 -0.0009461302 -0.0011307709 -0.0012687925 -0.0014121125

conv1.lin.weight f4 [128, 3]
00000000: c432 0c3e 0139 ec3d 669b 08be 4493 043e
00000010: 8492 163e edc8 353d 3b74 5d3e 0bb3 2dbd
00000020: eb8f 2dbe 54a1 6d3d c571 10be f1cb 0bbe
00000030: 67aa 183e 125a 03be a520 37be be32 093e
00000040: 285c 3e3e ac77 fdbd 9d44 363d 6352 e6bd
00000050: 35f0 033d 30c0 653c f5fb 473e 7e5e 693b
00000060: 7df2 22be 4568 0bbe 5baa aebd 47ea 2fbd
00000070: 0591 bbbd a048 763d 8c08 c3bc bc75 44be
00000080: 014a e93d 255e 52be 2731 07be d6f1 20be
00000090: cd45 22be 267b bcbc 7312 4d3e b8c7 923c
000000a0: 8ba5 523e ea06 c9bd f673 d2bb 8988 5d3d
000000b0: 1113 883d ff99 a4bd faf6 93bd 310b 163e
000000c0: 461c cc3d c4e7 17bd c3b5 6abe eb16 543c
000000d0: 304f 063d 8813 edbd 9f62 f03c f92d 07bc
000000e0: d589 2fbe f30f 3f3e a064 183e 5c1a a63d
000000f0: 8ab3 b4bd f4e4 c73d d120 183e f223 983d
00000100: 486b 5b3e 7919 30bd a1e3 33be 03b2 a33d
00000110: b884 ea3d 23a9 e7bd 29a9 11be 7602 4e3e
00000120: 2d8a 353c 364e 9ebd 073f 3bbe c861 0c3e
00000130: e8f9 593e bf7b 1cbd 7815 a5bd 8a2a ccbc
00000140: fa2f 12bd 0758 9bbb 1c5f d73d f78d 0b3d
00000150: 566a 3e39 d828 563e 9bbe 91bc 02de 3abe
00000160: 1418 723d 8a55 51bd 369e 91bd 37d9 3ebe
00000170: 64f2 bcbd 92a7 8ebd 8528 593d b667 123e
00000180: fa8b 72bd fe15 f5bc 3d4a 44bd e25f 69bb
00000190: 5461 7cbc 2aab 0d3e 9580 2bbe 0273 0e3e
000001a0: 88b0 e83d a46d 443e 0230 fa3d 03c8 933c
000001b0: 03f1 56be a3c1 25be 313f 043d 7bdf 10be
000001c0: 585d 233e 76d4 5c3e 17a6 12be b361 0b3e
000001d0: 9a34 743d 6df0 32be 16b2 5cbe 5c56 7fbd
000001e0: 17bf 39bb 99b4 ea3d 4862 32bd 0016 1d3e
000001f0: 394c 08be 02dc 6e3b 496b 1fbc fc93 81bd
00000200: c76e 323e 8e8e d83d 5e9d 1e3e 5c4f 00be
00000210: be7d ecbd ed24 34be c265 e83d c007 f3bd
00000220: 38ed ddbd a5ef f7bc 52d6 0e3c d322 993d
00000230: f581 48be d3bf 363e 3f76 a43c 522a 71bd
00000240: 58a5 efbd b02a 6c3b c3ab 343e 8148 d2bd
00000250: c63b e33b 8b1a 06be 9bf5 68bc 99a8 f8bd
00000260: ffeb 3e3e 9c97 bfbd 84d5 cdbd 7e18 78bc
00000270: eba6 ddbc 9e34 003d df4f c1bd f06b 143e
00000280: 2a01 63bd 06af 2bbe 8d11 a73d 6f64 4d3e
00000290: 84cc 5bbe f6f2 213b 3840 e9bd 2b1a 52be
000002a0: 9fd2 6439 4473 35be 8788 be3d d7a6 de3c
000002b0: 580e 273a c377 433e 5e35 663e 5cdb 393e
000002c0: 81fb e93d cc81 0b3e d99d 4fbe e04b b8bd
000002d0: 13a7 093e 1cb6 323d 8129 383e c9e1 44bb
000002e0: 08ea 213d 860c 823d 42c8 19bd cd79 5d3e
000002f0: 05ce 3cbe 23c5 213c 12cc 39be 99f1 e9bd
00000300: 7c75 5dbe 7f1d 003d 32a5 38be 9a63 f6bc
00000310: 227b 0e3d 4ded 253e 4c01 dcbd 2d5b 1b3e
00000320: 3d46 123d f406 c9bd 0f5c 23bb 819d ec3c
00000330: 2c08 fa3d b209 903d dac1 2dbd fd5a 7dbd
00000340: 2794 2dbd a5f9 373e cd4d 09be 6d86 8ebd
00000350: f0ff 303d c4b8 713d be93 6b3e afb0 903d
00000360: 5d62 56be 69b1 b13c da0a 30be 35ff 0dbe
00000370: b830 3abe fb33 7a3d 93e2 07bc 8b74 803d
00000380: 378c 9c3d 9e66 2d3e c4c6 c5bd 0bdb 90bd
00000390: d3ca 2fbe da93 043d 1b05 a7bd bca6 cc3d
000003a0: 44c8 0cbe da31 24be f2fd 3a3e b7cc bdbb
000003b0: fb88 4fbe 3361 323d 9193 55be b679 2d3e
000003c0: 1a1f 5cbc 0abb 3b3e 6476 f9bd 5007 ba3d
000003d0: 9e08 3f3e 9ae2 29bd 4dc5 1dbe 56d0 84bc
000003e0: 02e2 cdbc 9241 bcbd 96a3 b7bd 88f8 fbbb
000003f0: 1d54 353d 6d31 c8bd 8615 54be 4d31 51be
0.1369124 0.1153431 -0.1334053 0.12946802 0.14704329 0.04438107 0.2162637 -0.042407077
-0.16949432 0.058015183 -0.141059 -0.13652016 0.14908753 -0.12827328 -0.17883547 0.13398263
0.18589842 -0.12376341 0.04449903 -0.11246183 0.0322115 0.014022872 0.19529708 0.00356093
-0.15912814 -0.13613994 -0.085285865 -0.042948034 -0.0915852 0.060127854 -0.023807786 -0.19185537
0.11391068 -0.20543726 -0.13202344 -0.15717253 -0.1584694 -0.02300794 0.20026569 0.017917499
0.20570962 -0.09815772 -0.006422515 0.05408529 0.06644262 -0.08037185 -0.072248414 0.14652707
0.0996633 -0.037086263 -0.22920899 0.012944917 0.032790363 -0.11575991 0.029343901 -0.008250707
-0.17142422 0.18658428 0.14882135 0.081104964 -0.08823307 0.09760466 0.14856268 0.07428731
0.21427643 -0.042993043 -0.17567302 0.079929374 0.11451095 -0.11311557 -0.14224686 0.20118126
0.011080307 -0.07729761 -0.18285762 0.13709176 0.21286738 -0.03820395 -0.080607355 -0.024922628
-0.035690285 -0.0047407183 0.105161875 0.034070935 0.00018159425 0.20914018 -0.017791083 -0.18248752
0.059104994 -0.051106967 -0.071102545 -0.18637548 -0.0922592 -0.06965555 0.053017158 0.14297375
-0.059215523 -0.029917713 -0.04792236 -0.003561013 -0.015404064 0.13834825 -0.16748269 0.1391106
0.11361796 0.1918245 0.12216188 0.018039709 -0.20990376 -0.16187148 0.032286827 -0.14147751
0.15953577 0.21565422 -0.14321171 0.13611488 0.059620477 -0.17474528 -0.2155231 -0.062338218
-0.0028342658 0.114602275 -0.04355076 0.15340424 -0.13310327 0.0036447053 -0.009730169 -0.06327054
0.1742507 0.10574065 0.15489718 -0.12530273 -0.11547421 -0.17592211 0.11347534 -0.118667126
-0.108362615 -0.030265639 0.00871809 0.07477345 -0.19580825 0.17846613 0.020075915 -0.05887825
-0.11701459 0.0036036186 0.17643647 -0.10267735 0.006934616 -0.13096063 -0.014218713 -0.121415325
0.18644713 -0.09355089 -0.100504905 -0.015142558 -0.027057132 0.03130018 -0.09439062 0.144943
-0.055421032 -0.16765985 0.081576444 0.20057844 -0.21464735 0.0024711466 -0.11389202 -0.20517795
0.00021822237 -0.17719752 0.09303384 0.027179165 0.0006372682 0.19088654 0.22481295 0.18150085
0.11424924 0.13623732 -0.20275058 -0.08998847 0.1344264 0.043630704 0.17984582 -0.0030041805
0.03952983 0.06350045 -0.037544496 0.21628495 -0.18437965 0.009873661 -0.18144253 -0.11423034
-0.21626848 0.03127813 -0.18031767 -0.03007679 0.034785397 0.16203804 -0.10742435 0.151715
0.035711516 -0.09815779 -0.0024926697 0.028883697 0.1220859 0.07033099 -0.0424212 -0.06185435
-0.042377617 0.17966326 -0.13408585 -0.069592334 0.04321283 0.059014097 0.23005578 0.0706495
-0.2093596 0.021691041 -0.1719164 -0.13866885 -0.18182647 0.06108473 -0.008293766 0.06272229
0.07643931 0.16933677 -0.09657052 -0.07073029 -0.17167215 0.032367565 -0.08155271 0.099927396
-0.1374827 -0.16034642 0.18260935 -0.005792226 -0.20267098 0.043549728 -0.20857073 0.1694096
-0.01343515 0.18333068 -0.12180784 0.09083426 0.18655631 -0.04147587 -0.15407296 -0.016212624
-0.025132183 -0.09192194 -0.089667484 -0.0076895393 0.04426967 -0.09775052 -0.20711336 -0.20428963

batch_norm1.weight f4 [128]
00000000: 609b 803f 80f0 7a3f 0d05 843f 1131 7e3f
00000010: 0088 823f 3b77 7e3f 643f 7d3f 2110 803f
00000020: 6ae2 7f3f 1633 803f 474f 7d3f 58ed 7a3f
00000030: 206c 7f3f 5c35 7b3f cf76 7f3f 1ff8 783f
00000040: 3550 7f3f de80 7d3f a412 7d3f db93 7f3f
00000050: 1f64 803f 726c 7d3f a6da 803f da9d 833f
00000060: 716e 793f 7ab1 7c3f a6e3 7b3f af81 7e3f
00000070: a5d2 7b3f cf1d 813f ed46 803f fe2f 843f
00000080: aa4e 803f 20ec 7d3f 2fd6 823f ae0e 793f
00000090: 27a7 823f 2d96 823f 1107 813f 62d4 7d3f
000000a0: ef4d 7d3f 447a 813f f85e 7c3f 8c88 7e3f
000000b0: d8b2 803f a537 823f d8c0 7d3f f72d 803f
000000c0: 2a27 813f 0a82 7e3f 4c78 823f b355 803f
000000d0: e210 803f f91c 7c3f eddc 7c3f 0c00 803f
000000e0: aaac 813f f9a8 7f3f 37c2 813f 58f6 803f
000000f0: c3aa 7d3f 272f 7f3f 1dc9 7c3f 9477 7e3f
00000100: bee1 7a3f 635b 813f b088 813f b45b 803f
00000110: 87eb 7d3f 2642 7f3f b095 7e3f cb71 803f
00000120: c5c8 803f 038d 803f ef8d 813f 99de 813f
00000130: 8028 803f daf7 7c3f 44b2 7c3f 1e82 823f
00000140: a954 7a3f 9757 7b3f 7a63 803f 1648 813f
00000150: f5f6 7d3f 7a67 7c3f 995a 783f c8dc 7d3f
00000160: f383 7d3f 1964 813f 9572 843f 8451 7c3f
00000170: 675b 7c3f d1f0 803f 1f9a 7a3f 0bb6 7d3f
00000180: acea 7e3f c61e 7c3f 3784 7e3f baeb 7d3f
00000190: 1880 813f e8f0 7e3f 74cb 7a3f fab9 7f3f
000001a0: 7f13 7d3f 51cb 7e3f e0de 793f 365f 7b3f
000001b0: b53e 803f 25f1 7f3f bc66 853f 2cbe 7e3f
000001c0: 0e9a 813f de44 7f3f 65e0 803f 4ba1 7e3f
000001d0: 021d 803f cd77 7e3f 4fe0 7c3f 4bd0 803f
000001e0: 402a 7a3f 84d6 7f3f b498 7b3f ec1c 803f
000001f0: 3987 7f3f f7e8 813f 3175 7c3f 5dbf 7e3f
1.0047417 0.98023224 1.0314041 0.9929362 1.0197754 0.9940068 0.9892485 1.0004922
0.99954855 1.001559 0.9894909 0.9801841 0.9977436 0.98128295 0.9979066 0.972536
0.9973176 0.9902476 0.9885657 0.99834985 1.0030555 0.989936 1.0066726 1.0282547
0.97434145 0.9870831 0.9839424 0.9941663 0.98368293 1.0087222 1.0021645 1.0327146
1.0024006 0.99188423 1.0221614 0.97288024 1.0207261 1.020208 1.0080281 0.99152195
0.9894704 1.0115438 0.9858241 0.99427104 1.0054579 1.0173231 0.9912238 1.0014027
1.0090077 0.99417174 1.0192962 1.0026153 1.0005152 0.9848171 0.98774606 1.0000014
1.0130818 0.99867207 1.0137395 1.0075178 0.99088687 0.99681324 0.98744375 0.9940121
0.98000705 1.0106014 1.0119839 1.0027986 0.9918751 0.9971031 0.99447155 1.0034727
1.006127 1.0043033 1.012144 1.0146056 1.001236 0.9881569 0.9870951 1.0195959
0.9778543 0.98180526 1.0030358 1.0100124 0.9920495 0.9859539 0.9701324 0.9916501
0.99029464 1.0108672 1.0347468 0.9856188 0.9857697 1.0073491 0.9789142 0.991059
0.9957683 0.98484457 0.99420494 0.99187815 1.0117216 0.99586344 0.97966695 0.9989315
0.98857874 0.99528986 0.97605705 0.98192155 1.0019137 0.9997733 1.0421977 0.9950893
1.0125139 0.9971446 1.006848 0.99464864 1.0008852 0.9940155 0.9877977 1.0063566
0.9772072 0.999367 0.9827988 1.0008826 0.9981571 1.014922 0.9861632 0.9951075

batch_norm1.bias f4 [128]
00000000: b881 a53c deb7 92bc c82b 1e3d 84cd d2ba
00000010: 45cd ab3c 6674 01bb 33a0 8cbc b4fe 02bc
00000020: 1155 95bb 0eda 073c 3829 bcbb dec5 9cbc
00000030: fc9a 47bb f0ba d9bc 1879 9abb 36d5 adbc
00000040: a1a0 26ba e1e7 80bc 1a42 a8bc 4c0b 45bb
00000050: fdac 3d3c 36ae 93bb 9b7f 593c 0a60 e53c
00000060: 7c4e e1bc f3e2 b9bb bc0d a1bc 20e8 5bbc
00000070: 0cd2 36bc a1ba 573c 1b8e 6dbc da6b ed3c
00000080: cd47 94bb fb83 3bbc 6e3b e13c 8d8d 01bd
00000090: a968 483c be73 a43c b5ae f23a 2dc6 ddbb
000000a0: ae89 c5bb e8fd a83c 8f72 4bbc 8af6 e0ba
000000b0: e4c6 9d3b 3236 913c d217 81bc dc50 d13a
000000c0: 6e0f 903c c33b f6ba a550 8b3c 5bd6 1fbb
000000d0: 0316 89bc b938 3ebb 3b7d 5bbc a264 e4bb
000000e0: 4912 cd3b a7d3 23ba 6108 4e3c 3dce 14ba
000000f0: d523 26bc a387 e63b b3e6 1dbc 7cc8 7abc
00000100: 2fc0 80bc 76f5 ad3c c4be 583c ee9e caba
00000110: 18f5 4f3b e64a 253b c0e5 8cbb 0f04 8a3c
00000120: 38ed 47bc ee35 07bb f9a5 5b3c f7f5 7c3c
00000130: a347 943a 1d75 67bc 24cd acbb a021 9bba
00000140: 60de b5bc cf4b 61bc b5ef debb e36b 2f3c
00000150: 09b5 2bbc 5a8f 75bc 9458 d5bc 700a f2bb
00000160: 4b87 b9bb f13f 4a3c f1dd a13c 82e8 27bc
00000170: 3d8d 9ebc 4bca 683b adee c0bc 6837 42bc
00000180: a5e5 dabb 8843 55bc 0e49 2bbc 4f30 bfbb
00000190: 114a 613c f243 33bb 4d79 babc 2d8f 413b
000001a0: afc4 87bc d690 b0bb a551 b9bc 8f55 82bc
000001b0: a9da 13bb e80a e23b 5106 293d 0ef4 86bb
000001c0: 4728 7939 d91d e6bb 61e9 103c d43d a7bb
000001d0: 345e 30bc 5247 8db9 eea9 92b8 7aa1 4dbb
000001e0: 0598 d5bc 0d0b 51ba 2d8f 67bc ac8e 7abc
000001f0: 2f6b 44bb 7665 dd3b c547 e6ba dd44 a8bb
0.020203456 -0.01790994 0.03861597 -0.0016082977 0.020971904 -0.0019753217 -0.017166233 -0.007995296
-0.00455726 0.008291734 -0.0057422183 -0.01913732 -0.0030457368 -0.026578397 -0.0047141425 -0.021219831
-0.0006356333 -0.015735568 -0.020539332 -0.0030066548 0.011576888 -0.0045068515 0.013275052 0.027999897
-0.027503245 -0.0056728064 -0.01965987 -0.013422042 -0.0111584775 0.013167054 -0.014499213 0.028982092
-0.004525161 -0.011445041 0.027494159 -0.031629134 0.012231984 0.020074721 0.0018515202 -0.006768009
-0.0060283756 0.020628884 -0.01241745 -0.0017163318 0.0048149694 0.017726038 -0.015758429 0.0015969533
0.017585482 -0.0018786121 0.017006228 -0.002438924 -0.016734129 -0.0029025509 -0.0133965565 -0.006970004
0.0062582833 -0.0006249495 0.01257524 -0.0005676484 -0.010140379 0.007035212 -0.0096375225 -0.015306588
-0.01571664 0.021235209 0.013229076 -0.0015458742 0.003173178 0.0025221645 -0.0042998493 0.016847638
-0.012202553 -0.002063151 0.01340627 0.015439502 0.0011312853 -0.014127043 -0.005273478 -0.0011835583
-0.022200763 -0.013750984 -0.0068034776 0.010706875 -0.010480174 -0.014987791 -0.026043214 -0.007386498
-0.00566188 0.012344346 0.01975915 -0.010248305 -0.019354457 0.0035520967 -0.02355131 -0.01185403
-0.006680208 -0.013016589 -0.010454429 -0.0058346163 0.013750569 -0.002735373 -0.022762919 0.0029534802
-0.016573278 -0.0053883595 -0.022621939 -0.015909938 -0.0022560752 0.006898273 0.04126579 -0.004118449
0.00023761495 -0.007022601 0.008844704 -0.005103806 -0.010764647 -0.00026946753 -6.9934744e-05 -0.0031376765
-0.026073465 -0.0007974364 -0.014133257 -0.015292805 -0.0029971113 0.00675648 -0.0017568996 -0.0051351623

batch_norm1.running_mean f4 [128]
00000000: 5a84 e33d 1308 243e f929 123e ded4 51bc
00000010: f694 783d ade8 fc3d 46ca d83c d696 533d
00000020: 6a8a 49be a9ff 28bd f4ac d7bc ae30 85be
00000030: 8931 bfbd 478d ea3c 1379 b83c 0e5b 3ebd
00000040: 3423 a63c 09ec 7ebc 22e2 bbbc 990c 663e
00000050: 7931 9fbc 53b9 c43d 3167 e8bd c050 97bd
00000060: 1ff5 68bd cecb 203e 3130 b8bd 179f cd3c
00000070: a6b6 103d 39ed 2ebe eb4d febd c3b2 58bc
00000080: bc35 9abd 05c9 083d 50f0 bfbd 989b 513e
00000090: 9417 5abe 342f 1cbd 73b0 b3bd 607a 60be
000000a0: eb07 223c 840d ef3d f1be e63c e44a ba3d
000000b0: 65ee d9bd 4b7b 0cbe 0528 09bd c189 1b3e
000000c0: 4cbd 67bd d3a8 04be 445f 8f3c 5e46 e3bd
000000d0: df3d 3dbd 4c64 993d 29f9 5a3d c9ee a0bd
000000e0: 9c19 b0bb eb04 a13d 5d88 8c3e 54e4 753d
000000f0: ec4c 3b3e d992 b63c fd25 39bd 1144 73bd
00000100: 64d2 79be 0714 ce3c 798b 6cbd c01a a6bd
00000110: ed10 ec3d a337 62bc 0f44 00be 00ec f13d
00000120: e9ff 71be 37b2 13be fe0e e13c e8ea ef3d
00000130: 3bd4 30be 3fd3 a03c 6277 df3d e6c7 3e3d
00000140: f25f 3fbc 7d10 dc3d 01d1 19be 38b6 d1bd
00000150: 6747 1bbd 10a3 31be e3f8 9fbd 6ecb 29be
00000160: d8e0 3dbd 88ec 8c3d c929 04be 11f5 93bd
00000170: e032 6c3d bac5 06be caa0 10bc 04da c53d
00000180: 870f 53be d999 00be 9275 12be d111 07be
00000190: a895 473e ecd7 6ebc 8eb5 20bd aff6 1d3e
000001a0: d9f9 dabd 9851 473d b7e5 36be a43a 46bd
000001b0: 17aa dfbd ff3b 44bd 8f37 c1bd 969b 58be
000001c0: 814c a9bd cdf3 173e 6bd1 263c 7d54 133d
000001d0: b140 143d 7c54 febd bb2c 583e a012 17be
000001e0: c5a7 493e 13c7 9cba d2d6 f43c 8b38 333d
000001f0: 0d8e 683e 8e9f 1c3d 00b5 143e d67e 20be
0.111092284 0.16018705 0.14273824 -0.012807099 0.060688935 0.12349067 0.026463639 0.05165752
-0.19681707 -0.04125944 -0.026327588 -0.26013702 -0.0933562 0.02863182 0.02251867 -0.046473555
0.020280458 -0.015559205 -0.022934977 0.22465743 -0.01943277 0.0960566 -0.11347807 -0.07388449
-0.05687439 0.15702745 -0.08993567 0.025100274 0.035330437 -0.17082681 -0.124172054 -0.013226214
-0.0752978 0.033394832 -0.09372008 0.2046951 -0.21298057 -0.038130954 -0.087738894 -0.21921682
0.009889583 0.116725 0.02816722 0.090963155 -0.10641173 -0.13718908 -0.03348543 0.15189268
-0.056577012 -0.12955026 0.01750148 -0.11097406 -0.046201583 0.07489833 0.053460274 -0.07858045
-0.0053741466 0.07862266 0.27447787 0.060032204 0.18291062 0.02228682 -0.045202244 -0.059391085
-0.24396664 0.025156034 -0.0577502 -0.08110571 0.11526666 -0.01380721 -0.12525962 0.118125916
-0.23632778 -0.14423452 0.02747297 0.11714727 -0.1726846 0.01963198 0.10911442 0.046577357
-0.01168059 0.107453324 -0.15021135 -0.102398336 -0.03790989 -0.1734736 -0.07811143 -0.16581509
-0.046357006 0.06881052 -0.12906565 -0.07224477 0.057665706 -0.13161364 -0.008827398 0.09660724
-0.20611392 -0.12558688 -0.14302662 -0.1319039 0.19490683 -0.014577847 -0.039235644 0.15426134
-0.10692186 0.0486618 -0.17861067 -0.048395768 -0.10921114 -0.04790878 -0.09434425 -0.21153101
-0.08266545 0.14839096 0.010181765 0.035969246 0.036194507 -0.12418458 0.21110813 -0.14753199
0.19692905 -0.0011961184 0.02988759 0.043755095 0.22710438 0.0382381 0.14522171 -0.15673384

batch_norm1.running_var f4 [128]
00000000: 8083 d43b 0463 013b 348d 1e3c 37c4 213b
00000010: 5dcd d63b 1964 ef3b b178 f839 100e b43a
00000020: a503 053b 0a1b af3a 5e9f 6a3b 0a5a 283b
00000030: b01f 163c e2b3 563b 8476 cb39 2572 8e3b
00000040: 0ca4 f13b f5c6 c23a cc85 473b 639e 3a3b
00000050: 9cc1 633b 7294 5a3b 54b0 aa3b 106c 153c
00000060: 34b6 333b f408 a23b 6c38 b939 966f ba39
00000070: 0548 d73a 5963 da3a b6fe b83a 5ca9 3f3b
00000080: 8e79 4939 4a16 e53a 5720 9c3b c500 743b
00000090: 29ff d33b e960 003c f1eb 283b 90e4 7c3b
000000a0: 5b2f 453a e61a e43a 86f9 563b 540c ba3b
000000b0: 7dd3 c33b 8c13 c33a 814d 873b d442 873b
000000c0: 9506 c33b 469a 4d3a 8472 953b 782d 963a
000000d0: bfed 243a 307d cc3b 6d04 1f3c e80e 543b
000000e0: f62b 1a3b 059f 263b ba6a 813b e885 5d3b
000000f0: bcb2 bc3a 7c6f aa39 4dfd 9f3b 9722 d03a
00000100: 49f1 073b 8ac8 2c3b 5da8 c53a 79f0 963a
00000110: 8736 203b 9487 983b 0a47 363b 5885 fb3a
00000120: bd7f fb3a dc9d a63b 1aa8 083a 6df7 683b
00000130: c121 a53a b0c4 883b e5a4 253c df3e 873b
00000140: 5b2d 3e3b 523b 523b a79a cc3a 5c1c 913a
00000150: cf26 8c3b 2b52 453c 25a7 9d3a dc16 b33a
00000160: bd85 0c3b a340 193a 82ad 413c a376 193b
00000170: c471 053c ad27 c43b b180 503b 8e4f c33b
00000180: 5613 bd3a 7e5a 153b ff41 ea3a 7b1f 293b
00000190: 9ead b63b a93e c73a 8c3f 0d3c d83f 563a
000001a0: 5d8e 093a b253 a43a 368c eb3a 7706 923b
000001b0: c891 1b3b 778a 843b 11a4 2b3c 4e63 1e3b
000001c0: 2d2b 843a 0388 813b 234d 2e3a 03f1 eb3a
000001d0: 789b d33b 07ee 643b b3b4 283c 69d3 c23a
000001e0: 30e5 7a3b fd8e 243b b436 163a 5cee 953a
000001f0: 396b 563b 1c2e 163b 574b 393b 0a79 a43b
0.0064854026 0.0019742856 0.00967722 0.0024683604 0.006555243 0.0073056337 0.00047392168 0.0013737101
0.0020296362 0.0013359499 0.0035800557 0.0025688433 0.009162828 0.0032761027 0.00038807478 0.004347103
0.0073742922 0.0014860319 0.003044474 0.0028475753 0.0034752851 0.003335264 0.005209008 0.009120002
0.0027421834 0.004944915 0.00035327987 0.00035559823 0.0016424662 0.0016661688 0.0014113996 0.0029245233
0.00019214136 0.0017477956 0.0047645974 0.0037231904 0.0064696264 0.007835605 0.0025775398 0.0038588382
0.000752201 0.0017403036 0.0032802536 0.005677739 0.005976139 0.0014883145 0.004129112 0.0041278396
0.0059517124 0.0007843118 0.0045607705 0.0011457643 0.00062915304 0.0062405095 0.009705645 0.0032357518
0.0023524738 0.0025424373 0.0039494904 0.0033801738 0.0014396529 0.0003250799 0.0048824907 0.0015879449
0.0020743182 0.0026364648 0.0015080083 0.0011515758 0.0024446563 0.004654834 0.0027813339 0.001918952
0.0019187849 0.0050847363 0.00052130374 0.0035547868 0.001259856 0.0041738376 0.010110115 0.004127368
0.0029018733 0.0032078815 0.0015610055 0.0011071074 0.0042770873 0.012043516 0.0012027962 0.0013663429
0.002144202 0.00058461184 0.011821153 0.002341666 0.0081448 0.005986175 0.0031814987 0.0059604114
0.0014425318 0.0022789533 0.0017872452 0.0025806117 0.005574896 0.0015201169 0.008621108 0.00081729656
0.0005247349 0.001253715 0.0017970863 0.004456337 0.0023738015 0.0040448266 0.010476128 0.0024168077
0.0010083668 0.0039529814 0.00066490675 0.0018000904 0.0064577423 0.0034931914 0.010296988 0.001486403
0.003828358 0.0025109642 0.00057301973 0.0011438834 0.0032717718 0.0022915667 0.0028273666 0.005019312

conv2.bias f4 [128]
00000000: 1e4f f9b8 310d cfb8 5134 d437 87cc b938
00000010: 9459 b237 9ac2 6c37 8a91 5038 8bff 89b9
00000020: 2d61 8339 edb0 c737 bc8e 07b9 c095 7fb7
00000030: 16d2 0bb9 aba4 7fb8 1037 d2b6 e697 96b8
00000040: c7bf 7c39 a49a a037 60dc 9db8 a62b 97b6
00000050: 6bec 6e38 adbd 2db8 882f 0139 795f 5e38
00000060: dd65 cb37 bf59 d4b8 56ce 9bb8 2aad e639
00000070: 05e0 86b8 ea21 b6b9 fc70 48b8 cf80 2fb8
00000080: 2253 eb38 c2b0 9237 fe9d 19b9 9d30 d939
00000090: a875 fab7 08c1 ee38 e0db 88b7 5e19 4b36
000000a0: 93d5 95b7 0330 a2b7 d671 cfb8 f80a a839
000000b0: c4ed 1439 c956 be39 8004 8239 059d 5e39
000000c0: 889c 22b8 404b 81b8 a56d 2fb8 7849 d3b4
000000d0: 8647 6739 4b59 ce35 f31b 08b7 30b9 cd36
000000e0: 07a2 5538 3c19 acb8 f69d 0036 cb7a 123a
000000f0: 4249 25b9 d244 c9b7 5c51 cdb8 ec30 1b39
00000100: 2150 4e38 4a0a 1638 a783 2bb9 2cdc 96b9
00000110: bbe7 9bb7 0efa 8738 c3cb e4b8 8c8d 8b38
00000120: 3152 adb8 b9f2 15b8 b32a bb38 c983 4c39
00000130: c861 a239 c3ed ddb8 a530 5ab9 6e34 f838
00000140: 7d1f 03b9 add4 8037 c246 2eb7 f8f2 0739
00000150: 0f1d 0839 bb17 4937 aaf6 1db8 39c0 a138
00000160: 5301 5439 9c5b e6b9 6af6 4ab8 efaa b3b8
00000170: 6408 8db9 41f7 a837 a487 02b9 99ee 45b9
00000180: 2204 5537 f2fa e0b7 0f03 2bb9 16f4 afb9
00000190: 1888 04b8 d24e 0ab9 3f96 5fba 261a 6539
000001a0: 353a 17b9 805a 0639 1f25 3838 14f1 7739
000001b0: c8df 0cb8 a2f3 9f38 b73b 6539 68c0 6738
000001c0: fc57 4739 214f 2439 ca46 48b9 f5b0 0339
000001d0: cd0f 9638 ab2a a338 9b47 bfb8 1a13 c7b8
000001e0: 8356 1ab8 ee55 8637 e1cb de37 f687 d6b8
000001f0: 8e40 4db8 3549 9bb8 6f27 c4b8 3e78 ba36
-0.00011887982 -9.872986e-05 2.5296731e-05 8.8595836e-05 2.1260967e-05 1.4112005e-05 4.972661e-05 -0.0002632107
0.0002505867 2.3805036e-05 -0.00012927776 -1.5234051e-05 -0.00013334336 -6.0950097e-05 -6.264898e-06 -7.180851e-05
0.00024104035 1.9145496e-05 -7.5273914e-05 -4.505232e-06 5.6963803e-05 -4.1423064e-05 0.00012320105 5.301784e-05
2.424692e-05 -0.00010125664 -7.429409e-05 0.00043998036 -6.431345e-05 -0.00034739013 -4.778894e-05 -4.1843214e-05
0.00011221158 1.7486866e-05 -0.00014650074 0.00041425685 -2.985711e-05 0.00011384679 -1.631485e-05 3.0264123e-06
-1.7861637e-05 -1.9334262e-05 -9.891733e-05 0.0003205163 0.00014202954 0.00036304284 0.00024798885 0.00021230064
-3.876959e-05 -6.165216e-05 -4.1825366e-05 -3.9355268e-07 0.00022056521 1.5374184e-06 -8.112739e-06 6.1310348e-06
5.0934057e-05 -8.2062994e-05 1.9165432e-06 0.00055877556 -0.00015762917 -2.3993114e-05 -9.790316e-05 0.00014800177
4.9188853e-05 3.577237e-05 -0.00016356875 -0.0002877427 -1.8585348e-05 6.483878e-05 -0.00010909841 6.654402e-05
-8.264592e-05 -3.575042e-05 8.924808e-05 0.0001950405 0.000309719 -0.00010582388 -0.00020808222 0.00011835327
-0.00012504864 1.5357824e-05 -1.0387683e-05 0.00012965116 0.00012980796 1.1986059e-05 -3.766144e-05 7.7128825e-05
0.00020218389 -0.00043937273 -4.8390044e-05 -8.567224e-05 -0.00026899867 2.0142297e-05 -0.00012448296 -0.00018876269
1.2696752e-05 -2.6819736e-05 -0.0001630897 -0.0003356046 -3.1598e-05 -0.00013190068 -0.00085291633 0.00021848883
-0.00014422166 0.0001281295 4.390359e-05 0.00023645564 -3.3587014e-05 7.627091e-05 0.00021861387 5.5253884e-05
0.00019010896 0.00015669737 -0.00019099857 0.00012559055 7.1555005e-05 7.780393e-05 -9.120927e-05 -9.4926174e-05
-3.679703e-05 1.6014059e-05 2.65594e-05 -0.0001022964 -4.893593e-05 -7.404612e-05 -9.3533534e-05 5.55723e-06

conv2.lin.weight f4 [128, 128]
00000000: b654 cabc 737e 64bd 828f fdbd 2d26 7bbd
00000010: ba1e 143d 7f0f 0abd d982 ec3d 8443 cfbd
00000020: 3868 a23d 0982 363e d42c 1b3c a37e bd3d
00000030: 5d88 6bbc 44a0 573d 8dfa efbd fff1 1f3e
00000040: e9e1 053e 329c 24be f0f9 1abe d508 e3bd
00000050: b884 203e 7c6e 99bd 0a23 47bc eb6e 4b3c
00000060: eebd bc3d 9716 883d a482 a0bd 03ff 863d
00000070: d875 da3c 21df 463d 9616 993d 0c6d 1bbd
00000080: 9264 953d 5b6c 833d 0fc2 823d 77e1 e23c
00000090: 69dc 833d a246 993d f52a efbd 5dac 403d
000000a0: bc6f 8b3c c2cc 81bd a540 e53d d1b1 da3d
000000b0: feb5 213e fb7d 0abd b47b b9bd 02a6 cb3d
000000c0: 70dd 9cbd 31d5 3dbd 0307 cb3d 5414 44bc
000000d0: 14e6 debd dce0 713b 0901 ad3d deed 2dbe
000000e0: ecfe 74bc de4e 9cbd eadf a93d 3710 e03d
000000f0: da0c 93bd 3da7 c5bd 1c15 493c 8e3c a0bc
00000100: d40a a0bd 356d c13d 5b4d 14bc 14b9 cc3c
00000110: 4b68 9e3d 6343 e63d bcaf c0bd 35a9 9fbd
00000120: 0506 1dbd b1a0 143e 16e7 97bd da80 1cbe
00000130: 53d3 093e fadc c43d f72f 7a3d 77d9 963c
00000140: 5fd6 813d 8e7e 8fbd e303 6d3d cd27 753d
00000150: b26d 033e 730e 833d 94fa 0a3e 4232 f43d
00000160: c460 223b 7cf7 21bd 0b09 a03c 66f6 023e
00000170: 583c 7b3c 2b28 113d 6c81 62bd b4a0 10be
00000180: 17b4 683d a706 4ebd 8c62 b1bd aa05 84ba
00000190: 2d74 07ba 3c45 e03d b0c5 0fbd 5630 8dbd
000001a0: fd17 333d 0b44 083e 2bae bebd 8244 09be
000001b0: 3e37 dabd 7379 dd3d 4780 093e dfb2 21be
000001c0: 128f 40bd 6578 48bd 8da0 dfbc eefd b0bd
000001d0: 5e07 c73d ee0c 94bd af8d 25bc 84d9 243e
000001e0: 65bc 763d 6233 993d 5959 d7bd 9259 bdbd
000001f0: c6c6 e0bc db3d 833d 6511 cbbd 2bcf 2a3e
00000200: 5967 34bd a89d ddbd 7fdc d4bd 564a b6bd
00000210: 806c 863d 0690 b5bd 284c b03d fae2 a93d
00000220: 090e 10be 6e16 02be 3e16 a2bd a876 e6bd
00000230: a602 663d 7667 083d 55b8 213d d343 9e3d
00000240: 9899 1cbe 94e4 3e3d 0a10 9d3c 8911 08be
00000250: aa5b b83d 0cd7 dbbd c1f2 173e 25bd e5bd
00000260: 1e00 03be db0a 06be b109 273e 8711 b13c
00000270: f365 9c3d 741b 84bd 8d80 24bd 1e02 d7bd
00000280: 42e5 e03d e752 a13d 122b 843d 7055 b1bd
00000290: 174b d0bc 0df2 81bd fc30 243e 17f1 923d
000002a0: e8fe 1fbd 1278 b5bd e7fd 97bd fdf8 8e3c
000002b0: 4a9e de3d ea5f 5fbd 0556 d23d f908 183d
000002c0: 72e6 1dbd 9642 cabd 5362 43bd c7d0 af3d
000002d0: 4a67 2d3d f8bb 503d 5a72 cc3b df6f 793b
000002e0: 2dd8 0e3e 6468 473d 3c1b 16bd 61ab dbbd
000002f0: 82c5 213d f006 3bbd 19a6 9cbd 9a92 ad3d
00000300: 290b 493d 110f dfbd d835 ff3d ec8b 0d3e
00000310: 41a4 953b 271e 0abe 3c06 ad3d 6941 02be
00000320: 941d 96bd 3a71 3abd f337 33bd a610 323d
00000330: 9bda 16bd f9a8 bfbd 615b 88bd 6220 c63d
00000340: 57a4 163d e734 dabd f728 b2bc 7c1b 8dbb
00000350: f69e 1bbe ea83 01be 20ed 13be b5dd e33d
00000360: 0960 15be c96c 9b3d 0b4e a4bd d1c2 123d
00000370: d15a 063e 2e4e e83c bae7 de3d d5d2 1cbe
00000380: 2a49 c0bc b6b5 06be 0949 693c eb1e 943d
00000390: be27 15bd bda6 023e 37c8 0e3d 8141 e53c
000003a0: df2e 763d 2a55 e1bd 1642 3d3d df5d a53d
000003b0: 449c 0f3e 333b 80ba c95d af3d 68c9 0a3e
000003c0: d70b a03d 7798 b43c 3fd5 c5bd 4728 fabc
000003d0: 5c5d 563c f4af 063e 0b1a 48bd 63aa 253d
000003e0: c8b0 2c3d 2632 f6bd 204d 133e 2457 fe3c
000003f0: b220 81bd dcce f1bd 362b ec3d 55ba 5c3c
-0.024698596 -0.055784654 -0.123808876 -0.061315704 0.036162116 -0.033706184 0.11548395 -0.101202995
0.079300344 0.17823042 0.009471137 0.0925267 -0.014375773 0.052643076 -0.11717711 0.15619658
0.13074459 -0.16075209 -0.15134406 -0.11085669 0.15675628 -0.07491776 -0.01215435 0.012416582
0.09215914 0.06644934 -0.07837418 0.065916084 0.02666752 0.048552636 0.07475011 -0.037945792
0.07294573 0.064171515 0.0638467 0.0276954 0.06438524 0.07484175 -0.11678115 0.04703938
0.017021053 -0.063378826 0.111939706 0.10678447 0.15792081 -0.03381155 -0.090567976 0.09943773
-0.07659423 -0.046345893 0.09913447 -0.011967737 -0.10883728 0.0036907708 0.08447463 -0.1698527
-0.014953356 -0.0763223 0.08294661 0.10940593 -0.071801856 -0.09651039 0.012273099 -0.019560125
-0.07814565 0.09444658 -0.009051646 0.024990596 0.07734736 0.11243322 -0.09408519 -0.077959456
-0.03833582 0.14514424 -0.07417123 -0.15283528 0.1345952 0.096124604 0.0610809 0.018414242
0.06339716 -0.0700656 0.057865035 0.05985241 0.12834814 0.0639924 0.1357215 0.119236484
0.0024776915 -0.03954266 0.019535562 0.12789306 0.015334211 0.035438698 -0.055299208 -0.14123803
0.056812372 -0.050299313 -0.086613744 -0.0010072489 -0.0005167153 0.109507054 -0.03510064 -0.06893985
0.04372405 0.13307206 -0.09310564 -0.1340504 -0.10655068 0.1081418 0.1342784 -0.1579089
-0.047011442 -0.048942942 -0.027298236 -0.08642183 0.09718202 -0.07229029 -0.010104581 0.160986
0.06023826 0.074805036 -0.105150886 -0.092456 -0.027438533 0.06408282 -0.09915427 0.16680591
-0.044043873 -0.10821086 -0.10393619 -0.08900897 0.065636635 -0.08865361 0.08608276 0.082952455
-0.14067854 -0.12703869 -0.079143986 -0.11253101 0.05615487 0.033301793 0.039482433 0.0772778
-0.15292966 0.046604708 0.019172687 -0.13287939 0.090018585 -0.10734376 0.14838697 -0.11217717
-0.12793013 -0.13090079 0.1631229 0.021614803 0.07636633 -0.06450549 -0.040161658 -0.10498451
0.109812275 0.078771405 0.064535275 -0.08658874 -0.02542643 -0.06344996 0.16034311 0.071748905
-0.039061457 -0.08860792 -0.07421475 0.017452711 0.10870035 -0.05453483 0.10270313 0.037117932
-0.038549848 -0.098759815 -0.04770119 0.08584743 0.042334832 0.05096051 0.0062392177 0.0038061065
0.13949652 0.04868354 -0.036647066 -0.10726047 0.039495 -0.045660913 -0.07648868 0.08475228
0.04908291 -0.108915456 0.12461442 0.13822907 0.0045666997 -0.13488065 0.08448455 -0.12720264
-0.0732986 -0.045518138 -0.04375453 0.04347291 -0.036829572 -0.09358401 -0.06658054 0.09674145
0.03677782 -0.106546216 -0.02174805 -0.004306255 -0.15197358 -0.12647977 -0.14445925 0.11126272
-0.14587416 0.075891085 -0.08022698 0.035830323 0.13120581 0.028357591 0.10884042 -0.15314801
-0.023472387 -0.13155255 0.014238604 0.0723246 -0.036414854 0.12758918 0.03485891 0.027985336
0.060103294 -0.11002572 0.046205603 0.08074545 0.14024454 -0.0009783268 0.0856281 0.13553393
0.07814758 0.022045357 -0.09659814 -0.030536784 0.013083782 0.13153058 -0.04885296 0.040445697
0.04216078 -0.12021284 0.1438489 0.031047411 -0.06305064 -0.118070334 0.11531679 0.013472159

batch_norm2.weight f4 [128]
00000000: bae0 833f 1e6e 853f 243d 833f 43a6 763f
00000010: 4fcf 7c3f ab5e 783f 12b5 833f 32b9 833f
00000020: e24a 7b3f a883 783f 1f41 7e3f 2d69 773f
00000030: b0d1 803f 5d9b 823f 0be0 793f 1868 7e3f
00000040: 8db4 843f 2fb9 803f 39b0 813f 2181 7e3f
00000050: 7326 783f d160 803f cf5d 803f d7ed 803f
00000060: 8d35 833f f3b7 783f 0214 823f 3e4c 793f
00000070: 5cee 813f 44a2 813f 91f4 7d3f e44d 833f
00000080: 1d65 853f 2a45 843f 3974 7e3f 602c 7e3f
00000090: fcba 7f3f bc35 803f 982b 833f c146 823f
000000a0: 461d 823f be1d 853f d0d0 803f 3084 833f
000000b0: 1876 823f 201c 833f 6fcb 783f 2ff3 7f3f
000000c0: 3bab 7b3f ab50 823f cc44 813f af54 823f
000000d0: 3b6e 803f 3066 783f 654c 7e3f ab56 813f
000000e0: e3a9 803f adb0 833f 3793 843f 78d7 793f
000000f0: f14c 843f 5504 7b3f fbc1 7a3f 8f3f 7c3f
00000100: c4a0 833f 19a0 823f 1007 7d3f 4e48 803f
00000110: 8047 7c3f 22f5 803f 4e19 813f b8b4 773f
00000120: 6206 833f ce14 7c3f 2a1a 833f fdba 803f
00000130: 3847 813f 8e28 7d3f 4242 823f f7a6 823f
00000140: 72da 803f c711 803f ddcf 7f3f f6ee 813f
00000150: 2a68 7d3f ba9b 793f 4f42 7b3f 103c 7f3f
00000160: 6338 7c3f 9f59 7e3f 91b4 783f da99 843f
00000170: 0716 7a3f 08bf 7b3f 31ee 7a3f 8d58 7c3f
00000180: 3650 803f 6334 793f ff6e 833f 953f 7a3f
00000190: d235 833f 895d 793f 7338 763f 8937 7f3f
000001a0: 5b27 853f f53f 823f 9e56 813f e6e6 7c3f
000001b0: 4e6e 843f 1387 813f 76cb 773f 0c7e 823f
000001c0: f599 823f b682 7d3f a6bd 803f 2c90 803f
000001d0: c5e5 7c3f fb72 853f b88b 843f 2683 833f
000001e0: 2a0c 833f 683f 803f 54b5 803f c2e5 7d3f
000001f0: 1f94 823f c7a8 7f3f e398 763f 7750 7d3f
1.0302956 1.042423 1.0253034 0.96347445 0.9875383 0.9701945 1.0289633 1.0290892
0.9816114 0.9707589 0.99318117 0.9664486 1.0063992 1.0203663 0.9760749 0.99377584
1.03676 1.0056514 1.0131904 0.99415785 0.9693367 1.0029546 1.0028628 1.0072583
1.0250717 0.97155684 1.0162356 0.9738196 1.0150867 1.0127645 0.99201304 1.0258145
1.0421482 1.0333607 0.9939609 0.9928646 0.9989469 1.0016398 1.0247679 1.0177842
1.0165184 1.0399702 1.0063725 1.0274715 1.0192289 1.0242958 0.97185415 0.99980444
0.9830815 1.0180868 1.009912 1.0182093 1.003364 0.97030926 0.9933532 1.0104574
1.0051845 1.0288292 1.0357426 0.97594404 1.0335981 0.98053485 0.9795224 0.9853448
1.0283437 1.0205108 0.988389 1.0022066 0.985466 1.0074809 1.0085847 0.9676013
1.0236323 0.98469245 1.024236 1.0057064 1.0099859 0.98890007 1.017647 1.0207204
1.0066664 1.0005425 0.9992655 1.015105 0.98987067 0.97503245 0.98148054 0.99701023
0.9852354 0.993555 0.9715052 1.0359452 0.9768986 0.98338366 0.980197 0.9857262
1.0024478 0.9734556 1.0268248 0.9775327 1.02508 0.9740835 0.96179885 0.99694115
1.0402635 1.0175768 1.0104558 0.98789823 1.0346162 1.0119346 0.9679483 1.0194716
1.0203234 0.99027574 1.0057876 1.0043998 0.987881 1.0425714 1.0355139 1.0274398
1.0238087 1.001935 1.0055337 0.9917871 1.0201453 0.9986691 0.96327037 0.98950905

batch_norm2.bias f4 [128]
00000000: cf6a d23c 81ab 1b3d 3284 f73c 9d89 12bd
00000010: ef0a d2bc 886c d2bc 3c46 cc3c d8d5 753c
00000020: 7721 6abc 1e06 1dbd 69e3 9ebb a6ae 08bd
00000030: 2ccb e83b 4754 893c c067 81bc 2624 e5b8
00000040: 2f22 a23c 865b f8bb abba 303c 7901 d8bb
00000050: fbdb e7bc 8c5c b13b 913f e43b 1882 3d3c
00000060: 76a0 bc3c abaa a4bc 71eb 1f3c 894f acbc
00000070: eb83 c13c 117c 593c 2281 81bc 3ebb 0f3c
00000080: b6f2 163d 71e9 113d 6fd4 b3bb e206 8ebb
00000090: 1776 153b 6761 58bc 084b d63c f1cb 953c
000000a0: 7250 4b3c 2568 203d ca5b 2b3c 6ac2 cf3c
000000b0: ef79 233c f1d5 783c a24d 06bd c8ac af3b
000000c0: 83c3 83bc 9f4f 743c 2ccb 813b 68d4 bf3c
000000d0: 580f eebb 4270 16bd 51ba 17bc 8809 a03b
000000e0: 93c3 1c3c 73ad e63c 65ce 083d c0df b0bc
000000f0: 6489 e53c 103a 40bc ee96 a8bc 7ba5 c0bc
00000100: 6eae 7d3c f275 d13c 3474 5abc 2300 6d3c
00000110: 7ea6 09bb f88c 0b3c 6c4f bd3b e330 acbb
00000120: 2ac6 403c 3cf0 40bc 7b6b 833c bae1 243a
00000130: 4f0a 9a3c f6ab 16bc 4df9 4d3c a35b 693c
00000140: 9aa5 723b b6a3 5abb d7a9 d3b9 cf77 183c
00000150: e13b 0dbc 5c82 e5bc a14f a8bc a168 39bb
00000160: 138c 2cbc 2f1a 84bb d60d d7bc 99f9 093d
00000170: 1af1 cfbc 3e94 f0bb 257a 78bc c8fe d9bb
00000180: adac 4838 4601 babc d020 753c d3f0 99bc
00000190: 2997 993c f3ca 98bc 4740 09bd da13 c2bb
000001a0: 5aa9 2d3d 4a9b 993c 884d 273b 6869 52bb
000001b0: 784a f03c 0c77 593b f489 14bd d6eb 6d3c
000001c0: 47d0 bd3c 53a2 28bc 150a 393a 4f40 8a3b
000001d0: 7141 3abc 4ac2 a63c 652c eb3c 4bda 173c
000001e0: 8f65 943c cf0c 983b 637e 113c 3219 82bc
000001f0: c845 f43b c3b2 a03b 80f2 04bd e5ab eebb
0.025685696 0.038005356 0.030214403 -0.03577577 -0.02563998 -0.025686517 0.024935834 0.015004598
-0.014290205 -0.038335912 -0.0048488867 -0.033369683 0.007104298 0.01676382 -0.015796542 -0.00010926304
0.01979169 -0.00757927 0.010786693 -0.0065919724 -0.028303137 0.005412644 0.0069655855 0.011566661
0.023025732 -0.020100912 0.009760723 -0.021034019 0.023622474 0.013274209 -0.015808646 0.008772669
0.03685256 0.035623018 -0.0054879705 -0.0043343166 0.0022805983 -0.013206816 0.026158825 0.018285723
0.012409316 0.03916182 0.010458896 0.025361259 0.009977802 0.015187726 -0.03278888 0.0053611733
-0.016084438 0.014911561 0.0039609876 0.023416713 -0.0072650127 -0.03672815 -0.00926073 0.0048839487
0.009568113 0.028158879 0.03339996 -0.021591067 0.028019615 -0.011732593 -0.020579781 -0.023516407
0.015483482 0.025568936 -0.013333369 0.014465365 -0.0021003778 0.008517496 0.00577729 -0.005254851
0.011765996 -0.011776026 0.016042462 0.00062897394 0.018803744 -0.009196272 0.012571645 0.014243039
0.0037024976 -0.003336174 -0.00040371597 0.009305908 -0.008620233 -0.028016262 -0.020545783 -0.0028291123
-0.010531443 -0.0040314416 -0.026251715 0.0336853 -0.02538352 -0.0073418906 -0.01516584 -0.0066526867
4.7844533e-05 -0.022705685 0.014961436 -0.018791592 0.018748837 -0.018651461 -0.033508565 -0.0059227766
0.042397834 0.018750805 0.002552839 -0.0032106284 0.029332384 0.003318253 -0.036264375 0.01452156
0.023170603 -0.010292607 0.0007058692 0.004219092 -0.0113681415 0.020356316 0.028707692 0.009268354
0.018114833 0.004640199 0.008880231 -0.015881155 0.0074546076 0.0049041226 -0.03245783 -0.007283675

batch_norm2.running_mean f4 [128]
00000000: ba1f 363e 7cb3 c9be 5ec8 3bbf d581 8b3e
00000010: 2151 70bf fa75 01be 3484 333d 8120 09bf
00000020: 03ef e03e 147a f2be 03dc 193e 8eb9 4b3e
00000030: f520 17be f4ae 43bf 5e7a 26be 2481 e33e
00000040: 0287 62bf 62de 6f3d 1b03 1c3d 2e21 0e3f
00000050: fa82 263f 63a9 aebe e439 debd d2e5 1cbf
00000060: 9c8c 13bf 0a40 fabe e86d 183f f285 48bf
00000070: 252d b63e cf59 e13d 4ea0 bcbe defc 123f
00000080: 3cb0 893e f0b3 4e3f cbee 7f3e dcf2 e83d
00000090: 5446 9bbe e9db 84be f092 1e3e 8823 263f
000000a0: 297d 433e a0f8 273f 3f96 7a3f f28f 1d3f
000000b0: e445 9fbe 5c96 91be 14bb 3d3f 2686 a33e
000000c0: f9ca 993e 6a6b 3c3f 3056 893f 6bb3 763e
000000d0: ae9c 9ebe edd3 8ebe 95a5 e53c 3701 813e
000000e0: 50ee 0e3f 6458 a53e b347 b9be 6015 7d3f
000000f0: f390 4d3d 1d99 11be b61a eb3e c927 b43d
00000100: e637 37be 4ad4 89be fbf0 9abe 0a1f c6be
00000110: b1f2 583e 1067 5a3f 6c00 243f 8d82 42be
00000120: bf96 85bf 98c0 22bf 9025 d0be bb4c e03e
00000130: 8f78 cd3d 3599 a53e 4e59 7abe 2b54 32be
00000140: 3596 5c3e 7e6a 913d 3222 e3be a6a5 a63c
00000150: f637 99be 3daa e6be cc1e 513e baff 1dbe
00000160: 16f0 4c3e fc26 973f 35f0 bbbe e0e9 b83e
00000170: d31e 273d fc8d 08be 1a7e 8dbe 42d0 6bbe
00000180: 804f 86bd 6bb1 a43e 704d 4d3c 3574 52be
00000190: 9e92 84bf a2ce 6abe 341e d0be 305c 933e
000001a0: 6cde 4fbe 2b6e 8d3f a86e 523f 4189 863e
000001b0: fa2d 7b3f ef57 fd3e 5c04 2c3f 2be7 b53e
000001c0: 22f8 ec3e ada6 9ebe b126 5bbf 6ce5 c3bd
000001d0: 81b4 9bbe 981a ebbd f6dd e7bd f3f0 babe
000001e0: d3fc 1bbe e93d 8c3e 9715 54bf cd43 283e
000001f0: a926 543c fe7c b13e c178 103f c67c 3f3f
0.1778554 -0.39394748 -0.7335261 0.2724749 -0.9387379 -0.1264266 0.04382725 -0.5356522
0.4393235 -0.47358763 0.15025334 0.19895002 -0.14758666 -0.7643883 -0.16257617 0.44434464
-0.88487256 0.05856169 0.0380889 0.5551938 0.65043604 -0.34113607 -0.108508855 -0.6128818
-0.5763643 -0.48876983 0.59542704 -0.78329384 0.35581318 0.11003458 -0.36841053 0.57417095
0.2689227 0.8074331 0.24993436 0.11374447 -0.30327094 -0.25949028 0.1548574 0.64897966
0.19090714 0.65613747 0.9788551 0.6154777 -0.3110801 -0.28435028 0.74113584 0.31938285
0.30037668 0.736014 1.0729427 0.2409188 -0.30978912 -0.27896062 0.028033057 0.2519624
0.55832386 0.32294 -0.36187515 0.9886074 0.050187062 -0.14218564 0.45918816 0.08796651
-0.17892417 -0.26919776 -0.30261979 -0.38695556 0.2118633 0.8531351 0.64063144 -0.18995114
-1.0436629 -0.63575125 -0.40653658 0.4380854 0.1003276 0.3234345 -0.2444813 -0.1741492
0.21541674 0.0710039 -0.44362026 0.02034266 -0.29925507 -0.45051757 0.20421904 -0.15429583
0.2001346 1.1808772 -0.367067 0.36115932 0.04080088 -0.13335413 -0.2763527 -0.23028663
-0.06558132 0.3216661 0.01253067 -0.20552142 -1.0357244 -0.22930387 -0.40648043 0.2878127
-0.20299691 1.1049246 0.822001 0.2627659 0.9811703 0.4948115 0.6719415 0.3552793
0.4628306 -0.3098654 -0.85605913 -0.09565243 -0.3041115 -0.11479682 -0.113216326 -0.36511955
-0.15233164 0.27390984 -0.82845443 0.16432114 0.01294867 0.34665674 0.56434256 0.74799764

batch_norm2.running_var f4 [128]
00000000: 261e 5c3f 22da 913e 952e 743f 3677 8c3d
00000010: 0918 e83e c075 813e 1850 aa3e e01e b23e
00000020: 2c73 d43d 7957 f73d b11c 483e 812f b53e
00000030: 1015 7c3e b3b4 b93e 2ba5 023f 95fd ca3e
00000040: d8d5 153e 04cf c53e d4e6 283e e355 de3e
00000050: d0d0 8d3e 91ef b03e bb8f af3e ea22 a53e
00000060: 57d2 243f fb11 a73e 1d6f 523e 73d5 9a3e
00000070: f311 913e a2ed 2e3e 9253 d73d 8efa 083f
00000080: 3819 783e 70ac ef3e b1de df3d e499 573e
00000090: 0ab0 703e b550 ce3e 70af 063f 1149 413e
000000a0: 0d53 2b3f d24b 843e 793c 8d3e e0e1 f83d
000000b0: df74 a63e ce71 a73e bf4b 9f3e 13f9 193e
000000c0: 1728 723e 4822 d93d cc87 523e fe65 013e
000000d0: 8c49 193e 2ad1 2a3e fbb1 3a3f bba0 983e
000000e0: ece4 3d3e f97e 933e 128d cc3e 510c bb3e
000000f0: 03a3 b23e 4d02 233e 1bb4 703e 66fc 283e
00000100: 70aa c73e a1a0 b13e 5e9e a83e dfeb a33e
00000110: 5798 893e f0b9 253f a2ab 103e 6589 a53e
00000120: 483f fa3e 2271 673e 1a40 ce3e bc35 4e3e
00000130: 6659 be3e 4baa 063e adbd 1c3e 40f0 193e
00000140: 9c14 553e 647b 853e 1167 f03e 722b 903e
00000150: 8213 9b3e 9e58 9b3e c44e 623e c1c2 933e
00000160: 1a25 643e 8b3e a23e 90a8 983e 02e2 aa3e
00000170: 9429 be3e 18af 7f3e a934 613e 8934 0f3e
00000180: a3cf 4d3f fcb6 d23e 37ac ac3e 10a2 043e
00000190: 877e d63e c621 023f 6b79 cb3d c1fd 363e
000001a0: 9f6f f83e 0701 b03e 2884 a03e 2a8d 763e
000001b0: fae9 bf3e 19e8 933e bb87 933e d683 013f
000001c0: c13f aa3e f5b2 d13e c26f 833e f5e5 dc3d
000001d0: 0361 ac3e a46a f73e 4233 9a3e d302 b63e
000001e0: 8216 f93d 546b 363e 78ac 0f3f 8b43 a13e
000001f0: 1119 413e 7fdb 263f f2a8 813e 04ee 4f3f
0.859835 0.28486735 0.9538358 0.06858675 0.45330837 0.2528515 0.33264232 0.3478918
0.1037353 0.12077231 0.19542195 0.35387805 0.2461741 0.36270675 0.51033276 0.39646593
0.14632356 0.38634503 0.16494304 0.434249 0.27698374 0.34557775 0.34289345 0.322532
0.64383453 0.32630906 0.20550199 0.30240974 0.28334007 0.17082837 0.10513987 0.53507316
0.2422837 0.46811247 0.10931147 0.21054798 0.23504654 0.4029595 0.52611446 0.18875529
0.669236 0.25839096 0.275852 0.12152457 0.3251104 0.32704014 0.31112477 0.1503642
0.23648106 0.10602242 0.20559615 0.12636563 0.14969462 0.16681352 0.72927827 0.29810128
0.18544358 0.2880781 0.39951378 0.36532834 0.34889993 0.15918846 0.23506205 0.16502532
0.3899722 0.34692863 0.32933325 0.32015893 0.2687404 0.64736843 0.14127973 0.32331386
0.48876405 0.2260175 0.4028328 0.20137686 0.3717758 0.13150899 0.1530673 0.15033054
0.20808643 0.26070702 0.46953633 0.28158146 0.3028832 0.30341047 0.22100359 0.28859523
0.22279778 0.31688341 0.29816103 0.33375555 0.37141097 0.24969137 0.21992745 0.13984884
0.80394953 0.4115523 0.3372514 0.12952447 0.41893408 0.50832784 0.09935268 0.17870237
0.4852266 0.34375784 0.31350827 0.24077287 0.37483197 0.28888014 0.28814492 0.5059179
0.33251765 0.40956846 0.25671202 0.10786048 0.33667764 0.48323548 0.30117232 0.3554903
0.12162496 0.1781438 0.5612254 0.31496844 0.18857218 0.65178674 0.25324208 0.8122256

conv3.bias f4 [128]
00000000: 9051 a1b8 0a26 7337 16cb 1039 9c0d c439
00000010: bc0e fdb8 8028 5d38 b251 be38 eaba 82b8
00000020: b4ab afb8 9a66 6439 7c91 8cb7 f549 94b9
00000030: e5af 6b37 79b2 a8b9 961f 0139 38d9 e538
00000040: dd76 25b9 8d14 f0b8 d21a b238 99a1 28b8
00000050: b1a4 6eb7 46e0 0439 3be6 6c39 600c b939
00000060: c9de 2ab9 e41e 1cb9 c204 1d39 718f 76b8
00000070: cd00 79b8 87d2 c8b8 6be0 a738 2534 7138
00000080: 516b 9cb9 0eeb 0839 cc85 86b9 2a6a 2db9
00000090: bf9b 2f39 f4c5 08b9 49cd 12b9 b52c 0237
000000a0: 166a 74b9 8e95 4c39 3c20 9eb7 3350 6037
000000b0: da0b 0cb8 0124 b2b8 669c 7338 579d 2bb9
000000c0: 317f cdb8 181d dbb7 5f34 b1b8 199f acb8
000000d0: ce5e 8437 1546 8638 a261 41b9 1df3 9bb8
000000e0: 7a29 f538 23ca c738 dd26 ceb6 0026 f1b7
000000f0: a2c1 5d39 035b a338 671c 4db7 e3ad 6d38
00000100: 2b92 9fb8 c529 aab9 dd09 78b9 5424 1238
00000110: 27ef 1cb9 e520 7539 27f6 33b9 7a8c 73b8
00000120: 396f b838 cc8c 64b9 101b 4b39 a54c b4b8
00000130: 151a 04b9 c3d0 cab7 f3a1 0aba 996e 03b6
00000140: fa8d 31b8 09ba a8b8 e27f 1a38 c7b3 9db7
00000150: 2138 0e39 3bef 54b8 107c 6639 fe3b 2339
00000160: 9038 9939 b9a1 1838 f94f 3439 58b1 5b39
00000170: 5ec0 ae38 e373 acb9 0b70 3039 407b 7939
00000180: 55f6 62b9 e024 60b9 f3cd 5a39 98e9 1336
00000190: d7d7 fd38 f19f 9238 6c1b b1b8 002b 8f38
000001a0: ca49 4938 2c1f 3ab8 c91d 46b9 5e28 32b9
000001b0: 58e0 8439 60c7 1b38 a8f3 0a39 b5b2 62b9
000001c0: b3f0 1337 eaf2 31b9 8de8 6a39 0d13 f838
000001d0: 67b9 62b9 c83c ac37 675a 5bb9 ca7c 70b8
000001e0: a749 8638 bbfc e5b8 5b73 25b9 32a2 8ab8
000001f0: 42d0 8239 40c6 a038 9e83 c9b6 f344 3339
-7.6922704e-05 1.4492785e-05 0.00013808566 0.00037394173 -0.000120667246 5.2728225e-05 9.075123e-05 -6.2336985e-05
-8.3766325e-05 0.00021781996 -1.6757047e-05 -0.00028283862 1.4048045e-05 -0.0003217643 0.00012314165 0.00010960031
-0.00015779906 -0.0001144792 8.492697e-05 -4.020482e-05 -1.4224251e-05 0.0001267205 0.00022592481 0.0003529517
-0.00016295457 -0.00014888827 0.00014974459 -5.878456e-05 -5.9366972e-05 -9.575957e-05 8.004982e-05 5.750744e-05
-0.00029834596 0.00013057535 -0.00025658158 -0.00016538115 0.0001674732 -0.00013043714 -0.0001400012 7.759013e-06
-0.00023309173 0.0001951067 -1.8850078e-05 1.3370113e-05 -3.338964e-05 -8.494408e-05 5.8081372e-05 -0.00016366444
-9.798853e-05 -2.6120382e-05 -8.4497726e-05 -8.2312334e-05 1.5779773e-05 6.402672e-05 -0.00018442285 -7.436259e-05
0.00011690236 9.52671e-05 -6.1438027e-06 -2.8747134e-05 0.00021148336 7.789398e-05 -1.2225565e-05 5.6667148e-05
-7.608937e-05 -0.00032456047 -0.00023654797 3.4842946e-05 -0.0001496641 0.00023377275 -0.00017162469 -5.8066544e-05
8.7945205e-05 -0.00021796225 0.0001936967 -8.597345e-05 -0.00012598217 -2.4177489e-05 -0.00052884145 -1.9584897e-06
-4.2332314e-05 -8.045516e-05 3.683556e-05 -1.8799574e-05 0.00013563085 -5.076754e-05 0.00021980726 0.0001556724
0.00029224576 3.639024e-05 0.0001719593 0.00020951533 8.332798e-05 -0.0003289274 0.00016826407 0.00023792405
-0.00021644805 -0.00021376042 0.00020866822 2.2040676e-06 0.000121041834 6.991614e-05 -8.4451254e-05 6.826781e-05
4.7990856e-05 -4.4374887e-05 -0.00018893847 -0.00016990441 0.0002534415 3.7140562e-05 0.00013251475 -0.00021619613
8.817925e-06 -0.00016970528 0.00022402611 0.0001182911 -0.00021622107 2.0532301e-05 -0.00020919145 -5.7336678e-05
6.403337e-05 -0.00010966646 -0.000157786 -6.610564e-05 0.00024950696 7.6663215e-05 -6.005589e-06 0.00017096456
