agent_0_gcn.pth (torch, 3888 bytes, 6 tensors)

conv1.bias f4 [32]
0	0xbce104d5	-0.027468124
1	0xbcf6e526	-0.030138563
2	0x3cea780b	0.028621694
3	0x3d2e90a4	0.04261841
4	0x3cf41563	0.029795354
5	0xbcd68042	-0.026184205
6	0x00000000	0.0
7	0x3cb6a72c	0.02229651
8	0xba8e3ec9	-0.0010852452
9	0x3cf8a4b5	0.030351976
10	0x3d1d4e98	0.03840503
11	0x00000000	0.0
12	0x3cb879db	0.022519043
13	0x3ca75bda	0.02042954
14	0xbce00e06	-0.027350437
15	0x00000000	0.0
16	0x3ce418c4	0.02784384
17	0xbc88e918	-0.01671271
18	0xbccc043a	-0.02490436
19	0x3b2e2bca	0.0026576393
20	0x00000000	0.0
21	0x3cef2731	0.029193493
22	0x3ccd830a	0.025086898
23	0x00000000	0.0
24	0x3cf78eb9	0.030219423
25	0x3d09ba27	0.033624794
26	0xb949b86a	-0.00019237553
27	0xbc57c07a	-0.013168449
28	0x3cd366d3	0.025805866
29	0xbcd5101e	-0.026008662
30	0x3cf3fee0	0.02978462
31	0x3cd1e73f	0.025622962

conv1.lin.weight f4 [32, 3]
0	0x3eb607e7	0.35552904
1	0xbd596cce	-0.05308228
2	0xbe09ce78	-0.13457668
3	0x3e0332fd	0.12812419
4	0x3c5d5ae3	0.013510439
5	0xbec70f83	-0.38879022
6	0x3ea545c5	0.32279792
7	0xbdad28ea	-0.08455069
8	0x3df8dc70	0.1215142
9	0xbd10f67f	-0.035391327
10	0x3ee5547c	0.4479102
11	0xbe77b481	-0.2418995
12	0x3ed28781	0.41119006
13	0x3e88da96	0.26729268
14	0x3dfe513b	0.12417837
15	0x3e00b56c	0.12569207
16	0x3dd95500	0.106119156
17	0xbdb20d30	-0.086939216
18	0xbcb6399b	-0.022244265
19	0xbe8e7674	-0.27824748
20	0xbe97387e	-0.29535288
21	0x3eac9693	0.3370863
22	0x3e3fa0a4	0.18713623
23	0xbe8f2337	-0.27956554
24	0xbebb683c	-0.36602962
25	0xbecd02f4	-0.40041316
26	0x3a93061c	0.0011217031
27	0x3dc9fb0c	0.098623365
28	0xbd64c483	-0.05585147
29	0xbcacffb7	-0.021118028
30	0x3d40be0b	0.04705624
31	0x3eb5e8f0	0.3552928
32	0xbeb20de8	-0.34776235
33	0xbe91e8a0	-0.2849779
34	0x3e2c6e2c	0.16838902
35	0xbea8c7a3	-0.3296481
36	0xbeb618b3	-0.3556572
37	0xbe674b4e	-0.2258732
38	0x3e3d7d75	0.1850489
39	0x3ecd504d	0.40100327
40	0x3edc8fe0	0.43078518
41	0x3e84a454	0.25906622
42	0x3e8e3920	0.27777958
43	0xbee26474	-0.44217265
44	0x3e3f8bf8	0.18705738
45	0xbed247ef	-0.41070506
46	0xbd442c13	-0.047893595
47	0xbe7dedb4	-0.24797708
48	0x3ec693bb	0.38784584
49	0x3ec9c3b4	0.39407122
50	0x3e127720	0.14303255
51	0x3ebf188c	0.37323415
52	0x3ccb0d90	0.02478674
53	0x3c78e990	0.015192404
54	0x3eafc506	0.34330004
55	0x3e35435f	0.17701481
56	0xbd5cb46c	-0.053883
57	0xbe0cc97e	-0.13748738
58	0x3e488605	0.19582374
59	0xbeceed75	-0.4041554
60	0xbdec0678	-0.11524671
61	0xbe442b63	-0.19157176
62	0xbec908bf	-0.39264485
63	0x3e83bbeb	0.25729308
64	0x3d23b116	0.039963804
65	0x3dc97309	0.09836394
66	0xbcc6bae4	-0.024259038
67	0xbdbcf871	-0.09227074
68	0x3e306b29	0.17228378
69	0xbe2fa920	-0.1715436
70	0xbc5ce3d6	-0.013482055
71	0xbec729a4	-0.38898957
72	0x3e136bda	0.14396611
73	0x3e679479	0.22615232
74	0xbdc7a40d	-0.09748087
75	0xbe55dd86	-0.20885286
76	0x3ed47d46	0.41501826
77	0x3e31bc47	0.17356978
78	0xbe34f945	-0.17673214
79	0xbd8c7861	-0.06858898
80	0x37737462	1.4511026e-05
81	0xbde9ed9a	-0.11422272
82	0x3dff3d01	0.124628074
83	0x3c0afd85	0.008483295
84	0xbd966988	-0.07344347
85	0xbe0d21fd	-0.13782497
86	0x3e16b48d	0.14717312
87	0x3e033897	0.12814556
88	0xbeb5d216	-0.35511845
89	0xbead66e4	-0.33867562
90	0x3e4cf248	0.20014298
91	0x3e5b8d02	0.21440509
92	0xbdc1a332	-0.09454955
93	0x3ec1696f	0.37775752
94	0xbeba7bfd	-0.3642272
95	0x3eb046ee	0.34429115

conv2.bias f4 [4]
0	0x3cf27fa1	0.029601874
1	0x3cdaaba9	0.026693182
2	0x00000000	0.0
3	0x00000000	0.0

conv2.lin.weight f4 [4, 32]
0	0xbe75ea66	-0.24015197
1	0xbda1baf8	-0.078969896
2	0x3ed79f5a	0.42113763
3	0x3ea8f965	0.33002773
4	0x3e56e91d	0.20987363
5	0xbcc0a8f2	-0.02351806
6	0xbcf4de6d	-0.029891217
7	0x3e82476b	0.25445113
8	0x3dc1f278	0.09470075
9	0x3d9a54c5	0.075357
10	0x3e844b2e	0.25838608
11	0x3e83b6c9	0.25725392
12	0xbe00cd32	-0.12578276
13	0xbe63a66d	-0.22231455
14	0xbe0e6b10	-0.13908029
15	0x3e9ac8b7	0.30231258
16	0x3e50bc84	0.20384413
17	0x3e88438d	0.26614037
18	0xbe7df0a6	-0.24798831
19	0x3ecfedd9	0.4061115
20	0x3eaaf047	0.33386442
21	0x3e5755cd	0.21028824
22	0xbe913c41	-0.28366283
23	0xbdbe88e5	-0.09303454
24	0x3eaa35e0	0.33244228
25	0x3dfed517	0.124429874
26	0xbeb88673	-0.36040077
27	0xbea9971a	-0.33123094
28	0x3e43d1d6	0.19123015
29	0xbe4ed0c2	-0.20196822
30	0x3e99b7d8	0.30023074
31	0xbe5f4e0b	-0.21807115
32	0x3de3a2f6	0.11115067
33	0xbe642496	-0.22279581
34	0x3e8a4a64	0.2700988
35	0x3df535e0	0.119731665
36	0xbd451ac6	-0.048121236
37	0xbe9faacb	-0.31184992
38	0xbd1055bd	-0.035238016
39	0xbe29d76f	-0.16586088
40	0xbe444715	-0.1916774
41	0x3e8816ef	0.26579997
42	0x3ec1a65a	0.3782223
43	0xbb5d961a	-0.0033811391
44	0x3ec5b01c	0.38610923
45	0x3e60d2e1	0.21955444
46	0xbc2dd834	-0.010610629
47	0xbe873339	-0.26406267
48	0x3ed0ac2a	0.4075635
49	0xbe637d16	-0.22215685
50	0x3e1e33d6	0.15449461
51	0xbeca7ebc	-0.39549816
52	0xbe090204	-0.13379675
53	0x3e05567d	0.13021274
54	0x3edd866e	0.43266624
55	0xbda74edc	-0.08169338
56	0x3c3e8a40	0.011629641
57	0x3de30b27	0.110861115
58	0xbec5d3a6	-0.38638037
59	0xbe58e6bc	-0.21181768
60	0x3e2604fd	0.1621284
61	0x3e475c2a	0.19468752
62	0x3e55f464	0.20894009
63	0x3ed7f7b8	0.42181182
64	0xbe351147	-0.17682372
65	0xbe2ac28a	-0.16675773
66	0xbe23dd74	-0.16002446
67	0x3ec7ac08	0.38998437
68	0xbec5374f	-0.3851876
69	0x3e0926a1	0.13393642
70	0xbdb70c9a	-0.089379504
71	0x3b7e8af6	0.0038840151
72	0xbe88f04b	-0.2674583
73	0xbec1d34e	-0.37856525
74	0xbe51bfba	-0.20483294
75	0x3e7a4156	0.24438986
76	0x3eb31f9b	0.3498505
77	0x3e4c9003	0.19976811
78	0xbecdac90	-0.40170717
79	0xbcc89474	-0.02448485
80	0xbe0c6022	-0.13708547
81	0x3eb4804e	0.3525414
82	0xbeb98a67	-0.36238405
83	0x3d7ef338	0.06224367
84	0x3ec85996	0.3913085
85	0xbe47dd29	-0.1951796
86	0xbea64ce1	-0.3248053
87	0xbdde19fe	-0.10844801
88	0xbe8f90f6	-0.28040284
89	0xbe83886e	-0.25690025
90	0xbe86b736	-0.26311654
91	0xbeaaa6e5	-0.33330455
92	0xbea77e2c	-0.3271345
93	0xbe34013b	-0.17578594
94	0x3e0a5cb8	0.13511932
95	0x3d44f99b	0.048089605
96	0x3d4fde67	0.05074921
97	0x3db62470	0.08893669
98	0x3e02bd24	0.12767464
99	0xbec43d59	-0.38328055
100	0xbebfe848	-0.37481904
101	0x3e53ea5f	0.20694874
102	0xbdbff5ec	-0.09373078
103	0xbe5d1508	-0.21590054
104	0x3e05f677	0.130823
105	0x3ddad001	0.10684205
106	0x3db188a7	0.086686425
107	0x3ecd402a	0.40088016
108	0x3eb3addc	0.35093582
109	0xbe8902af	-0.2675986
110	0xbe2b2a0b	-0.16715257
111	0x3be1dea8	0.006892998
112	0xbe1ef134	-0.15521699
113	0x3e6fa584	0.23402983
114	0x3ce13bc4	0.027494319
115	0xbeaba56c	-0.33524644
116	0x3e1cf0bd	0.1532621
117	0x3ebacd3b	0.36484703
118	0x3e97e356	0.2966563
119	0xbda54db8	-0.08071464
120	0x3d5a3b74	0.053279355
121	0xbcf2d771	-0.029643746
122	0xbd81cb7c	-0.0633764
123	0x3e43c07b	0.19116394
124	0x3e45629a	0.19275895
125	0xbe9cc9be	-0.30622667
126	0x3e27d4d1	0.16389777
127	0xbe8cef30	-0.27526236

fc_out.weight f4 [4, 4]
0	0xbd96a2b6	-0.073552534
1	0xbe09f4f4	-0.13472348
2	0x3ef6120c	0.48060644
3	0xbe9eb8ae	-0.31000274
4	0xbe16ce4e	-0.14727136
5	0x3e9999b8	0.3000009
6	0x3e2d10a4	0.16900879
7	0xbe175fb0	-0.14782596
8	0xbe015cd4	-0.12633067
9	0xbc443b31	-0.011977003
10	0x3eb23d48	0.3481238
11	0xbcd44dc0	-0.02591598
12	0xbef1b699	-0.47209623
13	0xbe30f290	-0.1728003
14	0x3eb2d6fc	0.34929645
15	0x3edea6b6	0.43486565

fc_out.bias f4 [4]
0	0x3da5b3c0	0.08090925
1	0xbe10795d	-0.14108796
2	0x3ca7657d	0.020434136
3	0x3eb7a622	0.35868937
