agent_0_gcn.pth (torch, 147323 bytes, 18 tensors)

conv1.bias f4 [128]
00000000: 5294 673c 5377 46bc eccf dd3b a786 2cbd
00000010: ae58 683c c5c8 07bd 123d 6e3c e46e 363d
00000020: 6641 053a a5ff 763c d1fd 943c b5ad 83bc
00000030: c4ae 04bd d2c6 cc3c f578 7f3c 5d75 3a3b
00000040: 576f febc 7d40 bb3c 533e 9d3c 2cbc 29bc
00000050: 41e9 3e3d 22c0 403d 3160 bcbc 942f 5c3b
00000060: 960a 0c3c 03e5 1f3b 7083 fe3b 8b2c 7cbc
00000070: db57 113d 7c2f 7a3b 93d5 b43b 01fc ab3a
00000080: 13b7 39bc da99 0a3d 56c5 d63c 7bd9 efbc
00000090: 2d10 02bc d556 2abb 1720 78bc a2b5 763c
000000a0: 84e8 23bd c175 4f3c d26b e4bc afd5 89bc
000000b0: e302 3ebd bec2 67bc 25fa baba 1251 64b9
000000c0: c696 33bd da69 afbc 5e36 c33c 5a80 45bc
000000d0: 61e4 97bc 8ef4 15bc 0a2f cd3b babb 60bc
000000e0: 8241 51bc d63d 0fbb 5e9d 84bc 07bb 91ba
000000f0: b756 d83c e39d 23bd fb78 6aba e5f4 0f3b
00000100: a890 6c3d 93cf 153b 644f 07bb 3adc bbbb
00000110: 0c80 dcbc b541 643d 5533 a93d 1d9e ba3b
00000120: 631f 29bd ab1b 8b3c d305 b5b8 86c5 85bc
00000130: 96b8 1f3c b358 63bc a06e 2e3c f0bd dbbb
00000140: e036 853c ca31 2c3c 3706 be3b 7e7d 0f3c
00000150: 4fd3 893c 8059 f8bc faff 9db9 667a 16bc
00000160: ede1 3ebc 5c3a 28bb 1fad f2bc 40ea 43bb
00000170: 7b68 f7ba 3bcc 4ebc 6bee 41bc 5c7e 3cba
00000180: d195 50bc 8281 a63c 774e 183d d644 07bc
00000190: 7c83 b93b e4f3 763b 389b 353c cc6e 413c
000001a0: 6f3f 0ebd 755a d53c 514e 1a3b 9cc8 96bc
000001b0: 0196 31bc 6ec4 a3bc 7764 9dbc f3b1 543a
000001c0: 1557 dd3a be2f 46bd b67c 86bc ab71 01bc
000001d0: b6fa 23bd 3307 60bc 9342 1cbb 95ce aa3a
000001e0: 2059 29bd c2e1 debc 5c07 9a3c 6c54 9ebc
000001f0: fd38 f9bc 834d 28bc 20be b4bc 1a84 acbc
0.014134483 -0.01211341 0.006769171 -0.042120602 0.014181299 -0.033150453 0.0145409275 0.044539347
0.00050832925 0.015075599 0.018187435 -0.01607404 -0.032393232 0.024997149 0.015592803 0.0028451302
-0.03105895 0.022857899 0.019194758 -0.010359805 0.046609167 0.047058232 -0.022995086 0.0033597695
0.008547446 0.0024397976 0.0077671334 -0.015391479 0.035484176 0.0038175276 0.005518624 0.0013121368
-0.011335152 0.03383813 0.026217144 -0.029278507 -0.007938427 -0.0025991697 -0.01514437 0.015057953
-0.040016666 0.012662352 -0.027883444 -0.016825525 -0.04638947 -0.014145551 -0.0014265223 -0.00021773975
-0.04384496 -0.021412779 0.023829635 -0.012054527 -0.018541517 -0.009152545 0.006261711 -0.0137166325
-0.012771966 -0.0021856925 -0.01618832 -0.001111836 0.026408536 -0.039945494 -0.0008944419 0.0021966037
0.057755142 0.002285932 -0.0020646686 -0.00573304 -0.026916526 0.055726726 0.08261744 0.005695118
-0.0412897 0.016980967 -8.6318374e-05 -0.016329538 0.009748599 -0.013876128 0.010646492 -0.006705992
0.016261518 0.0105099175 0.0057990807 0.008757947 0.016824393 -0.030316114 -0.0003013609 -0.0091844555
-0.011650545 -0.002566955 -0.029623566 -0.0029894263 -0.0018875742 -0.0126219345 -0.011836628 -0.000719046
-0.0127310315 0.020325426 0.037184205 -0.008256158 0.005661426 0.0037681991 0.01108437 0.011806201
-0.034728464 0.02604411 0.0023545215 -0.018406205 -0.010838986 -0.019991126 -0.019212944 0.00081136747
0.0016886914 -0.048385374 -0.016416889 -0.007900636 -0.04003402 -0.013673591 -0.0023843392 0.0013031537
-0.04134476 -0.02720726 0.018802337 -0.019327365 -0.030422682 -0.0102723865 -0.022063315 -0.021059085

conv1.lin.weight f4 [128, 3]
00000000: e700 8e3e 22dc 083e ea43 e7bd 5072 2a3e
00000010: b9cd 83be 1943 7c3d 238b 08be dcd0 ec3d
00000020: e643 06bc 630c 24be 0550 82be 9eef 8b3d
00000030: ff8c b53c c118 80bd c41e b03e 7c90 013d
00000040: df55 0c3f ba89 843d 233d 76bd b84f fe3d
00000050: 86f5 81be c230 f23d 7c5f 04bf 6047 fc3d
00000060: 845c a83d 0101 86be c6ce d03d ac88 fdbd
00000070: bc1e 3abe 5e06 05be 492d 58be 8b8f 173e
00000080: 9d1e 383d e41f a33e 5e15 923e c335 5b3d
00000090: b50e 843e 4120 bf3e 79b5 b9bd 83d2 1cbe
000000a0: 939a 4dbe e315 ca3c 3856 df3e fc2a 903c
000000b0: 5375 95bb 215e acbe 9deb 4abe 0442 8e3d
000000c0: d324 b6bd 2aee b6be 2862 7c3d 314d bb3d
000000d0: 4bda 2d3e e07f 6c3e 8b46 643d 7c13 a33e
000000e0: 6ded eabc 7ebe 8e3e 5c61 7dbd 3c11 acbd
000000f0: 6835 753d 2f1a 0f3f 03e4 813d da8d 5abc
00000100: ca5e 973f 20cb e6bc 6fae 183d 6052 36be
00000110: ddbc ab3e dd86 33be 9cee 193e f46f 28bb
00000120: e203 5abe 2bc4 9fbd 3a54 80bd 2fa5 2ebe
00000130: 6288 54be c6c7 ce3c ba10 413e 3712 863e
00000140: 8db8 b0bd a1cf 0b3e 1f1b e1be 6178 893b
00000150: 513c 99be 9df5 e2bc 10fa d5bc a1d3 bfbe
00000160: be80 01be 5865 113d cbc0 113e 35d2 95be
00000170: cb60 9b3c 62c7 4a3e ec17 583e da92 18be
00000180: a44d 84bd abe8 0abf 26f1 e23d abd5 8f3d
00000190: aa5f f8be 0f84 c03d b60a 5bbe 5fe7 cb3d
000001a0: cf2b 533d a9b3 9c3d 3cde 7c3e 3625 1e3e
000001b0: 13de 343e 5584 813e 1817 4cbd c6b2 903d
000001c0: 9dd4 e4be 1ed2 203e 801f 2a3d afe0 8e3e
000001d0: 27bd d5bd e88b a3be a4df 2c3e dc54 f33c
000001e0: 46bb 4abe 8c18 82be 74b8 a03d 57b7 e7ba
000001f0: da6f 053e ec39 903e b4ac 7cbe 8a51 5e3e
00000200: 17b0 2ebc e05a c73e 9126 423e 0ef2 40bc
00000210: 7ad6 9fbc 9fb0 513f cb59 aa3c 0b14 733e
00000220: bf36 8d3e 71ff 2ebd 36c8 6abe 393e 76be
00000230: 4a0d 073d 22f9 6f3e 05cb b7bb 1e82 03bc
00000240: 0b64 853e 1ed2 873e 84b9 eabc 9e2b 74be
00000250: dc65 6fbe dde8 043d 97a3 213e 6729 0abe
00000260: 8297 5cbd 668e 55be 4db7 91be ca93 933c
00000270: 92ec fa3d 7a62 9dbe a696 d33d e450 0d3e
00000280: 7656 8c3e 44ef b2bd c2dc 8c3e ec3c 8a3d
00000290: c303 4cbd 4de8 02be bf0b adbe f666 cc3d
000002a0: 3681 bd3d 7f5c adbe 8877 1e3d c30e 8bbe
000002b0: abd0 f0be ab26 af3b 3686 36bb 2d02 4f3f
000002c0: b9ef dcbc 2117 35bd fa10 80be bf8b 1bbe
000002d0: 6127 85be e422 b0be 456a 88bd ac6a a23d
000002e0: 4dfd b9be c6fc aa3d 5f9b d3bd 437c 033e
000002f0: f992 adbd 3fd0 8fbe 6ade 15be 6811 323d
00000300: 14ad d23d c1e3 cbbe fb61 b63d 3681 a3be
00000310: 2377 84bd 01da 093d 982d 64be 0d9b e7bd
00000320: 757f b33d 9163 2f3e 7e47 3d3e f1c0 23bd
00000330: 2fc0 8abe e6fd 92be 3ed9 bcbd f908 dfbc
00000340: 8cf5 8c3e 1ffa 523e d7e0 8b3d e8d5 ddbe
00000350: 46dd 843d 5dc3 8c3e 1d00 153e abcf bcbd
00000360: 53a4 883c 6724 fe3e c0a3 413d c744 3c3e
00000370: 9649 563e ce6b 96bd 1476 9dbc 4975 13bf
00000380: 7071 523d 052d f6bd d5e2 bdbe 059f fd3d
00000390: 0326 923d 366b 3a3e 28f5 403e 030e 04be
000003a0: 3156 86bd 62d8 b8bd e743 993e 5523 8bbd
000003b0: 75e6 203c 2918 aa3d 9c12 ae3e f014 1e3e
000003c0: 3836 2fbe 0038 90be e4e6 cf3c 9f63 6dbd
000003d0: 87ef 0ebe 5b3f 74be 04b5 47be 0b6a 96be
000003e0: 1147 dbbd d5cc 103e 9d15 893e 0b5f 07be
000003f0: 6764 cfbd 6b2b 96be c108 43be 2429 30bd
0.27735063 0.13365224 -0.112922505 0.1664517 -0.2574289 0.061587427 -0.13334326 0.11563274
-0.008194899 -0.1602035 -0.25451675 0.06832813 0.022161959 -0.062547214 0.34398472 0.03163193
0.5481853 0.06471582 -0.0601169 0.12417549 -0.25382632 0.11825706 -0.517082 0.12318301
0.08220771 -0.2617264 0.10195689 -0.12379584 -0.18175787 -0.1299071 -0.21111025 0.14800851
0.04495107 0.31860268 0.28531927 0.053518068 0.2579247 0.37329295 -0.09067816 -0.15314679
-0.20078497 0.02466864 0.43620467 0.017598622 -0.0045611053 -0.33665565 -0.19816442 0.06946185
-0.088937424 -0.3572858 0.061617047 0.091455825 0.16977803 0.23095655 0.055731338 0.31850803
-0.028677667 0.2787971 -0.061860427 -0.08401725 0.059865385 0.5589933 0.06342318 -0.013339484
1.1825802 -0.02817303 0.037275728 -0.17804861 0.3354253 -0.17531915 0.15032429 -0.0025701495
-0.21290544 -0.07801088 -0.06266065 -0.170552 -0.20755151 0.025241744 0.18854037 0.26185772
-0.0862895 0.13653423 -0.43966004 0.0041952585 -0.2992883 -0.027705008 -0.026120216 -0.37466148
-0.12646767 0.03549704 0.14233701 -0.29261938 0.018967053 0.19802621 0.21102875 -0.1489977
-0.06460121 -0.54261273 0.11081152 0.07023176 -0.48510486 0.09400188 -0.21390805 0.0995624
0.05155545 0.07651455 0.2469415 0.15443882 0.1766284 0.25296274 -0.04982671 0.07065348
-0.4469346 0.15705153 0.041533947 0.27905795 -0.104364686 -0.31942677 0.16882187 0.02970355
-0.19798002 -0.25409353 0.07847682 -0.0017678541 0.13030949 0.2816919 -0.24675256 0.21710792
-0.0106621 0.3893652 0.18960024 -0.01177646 -0.01951145 0.8191013 0.02079477 0.23738115
0.2758083 -0.042724077 -0.22927937 -0.24047174 0.032971658 0.2343488 -0.0056089186 -0.008026628
0.2605289 0.26527494 -0.028652914 -0.23844764 -0.233787 0.03244864 0.15785061 -0.13492356
-0.053855427 -0.20855102 -0.2846016 0.018014807 0.122521535 -0.30739194 0.10331468 0.13800389
0.27409714 -0.087370425 0.27512175 0.06749901 -0.049808275 -0.12783928 -0.33798024 0.09980576
0.09253161 -0.3385963 0.038688213 -0.271597 -0.470342 0.0053451858 -0.0027850992 0.80862695
-0.026969777 -0.04421151 -0.25012952 -0.15190028 -0.26006606 -0.3440162 -0.06660894 0.07930502
-0.36326066 0.08348994 -0.10332369 0.12840371 -0.084752984 -0.28088567 -0.14635625 0.04347363
0.10286918 -0.398222 0.08905407 -0.31934518 -0.06468036 0.03365517 -0.22283018 -0.113088705
0.08764545 0.17127825 0.18484303 -0.039978925 -0.2709975 -0.28709334 -0.09221123 -0.027225958
0.27531087 0.20603226 0.06829994 -0.4332726 0.06487517 0.274928 0.14550824 -0.09219297
0.016679918 0.49637148 0.047275305 0.18385611 0.20926508 -0.07344781 -0.019221343 -0.5760084
0.051377714 -0.120203055 -0.37087122 0.12383846 0.071361564 0.1820496 0.1884352 -0.1289597
-0.065594085 -0.09025647 0.29934618 -0.067938484 0.00982057 0.083053894 0.33998573 0.15437675
-0.17110527 -0.28167725 0.025378652 -0.057956334 -0.1395856 -0.23852293 -0.19502646 -0.2937778
-0.10706914 0.14140637 0.26774302 -0.1321985 -0.10126572 -0.2933 -0.19046308 -0.043007985

batch_norm1.weight f4 [128]
00000000: 4bc7 653f 9fff 773f cb43 853f a40f 773f
00000010: b450 863f 0796 843f b6d6 5b3f 8dbc 923f
00000020: 5fb7 7c3f dee4 623f c29e 793f b596 773f
00000030: 9d69 6d3f 8f42 8a3f 20db 4a3f b48c 8a3f
00000040: ab73 793f 6475 783f d457 713f 05cd 643f
00000050: dac9 7c3f 6cec b63f 4fe4 733f a667 913f
00000060: ff08 5a3f dfa6 8c3f 40f2 6d3f f1b6 8d3f
00000070: dd1b 7d3f cca8 7f3f 8f08 7f3f fbf1 5b3f
00000080: a24d 803f 38cb 873f 29fb 653f 7141 583f
00000090: 44aa 723f f198 883f 6ddb 5b3f 439f 943f
000000a0: f55d 793f 25af 843f dfd7 963f 149d 6c3f
000000b0: b43d b23f b028 6b3f cf48 8b3f 4722 613f
000000c0: 16ae 643f 0024 793f a263 693f 3302 803f
000000d0: a10e 903f a52c 6a3f 6e6e 523f 7367 673f
000000e0: c527 7a3f 2eaa 923f 6cbd 863f f093 553f
000000f0: d87e 583f ee97 8a3f d722 703f a3b3 913f
00000100: bbb0 893f 0a45 8a3f 6722 7a3f 54d1 613f
00000110: 15f0 773f a6ec 813f 6517 913f 4c18 5c3f
00000120: 513d 783f 3476 3f3f 5f52 873f 5cb3 613f
00000130: 0e4a 6e3f faf3 513f c319 3b3f 1eb1 703f
00000140: 1a39 863f 4283 5d3f c3ff 7e3f 3e27 6a3f
00000150: c59b 563f 5aa7 6f3f 5875 613f 48a7 7b3f
00000160: 5886 4a3f dc97 5a3f f22f 9d3f 1671 6f3f
00000170: db76 4d3f 7ead 923f e99e 503f db32 813f
00000180: 3336 6c3f c942 743f 1570 5c3f ce0a 7e3f
00000190: 20fa 883f 8bb5 5a3f d0c3 613f 0f5a 713f
000001a0: 5ada 8e3f f8e2 543f c43b 813f fc61 633f
000001b0: 8692 643f fc09 563f d7ad 673f 8655 663f
000001c0: 94d2 743f 5191 9a3f e9f0 783f a9cc 6d3f
000001d0: fd56 883f f455 5e3f 9665 6a3f aec7 5f3f
000001e0: 92e5 863f cc05 863f 13f3 6f3f 912e 643f
000001f0: 6004 683f 7b27 8f3f 73d0 733f 5c53 783f
0.8975722 0.9687442 1.0411314 0.9650824 1.0493379 1.0358285 0.858745 1.1463791
0.987173 0.88630474 0.9750787 0.96714336 0.9273928 1.0801562 0.7924061 1.0824189
0.9744212 0.97054124 0.9427464 0.89375335 0.987455 1.42909 0.95270246 1.1359756
0.85169977 1.0988425 0.9294777 1.1071454 0.9887064 0.9986694 0.99622434 0.8591611
1.0023692 1.0608892 0.89836365 0.84474856 0.94791055 1.0671674 0.8588169 1.1611103
0.9740899 1.036595 1.1784629 0.9242718 1.392508 0.9185896 1.0881594 0.8794293
0.89328134 0.97320557 0.9116765 1.0000671 1.1254464 0.9147437 0.8219975 0.90392226
0.97716933 1.1458185 1.0526557 0.8342886 0.8456855 1.0827615 0.9380316 1.1382946
1.0757059 1.0802319 0.97708744 0.88210034 0.9685071 1.0150344 1.1335264 0.85974574
0.9696856 0.7478974 1.0572013 0.88164306 0.9308175 0.82012904 0.73086184 0.9402026
1.0486176 0.8652841 0.9960901 0.9146613 0.83831435 0.93614733 0.8806968 0.98302126
0.7911124 0.8538797 1.2280257 0.9353193 0.80259484 1.1459196 0.8149248 1.0093645
0.922702 0.95414406 0.86108524 0.99235237 1.0701332 0.8543326 0.8818941 0.94278044
1.1160386 0.83158827 1.0096364 0.8882139 0.8928608 0.83608985 0.90499634 0.8997425
0.95633817 1.2075597 0.972426 0.9289041 1.0651547 0.86849904 0.9156126 0.8741406
1.0538809 1.0470519 0.93730277 0.89133555 0.90631676 1.1183923 0.95239943 0.97002196

batch_norm1.bias f4 [128]
00000000: 1580 893d cb55 53bd 121d cbbc 2be9 ddbd
00000010: af49 25be 9225 10be 4728 20be c282 91bd
00000020: 3d5b a1bc 7407 05be 19ac 16bb efc2 a7ba
00000030: 5336 1f3d 3225 8a3d 4d4f fbbd 53ef 573d
00000040: 807b 5a3d 46fa f0bc d049 87bd f0a0 39bd
00000050: 6698 b2bd 4f7c 7e3e b557 e6bd 4f58 473d
00000060: 39b6 30be 8d98 103d 1639 10bd 875f c1bd
00000070: 9870 8bbd e819 ddbd 9dfe 93bd 2ba0 14be
00000080: 0334 f03d 8f8e e2bd 58cd f4bd 0ddd c1bd
00000090: 5eaa 8dbb a11a 4f3d 5d08 0abe d6a1 a33d
000000a0: 15a1 57bd 60af 24be 25de 13bd 9f9e 233c
000000b0: b817 92bd dcce b23d c1ad 6dbd fdc9 18bd
000000c0: dc1d 873d 6825 16bd 4e36 a7bd 5cbf e8b9
000000d0: a5ac 0fbd 1e39 1b3d 9475 13be b16b 4ebe
000000e0: 615e 1bbe ce1f 6e3d 6d4c 6e3c 9381 f1bd
000000f0: 2e90 47be 9155 c5bd 53bf 7ebb 24b4 d4bb
00000100: 7fc9 61bc eb97 753c 9696 56bc 910b eabc
00000110: 34c2 e1bd c0f1 03be 4af2 82bd 5425 24be
00000120: 7219 46bd 04e8 c5bd 2e13 f5bd e931 043c
00000130: 0304 3bba 1842 3abe b2d7 15be d13f 62bd
00000140: cda8 4ebd 9611 f1bd a09d f4bd 891e f5bd
00000150: e373 1abe 0e5e dbbd e30d 03be 3160 fdbc
00000160: 8d78 84be c0e1 bdba 1890 a43c fe4e 95bc
00000170: 8ac8 08be bde9 993b 3001 59be 0531 ca3d
00000180: ce4b 71bc 1b63 e1bd 95d6 40be b871 493d
00000190: b9a8 79bd 0516 cdbd e4e6 b5bd 64b2 0fbe
000001a0: 85a8 d53d 6462 53be ef43 d9bd 4728 14be
000001b0: 1335 00be bf22 b2bd e1f7 10bd 341b e4bd
000001c0: 0819 9a3d 8851 abbd fdc7 5e3c 0f8f 0cbc
000001d0: 4052 a7bd e950 56be 1ac6 cbbd f330 d7bd
000001e0: f532 7fbd bc7d 863d 931c 54bd 01fe 84bd
000001f0: 8cab 22be 1673 e43d 56d5 483c 22c5 a8bd
0.06713883 -0.05159549 -0.024794135 -0.10835489 -0.1614139 -0.14076832 -0.15640365 -0.07105018
-0.019696826 -0.12991124 -0.0022990762 -0.0012799184 0.038870167 0.06745376 -0.12270985 0.05271847
0.053340435 -0.029416215 -0.066058755 -0.045319498 -0.08720474 0.24852107 -0.112471975 0.048668202
-0.17257012 0.035301734 -0.03521069 -0.094420485 -0.06808585 -0.10795957 -0.07226298 -0.14514224
0.117286704 -0.11062347 -0.11953229 -0.0946599 -0.004323288 0.050562505 -0.13479753 0.07989852
-0.052643854 -0.16082525 -0.036100525 0.009986549 -0.0713343 0.087308615 -0.058027033 -0.037302006
0.06597492 -0.036656767 -0.08164655 -0.00044393062 -0.035076756 0.037896268 -0.14400321 -0.20158269
-0.15172721 0.0581358 0.0145445885 -0.117922924 -0.19488594 -0.09635461 -0.0038871362 -0.006491201
-0.013780951 0.014989833 -0.013097426 -0.028569968 -0.110233694 -0.12885189 -0.06393869 -0.16029865
-0.04836411 -0.09663394 -0.11966549 0.00806854 -0.00071340817 -0.18189275 -0.14633062 -0.05523664
-0.05045395 -0.117709324 -0.11944127 -0.11968715 -0.1508327 -0.10711299 -0.12798266 -0.030929657
-0.25873223 -0.0014486834 0.02008824 -0.018226143 -0.1335775 0.004697053 -0.21191859 0.09872631
-0.014727546 -0.11005231 -0.18831857 0.049180716 -0.060951922 -0.100139655 -0.088819295 -0.14032894
0.10432533 -0.20643002 -0.106086604 -0.1446849 -0.12520246 -0.086980335 -0.035392646 -0.11138001
0.075243056 -0.0836516 0.013597486 -0.00857903 -0.08169985 -0.20929302 -0.09949894 -0.10507383
-0.062304456 0.06566951 -0.051785063 -0.0649376 -0.15885752 0.111547634 0.0122578945 -0.08240725

batch_norm1.running_mean f4 [128]
00000000: f91e 5d3e 6b2d af3d dc73 99bd 86df 4cbe
00000010: 88fb 2e3e e0e7 1c3e d1b6 efbd 4b16 8d3d
00000020: 2bfd 453d c5bc 3dbe 4ca9 bfbd 63c9 a83e
00000030: 4416 633e 782d 09be 8a68 ba3e d9e6 8fbe
00000040: ee0f 24be b4b8 753e 7275 023e 3b1c 223e
00000050: 04cd 833e 4442 9e3e 7f5e e93d a544 cebd
00000060: f058 54be 2ad4 2fbe 804c 3a3e 853c 37bc
00000070: ddc6 61be 2bcd 9dbe 122f 673d eb15 123e
00000080: 0646 13be 1ebf 703c f189 c5bd 181e 243e
00000090: 7616 2f3e 2013 843c 6622 1d3d cefb 3cbe
000000a0: 16ac 64be 34f3 2c3e bf6f 34be 4c5b aa3e
000000b0: 668c 143e 1001 633e d117 68be 3c35 393e
000000c0: b23b 5b3e 9e4e 81be bb71 bd3d 20e7 73be
000000d0: 8366 503d b969 023e 8bd6 5f3e 109f 1bbe
000000e0: 42b1 70bb 185e a8be 6186 283e 8797 28be
000000f0: 76f5 95be 0835 dfbc ea2d b8bd c144 72be
00000100: 5381 aa3d 45e4 80be bafb 2abe 22ad 203e
00000110: 8c8d b4be 4d75 453e 6555 7b3d 79eb 5e3e
00000120: 8615 e73d c2c6 383e 1c61 06be b333 15be
00000130: 7c6f 473e 5baf 30be 24f2 713e 257a 573e
00000140: 6d5e 34be a251 34be 7429 89be fa50 013e
00000150: e5f7 60be 8cbb 59bd 65a8 683e 0904 89be
00000160: 285d 503d f2d6 5c3e c835 1c3e 4d9d 383e
00000170: f4ab 273e bc01 b23c fdc9 fd3d c296 85bd
00000180: bf74 5e3e eb33 4ebe 5687 2ebe c21d 103e
00000190: 5958 46be ada2 25be f3f1 593e 16bc dabc
000001a0: ce7c 0cbe 7ca4 97be 9445 28be 885d 4f3e
000001b0: a8cb db3d bc93 7cbe d8bb cc3d ed35 9f3e
000001c0: 4515 f8bd 98a8 ff3d dee4 f4bd 9bdd 79be
000001d0: 231a 21be fe5c 663d f402 ce3d cd23 533e
000001e0: 22ed 73be da47 3ebe adbf 47be 5b93 1f3e
000001f0: be04 90bd ed96 33be 30f8 14bd 4789 573d
0.21593846 0.08553585 -0.074928015 -0.20007142 0.17088139 0.15322828 -0.11704791 0.06889018
0.048337143 -0.18529041 -0.09358463 0.32966146 0.22176462 -0.13396251 0.36407882 -0.2810581
-0.16021702 0.2399624 0.12740114 0.15831082 0.25742352 0.30909932 0.11394977 -0.10071687
-0.20737052 -0.17170778 0.18193245 -0.011183863 -0.22048517 -0.30820593 0.056441374 0.14266174
-0.1438218 0.014694003 -0.09645451 0.16027105 0.17098412 0.0161224 0.038362883 -0.18455431
-0.2233127 0.1688965 -0.17620753 0.3327278 0.14506683 0.22168374 -0.22665335 0.18086714
0.2140949 -0.25255293 0.09250208 -0.23818636 0.050879013 0.12735642 0.21859185 -0.15197396
-0.0036726748 -0.32884288 0.16457511 -0.16464053 -0.29288834 -0.027246967 -0.089931324 -0.2365904
0.08325448 -0.25174156 -0.16697589 0.15691045 -0.35264242 0.19283028 0.061360735 0.21769513
0.11283402 0.1804457 -0.13122982 -0.14570503 0.19476122 -0.17254393 0.23627526 0.21042688
-0.17614146 -0.17609265 -0.2678944 0.12628546 -0.21969564 -0.053157374 0.22720487 -0.2676089
0.05087009 0.2156637 0.15254891 0.18028755 0.16374189 0.021729343 0.12392042 -0.065228954
0.21724223 -0.20136993 -0.17043814 0.14073852 -0.1936964 -0.16175337 0.21283703 -0.026701014
-0.13719484 -0.2961768 -0.16432792 0.20250523 0.10732204 -0.24665731 0.09996766 0.3109583
-0.12113432 0.124833286 -0.119577155 -0.24400942 -0.15732627 0.056241028 0.10059157 0.20619126
-0.23820928 -0.18582097 -0.19506712 0.15583555 -0.070321545 -0.17538042 -0.036369503 0.052621152

batch_norm1.running_var f4 [128]
00000000: b163 7e3c 0b97 963b d4f2 033b f143 253c
00000010: af84 183c f350 973c 3e2b a43b 12ba 773c
00000020: ea8d 873b 5f81 893b 9f5c c33b 613d 973c
00000030: 2580 bd3c b9e9 de3b 4e4c b23c 2e6d a93c
00000040: ad14 323c e339 aa3b 6975 f33b 443f 343c
00000050: 62ab a33c f0f1 a83d b05f 273c 81f4 6a3b
00000060: 6077 a63b c19a 003c 793a 4e3c 087b 323c
00000070: f342 1e3c d5bc a43c 1f02 af3b c7cc 623c
00000080: 9790 b13c 9115 5d3c 64b3 c53b c128 b43b
00000090: bb3d 2a3c fddf 4d3c f3b1 e13b d2c9 3f3c
000000a0: e867 4e3c 500b eb3b e674 e63b ac04 ba3c
000000b0: 05c4 1f3d 2cce 733c 8b14 4e3c b317 cd3b
000000c0: 6d91 7f3c f479 533c 1380 813b 5360 4f3c
000000d0: 5e98 b53b 0fdc 273c f4f2 353c 9b5d 523c
000000e0: 5fab cd3b 774c dd3c ee3c 1f3d fe84 ac3b
000000f0: d2fb 893c 1165 f43b eb5b b83a d85c 593c
00000100: d527 113c f24d 603c 8384 243c 4415 f73b
00000110: 70d7 6b3c 66b1 fd3b a454 2c3c 4c8c 713c
00000120: 3d9b 733c 2af1 223c 47fe a93c 5dfc 723c
00000130: 2cfb 8d3b 9396 fc3a 8f2e 153c 6cc7 133c
00000140: 0493 2d3c 5458 9e3b 3a5a 2a3c 62e9 3f3c
00000150: cbd9 033c 37d2 143c 4d80 8d3c c850 b63c
00000160: b0b3 a23b 2d37 653c e4d5 fb3c 56e4 ff3b
00000170: 3eae ff3b 8d3d 2d3c 0e54 5e3b 424a 063b
00000180: 6377 3f3c b539 3d3c 1dc2 703b 41ba fb3b
00000190: 05fa 313c 3b0f 3b3b b221 3c3c bacd 3a3c
000001a0: 347d bf3b d9c5 443c 5c70 5c3c 092d 6b3c
000001b0: e235 313c ad03 2c3c 0dbc 503b c6b2 8e3c
000001c0: 2ab5 353c acb5 eb3c e5b7 293c df29 7d3c
000001d0: ff09 453b 754d d83b 639f e33b 20c9 2a3c
000001e0: dbec 383c 1a5e f03b c54b fa3b 5b05 ad3b
000001f0: 416c a53b ee6f 033c 4c87 d83b e612 3a3b
0.015526698 0.0045956424 0.002013375 0.010086999 0.009308978 0.018471217 0.0050100377 0.015120046
0.0041367905 0.0041963304 0.005961969 0.018461885 0.023132393 0.0068027643 0.0217649 0.020681944
0.010869187 0.005194889 0.007429768 0.011001412 0.019979183 0.08249271 0.010215685 0.0035851302
0.0050801486 0.007849396 0.012587183 0.010893591 0.009659517 0.020109573 0.005340829 0.013842768
0.021675391 0.013493911 0.006033348 0.0054980223 0.010390694 0.01256561 0.0068876683 0.011705833
0.012598015 0.0071729794 0.0070329783 0.022707306 0.0390053 0.014880698 0.01257814 0.0062589287
0.015598637 0.012907494 0.003952035 0.012657243 0.005541845 0.010245337 0.011105288 0.0128397
0.0062765325 0.027014 0.038876466 0.0052648773 0.01684371 0.007458337 0.001406548 0.013266765
0.008859594 0.013690459 0.010041359 0.007540377 0.014394626 0.007742095 0.010518227 0.014742922
0.014868555 0.009945193 0.020751132 0.014830676 0.0043329205 0.0019270949 0.009105339 0.009019714
0.010594133 0.004832307 0.010397488 0.011713358 0.008047531 0.009083322 0.017273093 0.022255316
0.004965268 0.013990206 0.03074164 0.007809202 0.0078027537 0.010573757 0.0033924612 0.0020491038
0.011686179 0.011549403 0.0036736794 0.0076821153 0.010862832 0.0028543014 0.011482643 0.011401588
0.005843783 0.012010061 0.013454523 0.014353999 0.010816069 0.010498923 0.0031850368 0.01741923
0.011090556 0.028773151 0.010358785 0.015451877 0.0030065773 0.0066010305 0.0069464906 0.0104239285
0.0112869395 0.0073354365 0.007638427 0.0052801794 0.0050483053 0.008022292 0.0066079255 0.0028392612

conv2.bias f4 [128]
00000000: 6576 17b9 15eb 10bb c403 cb39 01c6 103a
00000010: 76ee 2039 82c3 1939 d5d5 4abb 2d5b ba3a
00000020: e203 4bba f751 c2b9 9e4e 9b39 5970 b9b9
00000030: a5d3 8b39 9fce 3b39 f69a 6eba 9040 89b9
00000040: f194 20ba f9ee 6539 f06d 81b8 8a9c 28ba
00000050: b6b0 0039 53df bfba 078d dfba 6ff7 d23a
00000060: 8c9e 14ba 6fb3 403a 0107 a1ba 6123 073a
00000070: 0593 1ab8 d75a 9b38 adfc 3eba 619d 5bb9
00000080: a635 a8b9 b20c 5f39 b41a d13a fb29 45ba
00000090: e725 30bb e3b1 bd3a 1e67 473a 7c7e 88ba
000000a0: 8ef6 21ba a9b2 a73a 59c2 c6ba 97b0 b73a
000000b0: b1ae 4eba f95d 77b9 e1bf 2d3a d375 0239
000000c0: d3f8 bd39 b510 aeba d8a4 98b9 743f 9438
000000d0: 83b6 d5b8 cb10 7839 e678 a539 c62e f1b8
000000e0: cde7 37bb d812 633a 284e 1d39 c17c a9b9
000000f0: 5110 13ba 997a 14b9 83d5 933b 31f3 3eba
00000100: 5061 26b9 6626 4bbb 6786 4039 83bd 7039
00000110: 2034 443a ca26 5aba 9af5 5cb9 49ee bdba
00000120: 6da8 7e39 bfd7 9cb8 e9f5 31b9 fd11 b639
00000130: b188 caba 5fc5 3fbb 43e6 03b9 2e68 02ba
00000140: c28b 10bb 7b53 02bc 24cf 1bba 94fb a53a
00000150: 7aaa 9dba 7424 e1b9 3a89 a23a 4e5c d739
00000160: 2db1 5cb9 8782 dc39 8673 95ba cabe 7e3a
00000170: b594 e739 2595 b738 fe2f 073a 9584 6fba
00000180: e5de 2a3a b797 bd39 0e89 af38 e2d2 ad3a
00000190: 6d7a 043b 3b1d 38ba ca7a ab3a 05b6 a8b9
000001a0: 939b 61ba 85f9 ad3a 894e cfb9 b25b 333a
000001b0: 3298 6839 6815 79ba af73 45ba 79c1 9c3a
000001c0: 1f38 dfba 3da2 e8b9 7b3b 66ba 6ba0 ffba
000001d0: e515 cd3a 7a8a 18ba 67c1 42b9 6265 fa39
000001e0: 8a9b 0dba c208 e73a 8c2c a03a 0b39 9f3a
000001f0: d0b5 3739 99ad a038 3749 063a cf97 5eb8
-0.00014444588 -0.0022112776 0.00038721983 0.0005522669 0.00015347623 0.0001466405 -0.0030950208 0.0014217846
-0.0007744414 -0.00037063632 0.00029622478 -0.00035369655 0.00026669833 0.00017910682 -0.00091020705 -0.0002617878
-0.00061257096 0.00021928166 -6.171677e-05 -0.00064320175 0.00012272861 -0.0014638699 -0.0017055579 0.001609547
-0.0005669377 0.00073509564 -0.0012285413 0.0005155113 -3.6853384e-05 7.407896e-05 -0.00072855764 -0.00020944096
-0.00032083428 0.00021271667 0.0015953393 -0.0007521209 -0.002687806 0.001447257 0.0007606613 -0.0010413672
-0.0006178402 0.0012794334 -0.0015164121 0.001401442 -0.00078843074 -0.00023590763 0.00066280185 0.00012441659
0.00036234278 -0.0013280126 -0.00029114517 7.069009e-05 -0.00010190627 0.00023657379 0.0003156133 -0.00011500488
-0.0028061748 0.0008662171 0.00015001802 -0.0003232714 -0.00056100363 -0.00014160051 0.0045115366 -0.0007284163
-0.00015867245 -0.003099823 0.00018360616 0.00022958782 0.0007484574 -0.000832182 -0.00021072329 -0.001449057
0.00024286071 -7.4788455e-05 -0.00016971644 0.00034727147 -0.0015452114 -0.002926193 -0.00012578913 -0.00049746304
-0.0022055958 -0.007954474 -0.0005943647 0.0012663477 -0.0012028955 -0.00042942504 0.0012400516 0.00041076768
-0.00021046838 0.0004205892 -0.0011402227 0.0009717761 0.0004417055 8.7539e-05 0.00051569927 -0.0009136883
0.0006518199 0.00036161926 8.370179e-05 0.00132617 0.0020214573 -0.00070233986 0.0013082859 -0.00032179072
-0.0008606251 0.0013273215 -0.0003954063 0.0006841972 0.00022181941 -0.0009501786 -0.0007532192 0.0011959515
-0.0017030275 -0.00044371365 -0.0008782667 -0.0019502764 0.0015646784 -0.00058189745 -0.0001857333 0.00047759252
-0.00054019 0.0017626511 0.0012220307 0.0012147737 0.0001751997 7.6617296e-05 0.0005122604 -5.3070307e-05

conv2.lin.weight f4 [128, 128]
00000000: 194e aa3d 22da 16be 2cdb 14be 3162 28be
00000010: baec 0d3e 60df dbbb 1df3 98bd 321f 8ebd
00000020: 0afa 0c3d 294d 18be 5f69 f6bb 9b65 9c3d
00000030: e101 24be 0645 91be fa8b a03c d70b c9bd
00000040: 3621 65be 8f8d 183e 8556 213e 37a5 b33d
00000050: e5d0 c63c fac1 e73d 67a0 d0bb d3dc 69be
00000060: b495 ffbc bd5d 2fbe cd9b acbd 1f92 15bd
00000070: ba48 b6be 5f26 7bbd 54f1 b3bd 67a8 8b3d
00000080: b268 81be 0381 7bbd 0e2b 05be 7ff0 0bbe
00000090: 21e6 083d 3000 c13d da27 7bbd c2df 3dbe
000000a0: 1ef9 68be 04ba 1a3e 30bd 4fba ea55 0c3d
000000b0: 4c61 b33d 3f14 2b3e 9ad9 7dbe fb78 ac3d
000000c0: d2e4 1c3e 7f8e 8cbd 4d54 713d 3518 49be
000000d0: e7d7 08be abc6 f0bb 3e63 483e c29e 03be
000000e0: ad9f 38bd e776 f0bc 4a53 673e 67b0 1d3e
000000f0: 381f 96bd b979 093d cc3e 603d 30fb 8fbe
00000100: a5a4 ab3c 6ef5 89bd 8353 4bbd 1e32 733e
00000110: 803c 863d dbd8 423e b13f 04be f7e0 663d
00000120: fcc0 3a3e c5cf fc3d 10eb 903c 67a8 93be
00000130: eefb 1b3d 1ed6 d2bd c619 1cbe 475a c03d
00000140: b109 ddbd 5a56 c6bb b36c f1bd 69ee 683d
00000150: 77f7 b43d 60e1 54bd 3136 e8bd bf3e 69be
00000160: e4eb 103d f0c1 0bbe 01a0 9a3d 2ede 903d
00000170: 6180 13bd bda5 d5bd 268a 9b3c ba8a 67bd
00000180: 2c05 0b3e 396a 4dbe bcd5 60be 7e4f 42bd
00000190: 5775 67be a048 52bc 0208 d23a 5f2b 50be
000001a0: 2c6d 5dbe 7f46 0f3e 6173 adbc 210a 103e
000001b0: 577f 17bc d365 303e 1dca 02be 03b8 fb3c
000001c0: ddcd 853c a9f1 1d3d 38ad 07be 9ed6 15be
000001d0: fa75 583d 6c95 7cbd 03b4 013e 8a00 803d
000001e0: 564e a0bc bd1a 38be b305 29be 2591 86bd
000001f0: 3653 1cbe 2815 283c 6023 2fbe 65dd 3dbe
00000200: 093e abbd 1c4f 1f3e b57f 2dbd b840 a8bd
00000210: 9a59 953d 07f7 acbc b06e abbb 22d0 113e
00000220: 31fd 393d 03a1 dfbc 8fee 993d f6c2 3e3e
00000230: 8b74 ee3d f40e f23d 5119 9d3d 8564 c83d
00000240: 4c96 83bd 8bf1 8bbd 133f 3abd 8c55 873d
00000250: e48b ea3c d403 bebd e489 093c ae55 b63d
00000260: e1e7 ebbd 2ed4 aebd 5ef7 febd 1a8a 0f3e
00000270: d8e7 d5bd 845d 5f3d f0ba 5c3e 611e f23d
00000280: a6b3 4fbd 1750 443e ede2 b1bd 23ab 01bd
00000290: 3f30 cfbd 12e9 b2bd de22 1f3e 0053 8d3d
000002a0: 6596 e23d 2430 62be 989b 3d3d bd25 133e
000002b0: 470b 9bbe e84f a4bd 1879 19bb c9ff 43bd
000002c0: 1ca0 cebd 4e14 4bbb 362f c0bd a79f e83d
000002d0: 8b72 553e e7d1 15be a190 72bd 8c01 11bd
000002e0: ddf7 d33c 5b24 cc3d bc00 a2bd d30c 8dbd
000002f0: d78c 05be 782e dd3d 0838 87be 2ab3 7b3d
00000300: 67c4 0e3e d8fb a2bd 0999 99bd d745 233e
00000310: 9f2d 053d 3547 a03d 8187 433e e1cd ebbd
00000320: 64fd b33d 7d80 61bd 8664 063e baf2 5b3e
00000330: ec9d 02bc 8e3a 673d 5b2c 75bd 8f5f e73c
00000340: cc9f d33d 76ff fcbd a393 0fbe 58e5 1e3e
00000350: 9015 45bd 1a04 2cbe 1b20 e63d 5e90 063e
00000360: c5d2 2f3e 7b70 f03d 345b 86be 37b1 813c
00000370: 37ce 983d 1b42 e53d 774a 2bbe 4f53 2ebd
00000380: 1f39 01be 839d 943c 2c8a 613d 5e4d 53bd
00000390: 0d31 383d 9b93 37be cbea 9a3d 41ef 5f3b
000003a0: 3952 1e3d c203 60bc 566e bebd 7293 493d
000003b0: 9f8e 303e c3f5 f9bd d657 aa3d cecc d63b
000003c0: 4661 9b3d 9730 1dbe 00f7 553e 26f1 853d
000003d0: 9ac1 12be 9893 47bd 12dc 183d 2ad3 fb3c
000003e0: cbc0 cf3c 25b1 523c 62bc c9bd eddd 103d
000003f0: 69b4 da3d 98bd 13be 1961 aa3e 1556 0c3e
0.08315677 -0.14731649 -0.14536732 -0.16443707 0.13859835 -0.006709978 -0.07468245 -0.06939544
0.034418143 -0.14873184 -0.0075198854 0.07636567 -0.16016342 -0.28372973 0.019597996 -0.098167114
-0.2237595 0.1489775 0.15755661 0.087717466 0.02426953 0.11316295 -0.0063667777 -0.22838144
-0.031199314 -0.17125602 -0.08428154 -0.036516305 -0.3560236 -0.06131589 -0.08786264 0.068192296
-0.2527519 -0.061402332 -0.13004705 -0.1366596 0.033422593 0.09423864 -0.061317302 -0.18542388
-0.2275128 0.15110022 -0.00079246145 0.03426162 0.08758792 0.16706942 -0.2479004 0.08421513
0.15321663 -0.068631165 0.058918286 -0.1963814 -0.1336361 -0.007347902 0.19569108 -0.1285353
-0.045074154 -0.029353572 0.22590366 0.15399323 -0.07330173 0.03356335 0.054747388 -0.28121328
0.020952532 -0.06736265 -0.04964019 0.23749587 0.06554508 0.19028036 -0.12914921 0.056366887
0.1823768 0.123443164 0.017690212 -0.28839418 0.038082056 -0.10294746 -0.15244207 0.09392219
-0.10792864 -0.0060527744 -0.11788311 0.05686799 0.08836263 -0.051972747 -0.11338461 -0.22777842
0.035381213 -0.136482 0.075500496 0.070736274 -0.036011104 -0.10432003 0.018986773 -0.056528784
0.13576192 -0.20060052 -0.21956533 -0.04743909 -0.22603355 -0.012834698 0.0016024115 -0.20329045
-0.21623677 0.13991736 -0.021173181 0.14066364 -0.009246669 0.17226343 -0.12772413 0.030727392
0.016333515 0.038560543 -0.13249671 -0.14632651 0.052846886 -0.061665937 0.12666325 0.06250103
-0.019568603 -0.1797895 -0.1650608 -0.06570653 -0.15266117 0.01025895 -0.17103338 -0.18541487
-0.08361442 0.15557522 -0.04235812 -0.08215469 0.07292481 -0.021113886 -0.005231701 0.14239553
0.045407478 -0.027298456 0.075162046 0.18629059 0.116433226 0.11819258 0.07670844 0.097847976
-0.06425151 -0.0683318 -0.04547031 0.06608114 0.028631158 -0.09278074 0.008394692 0.08903061
-0.11518837 -0.08536564 -0.12449525 0.14017525 -0.10444611 0.054532543 0.21555686 0.118222006
-0.050708435 0.19171177 -0.08685861 -0.03165735 -0.10116624 -0.08735861 0.15540645 0.069005966
0.11063842 -0.22088677 0.046290964 0.14369865 -0.3028204 -0.080230534 -0.0023418125 -0.047851358
-0.10089132 -0.0030987444 -0.09384005 0.11358576 0.20844476 -0.14630853 -0.05921996 -0.035401866
0.025875026 0.09967872 -0.07910296 -0.06887212 -0.13042007 0.10799879 -0.26409936 0.06145016
0.13942109 -0.07958192 -0.07499892 0.1594461 0.03251421 0.07826082 0.1909466 -0.11513878
0.08788565 -0.055054177 0.13124284 0.21479312 -0.007972222 0.056452326 -0.059856754 0.028243808
0.10333213 -0.12353413 -0.14021163 0.15517175 -0.048116267 -0.1679844 0.112365924 0.13141009
0.17170246 0.11740204 -0.26241457 0.015831573 0.07461207 0.11194249 -0.16727625 -0.042559918
-0.12619446 0.018141514 0.05506341 -0.051587455 0.044968653 -0.17927401 0.075643145 0.0034169706
0.038652632 -0.013672771 -0.09298389 0.04921288 0.17241906 -0.122050785 0.083175346 0.0065551763
0.07586913 -0.15350567 0.20895004 0.06540136 -0.14331666 -0.04872474 0.03731925 0.03074034
0.025360486 0.012859617 -0.09850384 0.035367895 0.10678942 -0.14427793 0.33277205 0.13704713

batch_norm2.weight f4 [128]
00000000: b226 693f 6ab1 7f3f 1da0 a23f dd59 8a3f
00000010: 475e 813f 7473 833f 61c1 b03f 1de6 963f
00000020: 62b3 833f 88bc 4f3f 15b3 683f daae 693f
00000030: 1fe1 6b3f 0718 893f f6a5 683f 9422 a63f
00000040: 228e 913f 9770 7f3f 8a67 8b3f fa25 593f
00000050: 5f56 a43f 7dae 893f d8b8 773f 5c7a a63f
00000060: 6bcb 803f 2489 a23f 6c59 763f 5fc0 623f
00000070: b7f7 803f 4e51 823f b600 7b3f a5c0 7f3f
00000080: fe6f 753f 3570 7a3f 1176 9e3f ddfe 803f
00000090: 0a6f 7a3f ac75 833f 3454 7e3f f6eb 8a3f
000000a0: fe26 643f 3161 903f 619e 903f b987 603f
000000b0: 1afd 523f f66f 6b3f cb2d 8d3f 2055 793f
000000c0: bc93 603f 92b0 8c3f 21ee 883f 0c68 853f
000000d0: 5466 5e3f 4de2 533f 9db1 3a3f 3e2c 8a3f
000000e0: 809b 8f3f f155 8b3f b823 773f 51dd 7c3f
000000f0: 56cb 893f e3e2 673f 4d36 8a3f fc0a 8b3f
00000100: 9145 663f e0bd 5b3f b09b 803f 118f 5b3f
00000110: 7a31 8e3f 09d3 6d3f 1b4d 6e3f 15e1 913f
00000120: 2206 8a3f 4c25 493f e737 7e3f a8dc 843f
00000130: b4d6 8a3f a421 8d3f 3a7b 873f 322d 653f
00000140: 0cf3 803f 0cde 5c3f d93e 733f 60ee 763f
00000150: 95d1 9a3f 5133 8f3f f2e8 903f e75c 673f
00000160: aaf3 873f 268d 763f a7ac 823f c25e 793f
00000170: ea3e 603f 6b6a 6d3f a17a 7b3f b4a5 9b3f
00000180: ea4c 903f 1835 8b3f 672f 8f3f 6120 963f
00000190: 9bc4 8a3f 2ff3 5b3f 5f9b 963f 92ef 923f
000001a0: 0fdb 673f f332 a93f d954 803f b98c 8e3f
000001b0: 12da 913f e7c7 873f 6f71 883f d990 6d3f
000001c0: dadc 6d3f 6e39 523f 6089 823f 8aa6 713f
000001d0: 3b65 8d3f 1865 973f 2232 923f 6df7 683f
000001e0: e80e 943f cb23 963f d7a4 903f 080a 423f
000001f0: 99d8 7c3f 0d82 9b3f 1dbe 843f 3f71 843f
0.9107467 0.9988009 1.2705113 1.0808674 1.0106896 1.0269608 1.3809015 1.1788975
1.0289118 0.8114705 0.9089826 0.9128243 0.9214038 1.0710458 0.90878236 1.2979302
1.13715 0.99781173 1.0890973 0.8482357 1.2838858 1.0756375 0.96766424 1.3006091
1.0062078 1.2698102 0.96230197 0.88574785 1.0075597 1.0181062 0.9804796 0.9990333
0.9587401 0.97827464 1.2379781 1.0077778 0.9782568 1.0270286 0.99347234 1.085326
0.89122 1.127966 1.1298333 0.87707096 0.8241745 0.91967714 1.10296 0.97395515
0.87725425 1.0991385 1.0697671 1.0422378 0.8687489 0.8276718 0.72927266 1.0794752
1.121933 1.0885602 0.9653888 0.987752 1.0765178 0.90580577 1.0797821 1.0862727
0.899499 0.858366 1.0047512 0.85765177 1.1108849 0.9290014 0.93086404 1.1396815
1.0783122 0.78572536 0.9930405 1.0379839 1.0846772 1.1025891 1.0584481 0.8952209
1.0074172 0.86276317 0.9501777 0.9645748 1.2095209 1.1187536 1.1321089 0.9037613
1.0621235 0.96309125 1.0208939 0.97410214 0.87596 0.92740506 0.9823399 1.2159944
1.1273472 1.0875578 1.1186341 1.1728631 1.0841249 0.85917944 1.1766165 1.1479361
0.9056863 1.3218673 1.0025893 1.1136695 1.1394675 1.060788 1.0659617 0.92799145
0.9291512 0.8211888 1.0198174 0.94394743 1.1046518 1.1827726 1.1421549 0.9100254
1.1567049 1.1729673 1.1300305 0.75796556 0.98768 1.2149063 1.0370518 1.034706

batch_norm2.bias f4 [128]
00000000: a526 35bd c837 43bd dc24 82bd f7ed 45be
00000010: c23f a63d c38c 663d 627b 843e 1443 0b3c
00000020: 8f7f a2bd 9b65 40be 0242 cfbd 04a6 9dbd
00000030: 9623 adbd 4a85 22be 1851 15be 9789 7ebd
00000040: af07 edbd 8bcf dc3b 429f 7dbd 69f9 3fbe
00000050: 5a40 ce3b 2fc7 be3c 5e60 f03b 2f04 cabd
00000060: 68ea 2dbd 588c 373e 19b5 75ba 06c9 1ebe
00000070: 0219 42be 3b05 e6bd 250d eb3c 69f8 53bd
00000080: b9dd 27be c21e c3bd df9d 933d ab73 113d
00000090: ebd0 c0bd 4c2b a4bc dce0 8b3b 1880 5bbd
000000a0: 9cba 05be a5ae b9bc 8b55 d7bd 4138 00bd
000000b0: 7289 33be a4c4 26bd 72ab 02be 2795 50bc
000000c0: 8fb7 f7bd 1217 f2bd 36d4 b5bc 8e3e bd3d
000000d0: b228 ecbd 8981 21be d447 74be c2ca 9e3c
000000e0: 42f2 0c3e b83d 07be e346 c6bd 4e84 ecbc
000000f0: 3133 b43d bbbe 26be 4c93 03bb e061 35bb
00000100: 3f19 d7bd 6848 23be eb47 edbd 7721 93bd
00000110: 3615 583d 0dc5 8fbd 7b91 f9bd b692 233d
00000120: 66b0 54bd d975 61be baa2 663d 6c43 61bd
00000130: e5be 73bd 7415 843d 7702 c23b afa2 e0bd
00000140: 1b0d 4fbc 4491 48be 3ce2 803d 717f 00be
00000150: 3848 833d 9d12 d73d 05e8 623d 9230 ddbd
00000160: 63fb ae3c 761b 07bd ee93 8b3b 531d bfbd
00000170: 8a88 6bbd ff58 febd 2c86 96bd 2ce0 633d
00000180: 9d22 c23d bc0d d2bc f2a2 08be c051 a93d
00000190: d6ce 8ebd d2b7 47bd 629a 2f3d f104 c83d
000001a0: bf3f f9bd 56a7 9a3d b786 c0bd 2b72 e2bc
000001b0: 0c63 873d 664f 83bd 1012 2a3d bd16 fcbd
000001c0: 2752 abbd bb9f 3abe 57bc 5b3d b6c2 9e3c
000001d0: 3465 b2bd 9056 35bc 7e46 4a3d 2efa 35bd
000001e0: 2b07 abbd b7af e3bd 7797 97bc 392e 44be
000001f0: 2541 6abd 159d 96bd 9c0f 0ebd 660f 36bd
-0.044226307 -0.04766062 -0.063546866 -0.19329058 0.081176296 0.056286585 0.25875384 0.008499879
-0.07934486 -0.1878876 -0.10120012 -0.076976806 -0.08454053 -0.15871158 -0.14581716 -0.062142935
-0.11573731 0.0067386082 -0.06191946 -0.18747486 0.0062942924 0.023288338 0.0073357066 -0.09864079
-0.042459875 0.1792463 -0.0009372994 -0.15506372 -0.18954852 -0.112314664 0.028692791 -0.051750574
-0.16393174 -0.09527351 0.07207846 0.0355107 -0.09414848 -0.020040177 0.0042687487 -0.053588957
-0.13059467 -0.022666285 -0.10514363 -0.031303648 -0.175329 -0.040714875 -0.12760714 -0.012730873
-0.12095558 -0.118208066 -0.022195917 0.09240447 -0.115311995 -0.1577207 -0.23855525 0.019383792
0.13764289 -0.13207138 -0.09681489 -0.028871682 0.087988265 -0.16283695 -0.002007681 -0.0027676746
-0.10502862 -0.1594559 -0.11585983 -0.07184117 0.052754603 -0.07020006 -0.12185951 0.039934836
-0.05192604 -0.22017612 0.056307532 -0.05499594 -0.059508223 0.06449404 0.005920704 -0.109685294
-0.012637402 -0.19586664 0.06293151 -0.12548615 0.06410259 0.10501597 0.055397052 -0.1080028
0.021360105 -0.032985173 0.004259578 -0.09331765 -0.05750326 -0.124193184 -0.0734981 0.05563371
0.09479258 -0.025641315 -0.13343409 0.08267546 -0.069730446 -0.04875929 0.04287184 0.097665675
-0.12170362 0.07551448 -0.09400695 -0.02764233 0.066106886 -0.064116284 0.041521132 -0.123090245
-0.08365279 -0.18224995 0.05364641 0.019379955 -0.08710709 -0.011068001 0.049383633 -0.044428043
-0.083509766 -0.11117499 -0.018504841 -0.19158258 -0.057191033 -0.0735418 -0.034682855 -0.04444828

batch_norm2.running_mean f4 [128]
00000000: 2a39 c3bf 2a51 803f d7ef f73f b179 2e40
00000010: 7b42 5d3e 99fc fdbf 38d1 f83f 128a 9c3d
00000020: c19e 7b3f a542 15bf fdad 2ebf 1712 d9bf
00000030: f76b 17c0 5bc2 2940 da5b 53be d748 0f40
00000040: b1a7 3540 cef9 d0bf f54f a03f 7912 babf
00000050: 6c37 e13f 18ad 6ebf ca55 34c0 8582 f63f
00000060: b5f8 bd3f be99 9d3f dcb4 d83f 3af4 093f
00000070: e8d3 1140 8ace 3640 f266 9cbf 320b f63e
00000080: ea0c df3e 653f 6dbf e4ca 3a3e 98ba e4bf
00000090: fc33 d73c 9561 35c0 92db 6ec0 882a 28c0
000000a0: f883 523f d979 d13f e88b fe3f cb37 0dc0
000000b0: 7087 1f40 786a 94be 3255 1d40 4525 a43e
000000c0: 4348 3abf 107c 0640 876f 513f 4bf5 2940
000000d0: 2d4b 813e 14e3 40bf 3aa6 10c0 37c3 4ac0
000000e0: f13e ecbf ea7a 0840 6eb2 5340 5f3d 3b3f
000000f0: 8af2 3b40 9101 85bf 4bce 3640 0090 0ec0
00000100: a9a6 6e3e 2b70 19c0 10c9 c93f 6f2f c5bf
00000110: 4f15 2b3f a8c2 063e a996 e23f 6894 39be
00000120: b536 483f 8575 18c0 475c 1ebf e449 babe
00000130: 5e33 35c0 2fad 8f3f 64c2 533e ba78 d8bf
00000140: 2c9a debf 661a 35c0 1f97 af3f 46d8 3540
00000150: 4e00 2640 fe07 a53f 361e 473f 393d 28be
00000160: 299e ff3f 2f13 02bf 0ce5 20c0 29e5 9bbf
00000170: 57e4 07bf 946f e8be 4533 34c0 0ae4 2840
00000180: af05 1840 18d0 0ac0 f5ff 0040 f61f e43f
00000190: dd6d 2fc0 9a3f 96be 6a49 3abd 2914 1cc0
000001a0: 8760 97bf 602a 9dbc d7f3 12c0 a26a 403f
000001b0: 3b07 923e fe1d 1940 573d c33f 4d82 ca3e
000001c0: 3644 e2bf 3e1c c1bf 1983 4740 50f7 1e3e
000001d0: faba c23f 54ad a23f c172 433f 625e 06c0
000001e0: d1d2 f43f 83aa 2c40 3c27 f53f 8cac c2bc
000001f0: dea1 a53e b584 1e40 ad37 6d3e 2937 98be
-1.525182 1.0024769 1.9370068 2.7261775 0.21607392 -1.9842712 1.9438848 0.07643522
0.98289114 -0.58304816 -0.68234235 -1.6958646 -2.3659647 2.6524875 -0.20640507 2.2388208
2.83836 -1.6326234 1.2524401 -1.4536887 1.7595038 -0.9323287 -2.8177361 1.9258581
1.4841524 1.2312543 1.6930194 0.53888285 2.2785587 2.8563561 -1.2218916 0.48055416
0.4356454 -0.9267486 0.18241459 -1.7869444 0.026269905 -2.834081 -3.7321515 -2.627596
0.8223262 1.636531 1.9886446 -2.2065303 2.4926414 -0.2898748 2.458325 0.32059684
-0.7276651 2.1013222 0.818108 2.6555965 0.25252667 -0.75346494 -2.2601457 -3.168165
-1.8456708 2.132502 3.3077655 0.7314052 2.9366784 -1.0391103 2.8563411 -2.227539
0.23305763 -2.3974712 1.5764484 -1.54051 0.6682939 0.13160193 1.7702228 -0.18123019
0.78208476 -2.3821728 -0.61859554 -0.363845 -2.8312602 1.1224726 0.20679623 -1.6911843
-1.73908 -2.8297362 1.3717993 2.8413253 2.5937686 1.2893064 0.77780473 -0.16429605
1.9970142 -0.5081052 -2.51398 -1.2179309 -0.53082794 -0.45397627 -2.8156292 2.6389184
2.375347 -2.168951 2.0156224 1.7822254 -2.7410805 -0.293454 -0.04548017 -2.4387305
-1.1826333 -0.019185245 -2.2961328 0.7516271 0.2852114 2.3924556 1.5253094 0.39552537
-1.7677066 -1.5086744 3.1173766 0.1552403 1.5213311 1.2709146 0.76346976 -2.0995107
1.9126836 2.6979072 1.9152598 -0.023763917 0.32350057 2.4768498 0.2316577 -0.29729584

batch_norm2.running_var f4 [128]
00000000: 30f2 0c41 8d67 5b40 94a4 e83f 58be 1740
00000010: 0ab6 e03f aece 0241 29b6 553f a8bf c83f
00000020: a21d 8640 470d b03f 00df d540 66a1 7340
00000030: 65ea 5441 69be 2940 599f 1940 31eb 1440
00000040: 99bd 1340 c7c3 4a3f b46e 5440 facb 903f
00000050: 50b5 1840 519a dc40 21a4 df3f 9ba6 fe3f
00000060: 27ef 7940 2eba 2340 6240 8040 b36f 9340
00000070: 3c3a 2340 99cd c93f 7c4d 3341 b512 9940
00000080: 57ce ed40 9865 2441 29f9 5440 bc0f ca40
00000090: f199 9340 7bcf 1b41 87a4 7d40 28d0 803f
000000a0: f06d 4b40 a7d1 9240 9933 3040 9d24 7440
000000b0: 626c 5240 a7fc ee40 800e 9d3f 33fd 2e41
000000c0: 5d2a fc40 d09f 1040 616b 8840 e5ad 853f
000000d0: 2d67 3b41 21d3 bd40 6dc0 5c41 65a4 2041
000000e0: 2d77 8b3f bc82 2440 59aa 4440 028b 9240
000000f0: e67e b640 fb1f 3841 e216 9140 fd97 7840
00000100: 7b32 9f40 8a6d 8d40 0def 1c40 2eaf 1441
00000110: 0c45 2340 39bc 9640 ef92 3140 e2a5 dd3f
00000120: 5baf 7b40 ba27 1440 91a6 fd40 f649 1740
00000130: fd7f 6c40 e82b 4740 1c9c 3041 d8f6 fd40
00000140: 56a1 1f40 6eae 0b40 5f8d 9840 0fb7 e33f
00000150: c48b 8540 0df2 1440 e445 8240 ef8b 6a40
00000160: 81dc 4e3f f3d4 ee40 e1a3 8240 70ef 9b40
00000170: c0ec ff3f 4cf1 7840 8371 8040 d96d 1f40
00000180: 8b48 4840 d2e5 a540 cc8b 1540 df04 7740
00000190: 934c ce3f b9ca 4640 5c02 1840 6ddc 0041
000001a0: 31f6 6140 0184 9440 c133 5e40 3046 9940
000001b0: d205 6540 9dcc bb3f 8625 ae40 9e9e a03f
000001c0: e9cd 3741 b1a4 2041 7dbe b140 c818 da3e
000001d0: 30ad d03f 5205 e340 ed0a 9f40 4cdc 6141
000001e0: fe20 3740 eec0 3640 b379 133f 7b00 0f40
000001f0: 8cbe 1140 aa58 f73f 6db2 af3f 1bc6 1c41
8.809128 3.4281952 1.8175225 2.3709927 1.7555554 8.175459 0.8348108 1.5683489
4.1911173 1.3754052 6.6834717 3.806726 13.307225 2.6522467 2.4003508 2.326855
2.3084471 0.7920498 3.3192568 1.1312249 2.3860664 6.8938375 1.7471963 1.9894594
3.9052217 2.5582385 4.007859 4.607385 2.5504293 1.5765868 11.206417 4.7835336
7.431438 10.274803 3.3277075 6.3144207 4.6125417 9.738154 3.963167 1.0063524
3.178585 4.5880923 2.7531493 3.8147347 3.2878652 7.4683414 1.227005 10.936816
7.8801713 2.2597542 4.263108 1.0443693 11.712689 5.9320226 13.796979 10.040135
1.0895745 2.5704794 3.0728972 4.5794687 5.7029905 11.507808 4.5340433 3.8842766
4.974912 4.4196215 2.4520905 9.2927685 2.5510893 4.7104764 2.774593 1.7316248
3.9325778 2.3149247 7.926583 2.3638892 3.6953118 3.1120548 11.038113 7.9363823
2.4942222 2.1825213 4.767257 1.779024 4.173311 2.3272736 4.0710316 3.6647909
0.8080521 7.463495 4.0825047 4.872978 1.9994125 3.8897276 4.0138564 2.4910796
3.1294277 5.184304 2.3366575 3.8596723 1.6117119 3.1061232 2.375144 8.053815
3.5306513 4.6411138 3.4719088 4.789818 3.5784802 1.4671818 5.4420805 1.2548406
11.487771 10.040208 5.554503 0.42597032 1.6302853 7.0943995 4.9700837 14.116283
2.8613887 2.8555255 0.57607573 2.2344043 2.277255 1.9323933 1.3726326 9.798366

conv3.bias f4 [128]
00000000: 8fa0 32bb 017c fab9 e955 4dba 0ce7 50bb
00000010: 465b 18ba bc66 183a 1020 1cbb 6863 9e39
00000020: 3636 673a 2558 f43a 04bc 9dba f6ef 17ba
00000030: 280a 3038 247e 17bb 6cdf b83a 3fa5 01b9
00000040: a4be fa38 9c94 3b3a 9be0 8939 3cfd 733a
00000050: 72f9 9eba 9291 003a e88f ceb8 5258 e138
00000060: 8608 bdb9 58b0 693a 3da6 c5ba 61df b0b9
00000070: 52ae ebb8 983b cbb9 d2ea 87ba 3002 b23a
00000080: f402 a239 9427 b5ba 5791 96b9 6dce 463b
00000090: a25d 66bb 0b7b 81ba ad4a ddb8 717e eb39
000000a0: c95d 59ba 2e63 a839 1c56 a638 6e46 9aba
000000b0: c152 81ba f161 883a 4b19 ca39 e238 9dba
000000c0: 0feb 083a 0e4a 4aba 5a66 69ba 9311 2f3a
000000d0: 9f13 c038 c471 2f3b 015d 1b3a 28ab fb38
000000e0: f173 2f3a dfcc 01ba aa76 3439 dad0 293a
000000f0: 0af1 16b9 9493 4739 00df df38 a3f7 083a
00000100: a851 363b 9690 e539 8ed1 4f3a 7124 ff39
00000110: 866d a4b9 5175 95bb 50b0 78b9 4737 c4b9
00000120: 9f30 d038 c7a6 dc35 4a54 7439 8788 a337
00000130: fd2b 26ba e8e7 403a cd87 3fb9 33bf 3c37
00000140: fa3e 0f3a be52 d2ba 1d1b fe3a b870 5db9
00000150: 6b74 78ba 4929 27ba 6d83 9d37 af35 f4b9
00000160: c153 06ba c247 8839 1bfa ca39 97bd e1ba
00000170: 9d3b 1cb9 51d9 99ba d4e9 2b3b c1c6 08b8
00000180: 0e66 9236 4d23 e8b7 62cb 96ba 1ca5 33bb
00000190: 2863 f336 2682 12b9 3fe1 0ab9 a6c0 103a
000001a0: e187 ab39 538b f33a 4f53 00bc 44f1 a73a
000001b0: 1c59 63ba d121 7aba ea72 5ab9 5b05 5839
000001c0: 3f9e a73a 1847 923a 83bb 5039 6d18 0d3b
000001d0: e9ac 0dba 4e0f 433b 6ec0 5dba e7b6 0c3b
000001e0: ceaa 4cba 4523 133a 1dc5 ef39 05fe 8cba
000001f0: 9df5 19bb cd13 1539 b886 1fba 24d8 0c39
-0.0027256345 -0.00047776106 -0.0007832931 -0.0031875996 -0.00058119406 0.00058136485 -0.0023822822 0.00030210172
0.0008820029 0.0018641992 -0.0012034182 -0.000579595 4.197113e-05 -0.0023115957 0.0014104671 -0.00012363958
0.000119564385 0.00071556284 0.0002629802 0.0009307449 -0.0012128784 0.0004904504 -9.84965e-05 0.00010745287
-0.0003605524 0.0008914522 -0.001507945 -0.00033735766 -0.00011238143 -0.00038763578 -0.0010369665 0.0013580974
0.00030901248 -0.0013820999 -0.00028718516 0.0030335442 -0.0035151024 -0.0009878589 -0.00010552011 0.000449169
-0.0008291868 0.00032117352 7.931536e-05 -0.0011770257 -0.0009866582 0.0010405165 0.00038547287 -0.0011995102
0.0005223015 -0.00077167235 -0.0008903496 0.0006678339 9.158928e-05 0.002677069 0.00059266394 0.00012000493
0.0006692997 -0.00049514876 0.00017210344 0.00064779597 -0.00014394909 0.00019033096 0.000106750056 0.0005224889
0.0027819667 0.0004378601 0.00079276494 0.0004866454 -0.0003136212 -0.0045611043 -0.00023716805 -0.00037425218
9.927269e-05 1.6439816e-06 0.00023301053 1.949469e-05 -0.0006338952 0.00073587755 -0.00018265769 1.125019e-05
0.00054644013 -0.0016046388 0.0019386742 -0.00021118193 -0.0009477797 -0.00063766964 1.8777058e-05 -0.00046579304
-0.00051241746 0.00025993405 0.00038714785 -0.001722264 -0.00014899527 -0.0011737739 0.0026231902 -3.261003e-05
4.36302e-06 -2.7672993e-05 -0.0011504705 -0.0027411645 7.2535076e-06 -0.00013972129 -0.00013244616 0.0005521871
0.000327169 0.001858095 -0.007832362 0.0012812992 -0.0008672641 -0.0009541782 -0.00020832909 0.0002060136
0.001278825 0.0011160104 0.0001990628 0.0021529451 -0.0005404489 0.002976376 -0.0008459155 0.0021471323
-0.00078074343 0.00056128606 0.00045732493 -0.0010756856 -0.0023492344 0.00014217124 -0.00060854433 0.00013431959
